…
  transform_param {
    mirror: true
    crop_size: 224
    mean_value: 128
    fix_crop: false
    multi_scale: true
    scale_ratios: 1
    scale_ratios: 0.875
    scale_ratios: 0.75
    max_distort: 1
    is_flow: true
    num_segments: 120
  }
  video_data_param {
    source: "/data1/wangjiang/datasets/ucf101_list/train_list_split1.txt"
    batch_size: 288
    shuffle: true
    new_height: 256
    new_width: 352
    new_length: 10
    num_segments: 6
    modality: FLOW
    root_folder: "/data1/wangjiang/data/ucf101_flow_tvl1_340_256/"
    rep_label: 1
  }
}
layer {
  name: "Gather_label"
  type: "Gather"
  bottom: "label_single"
  top: "label"
}
layer {
  name: "conv1/7x7_s2"
  type: "ConvolutionData"
  bottom: "data"
  top: "conv1/7x7_s2"
  param {
    lr_mult: 1
    decay_mult: 1
  }
  convolution_param {
    num_output: 64
    bias_term: false
    pad: 3
    kernel_size: 7
    stride: 2
    weight_filler {
      type: "xavier"
    }
  }
}
layer {
  name: "conv1/7x7_s2/bn"
  type: "BNData"
  bottom: "conv1/7x7_s2"
  top: "conv1/7x7_s2/bn"
  param {
    lr_mult: 1
    decay_mult: 0
  }
  param {
    lr_mult: 1
    decay_mult: 0
  }
  param {
    lr_mult: 0
    decay_mult: 0
  }
  param {
    lr_mult: 0
    decay_mult: 0
  }
  bn_param {
    scale_filler {
      type: "constant"
      value: 1
    }
    shift_filler {
      type: "constant"
      value: 0
    }
    moving_average: true
    decay: 0.05
  }
}
layer {
  name: "conv1/relu_7x7"
  type: "ReLU"
  bottom: "conv1/7x7_s2/bn"
  top: "conv1/7x7_s2/bn"
}
layer {
  name: "pool1/3x3_s2"
  type: "Pooling"
  bottom: "conv1/7x7_s2/bn"
  top: "pool1/3x3_s2"
  pooling_param {
    pool: MAX
    kernel_size: 3
    stride: 2
  }
}
layer {
  name: "conv2/3x3_reduce"
  type: "ConvolutionData"
  bottom: "pool1/3x3_s2"
  top: "conv2/3x3_reduce"
  param {
    lr_mult: 1
    decay_mult: 1
  }
  convolution_param {
    num_output: 64
    bias_term: false
    kernel_size: 1
    weight_filler {
      type: "xavier"
    }
  }
}
layer {
  name: "conv2/3x3_reduce/bn"
  type: "BNData"
  bottom: "conv2/3x3_reduce"
  top: "conv2/3x3_reduce/bn"
  param {
    lr_mult: 1
    decay_mult: 0
  }
  param {
    lr_mult: 1
    decay_mult: 0
  }
  param {
    lr_mult: 0
    decay_mult: 0
  }
  param {
    lr_mult: 0
    decay_mult: 0
  }
  bn_param {
    scale_filler {
      type: "constant"
      value: 1
    }
    shift_filler {
      type: "constant"
      value: 0
    }
    moving_average: true
    decay: 0.05
  }
}
layer {
  name: "conv2/relu_3x3_reduce"
  type: "ReLU"
  bottom: "conv2/3x3_reduce/bn"
  top: "conv2/3x3_reduce/bn"
}
layer {
  name: "conv2/3x3"
  type: "ConvolutionData"
  bottom: "conv2/3x3_reduce/bn"
  top: "conv2/3x3"
  param {
    lr_mult: 1
    decay_mult: 1
  }
  convolution_param {
    num_output: 192
    bias_term: false
    pad: 1
    kernel_size: 3
    weight_filler {
      type: "xavier"
    }
  }
}
layer {
  name: "conv2/3x3/bn"
  type: "BNData"
  bottom: "conv2/3x3"
  top: "conv2/3x3/bn"
  param {
    lr_mult: 1
    decay_mult: 0
  }
  param {
    lr_mult: 1
    decay_mult: 0
  }
  param {
    lr_mult: 0
    decay_mult: 0
  }
  param {
    lr_mult: 0
    decay_mult: 0
  }
  bn_param {
    scale_filler {
      type: "constant"
      value: 1
    }
    shift_filler {
      type: "constant"
      value: 0
    }
    moving_average: true
    decay: 0.05
  }
}
layer {
  name: "conv2/relu_3x3"
  type: "ReLU"
  bottom: "conv2/3x3/bn"
  top: "conv2/3x3/bn"
}
layer {
  name: "pool2/3x3_s2"
  type: "Pooling"
  bottom: "conv2/3x3/bn"
  top: "pool2/3x3_s2"
  pooling_param {
    pool: MAX
    kernel_size: 3
    stride: 2
  }
}
layer {
  name: "inception_3a/1x1"
  type: "ConvolutionData"
  bottom: "pool2/3x3_s2"
  top: "inception_3a/1x1"
  param {
    lr_mult: 1
    decay_mult: 1
  }
  convolution_param {
    num_output: 64
    bias_term: false
    kernel_size: 1
    weight_filler {
      type: "xavier"
    }
  }
}
layer {
  name: "inception_3a/1x1/bn"
  type: "BNData"
  bottom: "inception_3a/1x1"
  top: "inception_3a/1x1/bn"
  param {
    lr_mult: 1
    decay_mult: 0
  }
  param {
    lr_mult: 1
    decay_mult: 0
  }
  param {
    lr_mult: 0
    decay_mult: 0
  }
  param {
    lr_mult: 0
    decay_mult: 0
  }
  bn_param {
    scale_filler {
      type: "constant"
      value: 1
    }
    shift_filler {
      type: "constant"
      value: 0
    }
    moving_average: true
    decay: 0.05
  }
}
layer {
  name: "inception_3a/relu_1x1"
  type: "ReLU"
  bottom: "inception_3a/1x1/bn"
  top: "inception_3a/1x1/bn"
}
layer {
  name: "inception_3a/3x3_reduce"
  type: "ConvolutionData"
  bottom: "pool2/3x3_s2"
  top: "inception_3a/3x3_reduce"
  param {
    lr_mult: 1
    decay_mult: 1
  }
  convolution_param {
    num_output: 64
    bias_term: false
    kernel_size: 1
    weight_filler {
      type: "xavier"
    }
  }
}
layer {
  name: "inception_3a/3x3_reduce/bn"
  type: "BNData"
  bottom: "inception_3a/3x3_reduce"
  top: "inception_3a/3x3_reduce/bn"
  param {
    lr_mult: 1
    decay_mult: 0
  }
  param {
    lr_mult: 1
    decay_mult: 0
  }
  param {
    lr_mult: 0
    decay_mult: 0
  }
  param {
    lr_mult: 0
    decay_mult: 0
  }
  bn_param {
    scale_filler {
      type: "constant"
      value: 1
    }
    shift_filler {
      type: "constant"
      value: 0
    }
    moving_average: true
    decay: 0.05
  }
}
layer {
  name: "inception_3a/relu_3x3_reduce"
  type: "ReLU"
  bottom: "inception_3a/3x3_reduce/bn"
  top: "inception_3a/3x3_reduce/bn"
}
layer {
  name: "inception_3a/3x3"
  type: "ConvolutionData"
  bottom: "inception_3a/3x3_reduce/bn"
  top: "inception_3a/3x3"
  param {
    lr_mult: 1
    decay_mult: 1
  }
  convolution_param {
    num_output: 64
    bias_term: false
    pad: 1
    kernel_size: 3
    weight_filler {
      type: "xavier"
    }
  }
}
layer {
  name: "inception_3a/3x3/bn"
  type: "BNData"
  bottom: "inception_3a/3x3"
  top: "inception_3a/3x3/bn"
  param {
    lr_mult: 1
    decay_mult: 0
  }
  param {
    lr_mult: 1
    decay_mult: 0
  }
  param {
    lr_mult: 0
    decay_mult: 0
  }
  param {
    lr_mult: 0
    decay_mult: 0
  }
  bn_param {
    scale_filler {
      type: "constant"
      value: 1
    }
    shift_filler {
      type: "constant"
      value: 0
    }
    moving_average: true
    decay: 0.05
  }
}
layer {
  name: "inception_3a/relu_3x3"
  type: "ReLU"
  bottom: "inception_3a/3x3/bn"
  top: "inception_3a/3x3/bn"
}
layer {
  name: "inception_3a/double3x3_reduce"
  type: "ConvolutionData"
  bottom: "pool2/3x3_s2"
  top: "inception_3a/double3x3_reduce"
  param {
    lr_mult: 1
    decay_mult: 1
  }
  convolution_param {
    num_output: 64
    bias_term: false
    kernel_size: 1
    weight_filler {
      type: "xavier"
    }
  }
}
layer {
  name: "inception_3a/double3x3_reduce/bn"
  type: "BNData"
  bottom: "inception_3a/double3x3_reduce"
  top: "inception_3a/double3x3_reduce/bn"
  param {
    lr_mult: 1
    decay_mult: 0
  }
  param {
    lr_mult: 1
    decay_mult: 0
  }
  param {
    lr_mult: 0
    decay_mult: 0
  }
  param {
    lr_mult: 0
    decay_mult: 0
  }
  bn_param {
    scale_filler {
      type: "constant"
      value: 1
    }
    shift_filler {
      type: "constant"
      value: 0
    }
    moving_average: true
    decay: 0.05
  }
}
layer {
  name: "inception_3a/relu_double3x3_reduce"
  type: "ReLU"
  bottom: "inception_3a/double3x3_reduce/bn"
  top: "inception_3a/double3x3_reduce/bn"
}
layer {
  name: "inception_3a/double3x3a"
  type: "ConvolutionData"
  bottom: "inception_3a/double3x3_reduce/bn"
  top: "inception_3a/double3x3a"
  param {
    lr_mult: 1
    decay_mult: 1
  }
  convolution_param {
    num_output: 96
    bias_term: false
    pad: 1
    kernel_size: 3
    weight_filler {
      type: "xavier"
    }
  }
}
layer {
  name: "inception_3a/double3x3a/bn"
  type: "BNData"
  bottom: "inception_3a/double3x3a"
  top: "inception_3a/double3x3a/bn"
  param {
    lr_mult: 1
    decay_mult: 0
  }
  param {
    lr_mult: 1
    decay_mult: 0
  }
  param {
    lr_mult: 0
    decay_mult: 0
  }
  param {
    lr_mult: 0
    decay_mult: 0
  }
  bn_param {
    scale_filler {
      type: "constant"
      value: 1
    }
    shift_filler {
      type: "constant"
      value: 0
    }
    moving_average: true
    decay: 0.05
  }
}
layer {
  name: "inception_3a/relu_double3x3a"
  type: "ReLU"
  bottom: "inception_3a/double3x3a/bn"
  top: "inception_3a/double3x3a/bn"
}
layer {
  name: "inception_3a/double3x3b"
  type: "ConvolutionData"
  bottom: "inception_3a/double3x3a/bn"
  top: "inception_3a/double3x3b"
  param {
    lr_mult: 1
    decay_mult: 1
  }
  convolution_param {
    num_output: 96
    bias_term: false
    pad: 1
    kernel_size: 3
    weight_filler {
      type: "xavier"
    }
  }
}
layer {
  name: "inception_3a/double3x3b/bn"
  type: "BNData"
  bottom: "inception_3a/double3x3b"
  top: "inception_3a/double3x3b/bn"
  param {
    lr_mult: 1
    decay_mult: 0
  }
  param {
    lr_mult: 1
    decay_mult: 0
  }
  param {
    lr_mult: 0
  }
  param {
    lr_mult: 0
  }
  bn_param {
    scale_filler {
      type: "constant"
      value: 1
    }
    shift_filler {
      type: "constant"
      value: 0
    }
    moving_average: true
    decay: 0.05
  }
}
layer {
  name: "inception_3a/relu_double3x3b"
  type: "ReLU"
  bottom: "inception_3a/double3x3b/bn"
  top: "inception_3a/double3x3b/bn"
}
layer {
  name: "inception_3a/pool"
  type: "Pooling"
  bottom: "pool2/3x3_s2"
  top: "inception_3a/pool"
  pooling_param {
    pool: AVE
    kernel_size: 3
    stride: 1
    pad: 1
  }
}
layer {
  name: "inception_3a/pool_proj"
  type: "ConvolutionData"
  bottom: "inception_3a/pool"
  top: "inception_3a/pool_proj"
  param {
    lr_mult: 1
    decay_mult: 1
  }
  convolution_param {
    num_output: 32
    bias_term: false
    kernel_size: 1
    weight_filler {
      type: "xavier"
    }
  }
}
layer {
  name: "inception_3a/pool_proj/bn"
  type: "BNData"
  bottom: "inception_3a/pool_proj"
  top: "inception_3a/pool_proj/bn"
  param {
    lr_mult: 1
    decay_mult: 0
  }
  param {
    lr_mult: 1
    decay_mult: 0
  }
  param {
    lr_mult: 0
    decay_mult: 0
  }
  param {
    lr_mult: 0
    decay_mult: 0
  }
  bn_param {
    scale_filler {
      type: "constant"
      value: 1
    }
    shift_filler {
      type: "constant"
      value: 0
    }
    moving_average: true
    decay: 0.05
  }
}
layer {
  name: "inception_3a/relu_pool_proj"
  type: "ReLU"
  bottom: "inception_3a/pool_proj/bn"
  top: "inception_3a/pool_proj/bn"
}
layer {
  name: "inception_3a/output"
  type: "Concat"
  bottom: "inception_3a/1x1/bn"
  bottom: "inception_3a/3x3/bn"
  bottom: "inception_3a/double3x3b/bn"
  bottom: "inception_3a/pool_proj/bn"
  top: "inception_3a/output"
}
layer {
  name: "inception_3b/1x1"
  type: "ConvolutionData"
  bottom: "inception_3a/output"
  top: "inception_3b/1x1"
  param {
    lr_mult: 1
    decay_mult: 1
  }
  convolution_param {
    num_output: 64
    bias_term: false
    kernel_size: 1
    weight_filler {
      type: "xavier"
    }
  }
}
layer {
  name: "inception_3b/1x1/bn"
  type: "BNData"
  bottom: "inception_3b/1x1"
  top: "inception_3b/1x1/bn"
  param {
    lr_mult: 1
    decay_mult: 0
  }
  param {
    lr_mult: 1
    decay_mult: 0
  }
  param {
    lr_mult: 0
    decay_mult: 0
  }
  param {
    lr_mult: 0
    decay_mult: 0
  }
  bn_param {
    scale_filler {
      type: "constant"
      value: 1
    }
    shift_filler {
      type: "constant"
      value: 0
    }
    moving_average: true
    decay: 0.05
  }
}
layer {
  name: "inception_3b/relu_1x1"
  type: "ReLU"
  bottom: "inception_3b/1x1/bn"
  top: "inception_3b/1x1/bn"
}
layer {
  name: "inception_3b/3x3_reduce"
  type: "ConvolutionData"
  bottom: "inception_3a/output"
  top: "inception_3b/3x3_reduce"
  param {
    lr_mult: 1
    decay_mult: 1
  }
  convolution_param {
    num_output: 64
    bias_term: false
    kernel_size: 1
    weight_filler {
      type: "xavier"
    }
  }
}
layer {
  name: "inception_3b/3x3_reduce/bn"
  type: "BNData"
  bottom: "inception_3b/3x3_reduce"
  top: "inception_3b/3x3_reduce/bn"
  param {
    lr_mult: 1
    decay_mult: 0
  }
  param {
    lr_mult: 1
    decay_mult: 0
  }
  param {
    lr_mult: 0
    decay_mult: 0
  }
  param {
    lr_mult: 0
    decay_mult: 0
  }
  bn_param {
    scale_filler {
      type: "constant"
      value: 1
    }
    shift_filler {
      type: "constant"
      value: 0
    }
    moving_average: true
    decay: 0.05
  }
}
layer {
  name: "inception_3b/relu_3x3_reduce"
  type: "ReLU"
  bottom: "inception_3b/3x3_reduce/bn"
  top: "inception_3b/3x3_reduce/bn"
}
layer {
  name: "inception_3b/3x3"
  type: "ConvolutionData"
  bottom: "inception_3b/3x3_reduce/bn"
  top: "inception_3b/3x3"
  param {
    lr_mult: 1
    decay_mult: 1
  }
  convolution_param {
    num_output: 96
    bias_term: false
    pad: 1
    kernel_size: 3
    weight_filler {
      type: "xavier"
    }
  }
}
layer {
  name: "inception_3b/3x3/bn"
  type: "BNData"
  bottom: "inception_3b/3x3"
  top: "inception_3b/3x3/bn"
  param {
    lr_mult: 1
    decay_mult: 0
  }
  param {
    lr_mult: 1
    decay_mult: 0
  }
  param {
    lr_mult: 0
    decay_mult: 0
  }
  param {
    lr_mult: 0
    decay_mult: 0
  }
  bn_param {
    scale_filler {
      type: "constant"
      value: 1
    }
    shift_filler {
      type: "constant"
      value: 0
    }
    moving_average: true
    decay: 0.05
  }
}
layer {
  name: "inception_3b/relu_3x3"
  type: "ReLU"
  bottom: "inception_3b/3x3/bn"
  top: "inception_3b/3x3/bn"
}
layer {
  name: "inception_3b/double3x3_reduce"
  type: "ConvolutionData"
  bottom: "inception_3a/output"
  top: "inception_3b/double3x3_reduce"
  param {
    lr_mult: 1
    decay_mult: 1
  }
  convolution_param {
    num_output: 64
    bias_term: false
    kernel_size: 1
    weight_filler {
      type: "xavier"
    }
  }
}
layer {
  name: "inception_3b/double3x3_reduce/bn"
  type: "BNData"
  bottom: "inception_3b/double3x3_reduce"
  top: "inception_3b/double3x3_reduce/bn"
  param {
    lr_mult: 1
    decay_mult: 0
  }
  param {
    lr_mult: 1
    decay_mult: 0
  }
  param {
    lr_mult: 0
    decay_mult: 0
  }
  param {
    lr_mult: 0
    decay_mult: 0
  }
  bn_param {
    scale_filler {
      type: "constant"
      value: 1
    }
    shift_filler {
      type: "constant"
      value: 0
    }
    moving_average: true
    decay: 0.05
  }
}
layer {
  name: "inception_3b/relu_double3x3_reduce"
  type: "ReLU"
  bottom: "inception_3b/double3x3_reduce/bn"
  top: "inception_3b/double3x3_reduce/bn"
}
layer {
  name: "inception_3b/double3x3a"
  type: "ConvolutionData"
  bottom: "inception_3b/double3x3_reduce/bn"
  top: "inception_3b/double3x3a"
  param {
    lr_mult: 1
    decay_mult: 1
  }
  convolution_param {
    num_output: 96
    bias_term: false
    pad: 1
    kernel_size: 3
    weight_filler {
      type: "xavier"
    }
  }
}
layer {
  name: "inception_3b/double3x3a/bn"
  type: "BNData"
  bottom: "inception_3b/double3x3a"
  top: "inception_3b/double3x3a/bn"
  param {
    lr_mult: 1
    decay_mult: 0
  }
  param {
    lr_mult: 1
    decay_mult: 0
  }
  param {
    lr_mult: 0
    decay_mult: 0
  }
  param {
    lr_mult: 0
    decay_mult: 0
  }
  bn_param {
    scale_filler {
      type: "constant"
      value: 1
    }
    shift_filler {
      type: "constant"
      value: 0
    }
    moving_average: true
    decay: 0.05
  }
}
layer {
  name: "inception_3b/relu_double3x3a"
  type: "ReLU"
  bottom: "inception_3b/double3x3a/bn"
  top: "inception_3b/double3x3a/bn"
}
layer {
  name: "inception_3b/double3x3b"
  type: "ConvolutionData"
  bottom: "inception_3b/double3x3a/bn"
  top: "inception_3b/double3x3b"
  param {
    lr_mult: 1
    decay_mult: 1
  }
  convolution_param {
    num_output: 96
    bias_term: false
    pad: 1
    kernel_size: 3
    weight_filler {
      type: "xavier"
    }
  }
}
layer {
  name: "inception_3b/double3x3b/bn"
  type: "BNData"
  bottom: "inception_3b/double3x3b"
  top: "inception_3b/double3x3b/bn"
  param {
    lr_mult: 1
    decay_mult: 0
  }
  param {
    lr_mult: 1
    decay_mult: 0
  }
  param {
    lr_mult: 0
    decay_mult: 0
  }
  param {
    lr_mult: 0
    decay_mult: 0
  }
  bn_param {
    scale_filler {
      type: "constant"
      value: 1
    }
    shift_filler {
      type: "constant"
      value: 0
    }
    moving_average: true
    decay: 0.05
  }
}
layer {
  name: "inception_3b/relu_double3x3b"
  type: "ReLU"
  bottom: "inception_3b/double3x3b/bn"
  top: "inception_3b/double3x3b/bn"
}
layer {
  name: "inception_3b/pool"
  type: "Pooling"
  bottom: "inception_3a/output"
  top: "inception_3b/pool"
  pooling_param {
    pool: AVE
    kernel_size: 3
    stride: 1
    pad: 1
  }
}
layer {
  name: "inception_3b/pool_proj"
  type: "ConvolutionData"
  bottom: "inception_3b/pool"
  top: "inception_3b/pool_proj"
  param {
    lr_mult: 1
    decay_mult: 1
  }
  convolution_param {
    num_output: 64
    bias_term: false
    kernel_size: 1
    weight_filler {
      type: "xavier"
    }
  }
}
layer {
  name: "inception_3b/pool_proj/bn"
  type: "BNData"
  bottom: "inception_3b/pool_proj"
  top: "inception_3b/pool_proj/bn"
  param {
    lr_mult: 1
    decay_mult: 0
  }
  param {
    lr_mult: 1
    decay_mult: 0
  }
  param {
    lr_mult: 0
    decay_mult: 0
  }
  param {
    lr_mult: 0
    decay_mult: 0
  }
  bn_param {
    scale_filler {
      type: "constant"
      value: 1
    }
    shift_filler {
      type: "constant"
      value: 0
    }
    moving_average: true
    decay: 0.05
  }
}
layer {
  name: "inception_3b/relu_pool_proj"
  type: "ReLU"
  bottom: "inception_3b/pool_proj/bn"
  top: "inception_3b/pool_proj/bn"
}
layer {
  name: "inception_3b/output"
  type: "Concat"
  bottom: "inception_3b/1x1/bn"
  bottom: "inception_3b/3x3/bn"
  bottom: "inception_3b/double3x3b/bn"
  bottom: "inception_3b/pool_proj/bn"
  top: "inception_3b/output"
}
layer {
  name: "inception_3c/3x3_reduce"
  type: "ConvolutionData"
  bottom: "inception_3b/output"
  top: "inception_3c/3x3_reduce"
  param {
    lr_mult: 1
    decay_mult: 1
  }
  convolution_param {
    num_output: 128
    bias_term: false
    kernel_size: 1
    weight_filler {
      type: "xavier"
    }
  }
}
layer {
  name: "inception_3c/3x3_reduce/bn"
  type: "BNData"
  bottom: "inception_3c/3x3_reduce"
  top: "inception_3c/3x3_reduce/bn"
  param {
    lr_mult: 1
    decay_mult: 0
  }
  param {
    lr_mult: 1
    decay_mult: 0
  }
  param {
    lr_mult: 0
    decay_mult: 0
  }
  param {
    lr_mult: 0
    decay_mult: 0
  }
  bn_param {
    scale_filler {
      type: "constant"
      value: 1
    }
    shift_filler {
      type: "constant"
      value: 0
    }
    moving_average: true
    decay: 0.05
  }
}
layer {
  name: "inception_3c/relu_3x3_reduce"
  type: "ReLU"
  bottom: "inception_3c/3x3_reduce/bn"
  top: "inception_3c/3x3_reduce/bn"
}
layer {
  name: "inception_3c/3x3"
  type: "ConvolutionData"
  bottom: "inception_3c/3x3_reduce/bn"
  top: "inception_3c/3x3"
  param {
    lr_mult: 1
    decay_mult: 1
  }
  convolution_param {
    num_output: 160
    bias_term: false
    pad: 1
    kernel_size: 3
    stride: 2
    weight_filler {
      type: "xavier"
    }
  }
}
layer {
  name: "inception_3c/3x3/bn"
  type: "BNData"
  bottom: "inception_3c/3x3"
  top: "inception_3c/3x3/bn"
  param {
    lr_mult: 1
    decay_mult: 0
  }
  param {
    lr_mult: 1
    decay_mult: 0
  }
  param {
    lr_mult: 0
    decay_mult: 0
  }
  param {
    lr_mult: 0
    decay_mult: 0
  }
  bn_param {
    scale_filler {
      type: "constant"
      value: 1
    }
    shift_filler {
      type: "constant"
      value: 0
    }
    moving_average: true
    decay: 0.05
  }
}
layer {
  name: "inception_3c/relu_3x3"
  type: "ReLU"
  bottom: "inception_3c/3x3/bn"
  top: "inception_3c/3x3/bn"
}
layer {
  name: "inception_3c/double3x3_reduce"
  type: "ConvolutionData"
  bottom: "inception_3b/output"
  top: "inception_3c/double3x3_reduce"
  param {
    lr_mult: 1
    decay_mult: 1
  }
  convolution_param {
    num_output: 64
    bias_term: false
    kernel_size: 1
    weight_filler {
      type: "xavier"
    }
  }
}
layer {
  name: "inception_3c/double3x3_reduce/bn"
  type: "BNData"
  bottom: "inception_3c/double3x3_reduce"
  top: "inception_3c/double3x3_reduce/bn"
  param {
    lr_mult: 1
    decay_mult: 0
  }
  param {
    lr_mult: 1
    decay_mult: 0
  }
  param {
    lr_mult: 0
    decay_mult: 0
  }
  param {
    lr_mult: 0
    decay_mult: 0
  }
  bn_param {
    scale_filler {
      type: "constant"
      value: 1
    }
    shift_filler {
      type: "constant"
      value: 0
    }
    moving_average: true
    decay: 0.05
  }
}
layer {
  name: "inception_3c/relu_double3x3_reduce"
  type: "ReLU"
  bottom: "inception_3c/double3x3_reduce/bn"
  top: "inception_3c/double3x3_reduce/bn"
}
layer {
  name: "inception_3c/double3x3a"
  type: "ConvolutionData"
  bottom: "inception_3c/double3x3_reduce/bn"
  top: "inception_3c/double3x3a"
  param {
    lr_mult: 1
    decay_mult: 1
  }
  convolution_param {
    num_output: 96
    bias_term: false
    pad: 1
    kernel_size: 3
    weight_filler {
      type: "xavier"
    }
  }
}
layer {
  name: "inception_3c/double3x3a/bn"
  type: "BNData"
  bottom: "inception_3c/double3x3a"
  top: "inception_3c/double3x3a/bn"
  param {
    lr_mult: 1
    decay_mult: 0
  }
  param {
    lr_mult: 1
    decay_mult: 0
  }
  param {
    lr_mult: 0
    decay_mult: 0
  }
  param {
    lr_mult: 0
    decay_mult: 0
  }
  bn_param {
    scale_filler {
      type: "constant"
      value: 1
    }
    shift_filler {
      type: "constant"
      value: 0
    }
    moving_average: true
    decay: 0.05
  }
}
layer {
  name: "inception_3c/relu_double3x3a"
  type: "ReLU"
  bottom: "inception_3c/double3x3a/bn"
  top: "inception_3c/double3x3a/bn"
}
layer {
  name: "inception_3c/double3x3b"
  type: "ConvolutionData"
  bottom: "inception_3c/double3x3a/bn"
  top: "inception_3c/double3x3b"
  param {
    lr_mult: 1
    decay_mult: 1
  }
  convolution_param {
    num_output: 96
    bias_term: false
    pad: 1
    kernel_size: 3
    stride: 2
    weight_filler {
      type: "xavier"
    }
  }
}
layer {
  name: "inception_3c/double3x3b/bn"
  type: "BNData"
  bottom: "inception_3c/double3x3b"
  top: "inception_3c/double3x3b/bn"
  param {
    lr_mult: 1
    decay_mult: 0
  }
  param {
    lr_mult: 1
    decay_mult: 0
  }
  param {
    lr_mult: 0
    decay_mult: 0
  }
  param {
    lr_mult: 0
    decay_mult: 0
  }
  bn_param {
    scale_filler {
      type: "constant"
      value: 1
    }
    shift_filler {
      type: "constant"
      value: 0
    }
    moving_average: true
    decay: 0.05
  }
}
layer {
  name: "inception_3c/relu_double3x3b"
  type: "ReLU"
  bottom: "inception_3c/double3x3b/bn"
  top: "inception_3c/double3x3b/bn"
}
layer {
  name: "inception_3c/pool/3x3_s2"
  type: "Pooling"
  bottom: "inception_3b/output"
  top: "inception_3c/pool/3x3_s2"
  pooling_param {
    pool: MAX
    kernel_size: 3
    stride: 2
  }
}
layer {
  name: "inception_3c/output"
  type: "Concat"
  bottom: "inception_3c/3x3/bn"
  bottom: "inception_3c/double3x3b/bn"
  bottom: "inception_3c/pool/3x3_s2"
  top: "inception_3c/output"
}
layer {
  name: "inception_4a/1x1"
  type: "ConvolutionData"
  bottom: "inception_3c/output"
  top: "inception_4a/1x1"
  param {
    lr_mult: 1
    decay_mult: 1
  }
  convolution_param {
    num_output: 224
    bias_term: false
    kernel_size: 1
    weight_filler {
      type: "xavier"
    }
  }
}
layer {
  name: "inception_4a/1x1/bn"
  type: "BNData"
  bottom: "inception_4a/1x1"
  top: "inception_4a/1x1/bn"
  param {
    lr_mult: 1
    decay_mult: 0
  }
  param {
    lr_mult: 1
    decay_mult: 0
  }
  param {
    lr_mult: 0
    decay_mult: 0
  }
  param {
    lr_mult: 0
    decay_mult: 0
  }
  bn_param {
    scale_filler {
      type: "constant"
      value: 1
    }
    shift_filler {
      type: "constant"
      value: 0
    }
    moving_average: true
    decay: 0.05
  }
}
layer {
  name: "inception_4a/relu_1x1"
  type: "ReLU"
  bottom: "inception_4a/1x1/bn"
  top: "inception_4a/1x1/bn"
}
layer {
  name: "inception_4a/3x3_reduce"
  type: "ConvolutionData"
  bottom: "inception_3c/output"
  top: "inception_4a/3x3_reduce"
  param {
    lr_mult: 1
    decay_mult: 1
  }
  convolution_param {
    num_output: 64
    bias_term: false
    kernel_size: 1
    weight_filler {
      type: "xavier"
    }
  }
}
layer {
  name: "inception_4a/3x3_reduce/bn"
  type: "BNData"
  bottom: "inception_4a/3x3_reduce"
  top: "inception_4a/3x3_reduce/bn"
  param {
    lr_mult: 1
    decay_mult: 0
  }
  param {
    lr_mult: 1
    decay_mult: 0
  }
  param {
    lr_mult: 0
    decay_mult: 0
  }
  param {
    lr_mult: 0
    decay_mult: 0
  }
  bn_param {
    scale_filler {
      type: "constant"
      value: 1
    }
    shift_filler {
      type: "constant"
      value: 0
    }
    moving_average: true
    decay: 0.05
  }
}
layer {
  name: "inception_4a/relu_3x3_reduce"
  type: "ReLU"
  bottom: "inception_4a/3x3_reduce/bn"
  top: "inception_4a/3x3_reduce/bn"
}
layer {
  name: "inception_4a/3x3"
  type: "ConvolutionData"
  bottom: "inception_4a/3x3_reduce/bn"
  top: "inception_4a/3x3"
  param {
    lr_mult: 1
    decay_mult: 1
  }
  convolution_param {
    num_output: 96
    bias_term: false
    pad: 1
    kernel_size: 3
    weight_filler {
      type: "xavier"
    }
  }
}
layer {
  name: "inception_4a/3x3/bn"
  type: "BNData"
  bottom: "inception_4a/3x3"
  top: "inception_4a/3x3/bn"
  param {
    lr_mult: 1
    decay_mult: 0
  }
  param {
    lr_mult: 1
    decay_mult: 0
  }
  param {
    lr_mult: 0
    decay_mult: 0
  }
  param {
    lr_mult: 0
    decay_mult: 0
  }
  bn_param {
    scale_filler {
      type: "constant"
      value: 1
    }
    shift_filler {
      type: "constant"
      value: 0
    }
    moving_average: true
    decay: 0.05
  }
}
layer {
  name: "inception_4a/relu_3x3"
  type: "ReLU"
  bottom: "inception_4a/3x3/bn"
  top: "inception_4a/3x3/bn"
}
layer {
  name: "inception_4a/double3x3_reduce"
  type: "ConvolutionData"
  bottom: "inception_3c/output"
  top: "inception_4a/double3x3_reduce"
  param {
    lr_mult: 1
    decay_mult: 1
  }
  convolution_param {
    num_output: 96
    bias_term: false
    kernel_size: 1
    weight_filler {
      type: "xavier"
    }
  }
}
layer {
  name: "inception_4a/double3x3_reduce/bn"
  type: "BNData"
  bottom: "inception_4a/double3x3_reduce"
  top: "inception_4a/double3x3_reduce/bn"
  param {
    lr_mult: 1
    decay_mult: 0
  }
  param {
    lr_mult: 1
    decay_mult: 0
  }
  param {
    lr_mult: 0
    decay_mult: 0
  }
  param {
    lr_mult: 0
    decay_mult: 0
  }
  bn_param {
    scale_filler {
      type: "constant"
      value: 1
    }
    shift_filler {
      type: "constant"
      value: 0
    }
    moving_average: true
    decay: 0.05
  }
}
layer {
  name: "inception_4a/relu_double3x3_reduce"
  type: "ReLU"
  bottom: "inception_4a/double3x3_reduce/bn"
  top: "inception_4a/double3x3_reduce/bn"
}
layer {
  name: "inception_4a/double3x3a"
  type: "ConvolutionData"
  bottom: "inception_4a/double3x3_reduce/bn"
  top: "inception_4a/double3x3a"
  param {
    lr_mult: 1
    decay_mult: 1
  }
  convolution_param {
    num_output: 128
    bias_term: false
    pad: 1
    kernel_size: 3
    weight_filler {
      type: "xavier"
    }
  }
}
layer {
  name: "inception_4a/double3x3a/bn"
  type: "BNData"
  bottom: "inception_4a/double3x3a"
  top: "inception_4a/double3x3a/bn"
  param {
    lr_mult: 1
    decay_mult: 0
  }
  param {
    lr_mult: 1
    decay_mult: 0
  }
  param {
    lr_mult: 0
    decay_mult: 0
  }
  param {
    lr_mult: 0
    decay_mult: 0
  }
  bn_param {
    scale_filler {
      type: "constant"
      value: 1
    }
    shift_filler {
      type: "constant"
      value: 0
    }
    moving_average: true
    decay: 0.05
  }
}
layer {
  name: "inception_4a/relu_double3x3a"
  type: "ReLU"
  bottom: "inception_4a/double3x3a/bn"
  top: "inception_4a/double3x3a/bn"
}
layer {
  name: "inception_4a/double3x3b"
  type: "ConvolutionData"
  bottom: "inception_4a/double3x3a/bn"
  top: "inception_4a/double3x3b"
  param {
    lr_mult: 1
    decay_mult: 1
  }
  convolution_param {
    num_output: 128
    bias_term: false
    pad: 1
    kernel_size: 3
    weight_filler {
      type: "xavier"
    }
  }
}
layer {
  name: "inception_4a/double3x3b/bn"
  type: "BNData"
  bottom: "inception_4a/double3x3b"
  top: "inception_4a/double3x3b/bn"
  param {
    lr_mult: 1
    decay_mult: 0
  }
  param {
    lr_mult: 1
    decay_mult: 0
  }
  param {
    lr_mult: 0
    decay_mult: 0
  }
  param {
    lr_mult: 0
    decay_mult: 0
  }
  bn_param {
    scale_filler {
      type: "constant"
      value: 1
    }
    shift_filler {
      type: "constant"
      value: 0
    }
    moving_average: true
    decay: 0.05
  }
}
layer {
  name: "inception_4a/relu_double3x3b"
  type: "ReLU"
  bottom: "inception_4a/double3x3b/bn"
  top: "inception_4a/double3x3b/bn"
}
layer {
  name: "inception_4a/pool"
  type: "Pooling"
  bottom: "inception_3c/output"
  top: "inception_4a/pool"
  pooling_param {
    pool: AVE
    kernel_size: 3
    stride: 1
    pad: 1
  }
}
layer {
  name: "inception_4a/pool_proj"
  type: "ConvolutionData"
  bottom: "inception_4a/pool"
  top: "inception_4a/pool_proj"
  param {
    lr_mult: 1
    decay_mult: 1
  }
  convolution_param {
    num_output: 128
    bias_term: false
    kernel_size: 1
    weight_filler {
      type: "xavier"
    }
  }
}
layer {
  name: "inception_4a/pool_proj/bn"
  type: "BNData"
  bottom: "inception_4a/pool_proj"
  top: "inception_4a/pool_proj/bn"
  param {
    lr_mult: 1
    decay_mult: 0
  }
  param {
    lr_mult: 1
    decay_mult: 0
  }
  param {
    lr_mult: 0
    decay_mult: 0
  }
  param {
    lr_mult: 0
    decay_mult: 0
  }
  bn_param {
    scale_filler {
      type: "constant"
 
I0304 23:08:27.508751  4327 layer_factory.hpp:74] Creating layer data
I0304 23:08:27.508796  4327 net.cpp:90] Creating Layer data
…
  transform_param {
    mirror: true
    crop_size: 224
    mean_value: 128
    fix_crop: false
    multi_scale: true
    scale_ratios: 1
    scale_ratios: 0.875
    scale_ratios: 0.75
    max_distort: 1
    is_flow: true
    num_segments: 120
  }
  video_data_param {
    source: "/data1/wangjiang/datasets/ucf101_list/train_list_split1.txt"
    batch_size: 288
    shuffle: true
    new_height: 256
    new_width: 352
    new_length: 10
    num_segments: 6
    modality: FLOW
    root_folder: "/data1/wangjiang/data/ucf101_flow_tvl1_340_256/"
    rep_label: 1
  }
}
layer {
  name: "Gather_label"
  type: "Gather"
  bottom: "label_single"
  top: "label"
}
layer {
  name: "conv1/7x7_s2"
  type: "ConvolutionData"
  bottom: "data"
  top: "conv1/7x7_s2"
  param {
    lr_mult: 1
    decay_mult: 1
  }
  convolution_param {
    num_output: 64
    bias_term: false
    pad: 3
    kernel_size: 7
    stride: 2
    weight_filler {
      type: "xavier"
    }
  }
}
layer {
  name: "conv1/7x7_s2/bn"
  type: "BNData"
  bottom: "conv1/7x7_s2"
  top: "conv1/7x7_s2/bn"
  param {
    lr_mult: 1
    decay_mult: 0
  }
  param {
    lr_mult: 1
    decay_mult: 0
  }
  param {
    lr_mult: 0
    decay_mult: 0
  }
  param {
    lr_mult: 0
    decay_mult: 0
  }
  bn_param {
    scale_filler {
      type: "constant"
      value: 1
    }
    shift_filler {
      type: "constant"
      value: 0
    }
    moving_average: true
    decay: 0.05
  }
}
layer {
  name: "conv1/relu_7x7"
  type: "ReLU"
  bottom: "conv1/7x7_s2/bn"
  top: "conv1/7x7_s2/bn"
}
layer {
  name: "pool1/3x3_s2"
  type: "Pooling"
  bottom: "conv1/7x7_s2/bn"
  top: "pool1/3x3_s2"
  pooling_param {
    pool: MAX
    kernel_size: 3
    stride: 2
  }
}
layer {
  name: "conv2/3x3_reduce"
  type: "ConvolutionData"
  bottom: "pool1/3x3_s2"
  top: "conv2/3x3_reduce"
  param {
    lr_mult: 1
    decay_mult: 1
  }
  convolution_param {
    num_output: 64
    bias_term: false
    kernel_size: 1
    weight_filler {
      type: "xavier"
    }
  }
}
layer {
  name: "conv2/3x3_reduce/bn"
  type: "BNData"
  bottom: "conv2/3x3_reduce"
  top: "conv2/3x3_reduce/bn"
  param {
    lr_mult: 1
    decay_mult: 0
  }
  param {
    lr_mult: 1
    decay_mult: 0
  }
  param {
    lr_mult: 0
    decay_mult: 0
  }
  param {
    lr_mult: 0
    decay_mult: 0
  }
  bn_param {
    scale_filler {
      type: "constant"
      value: 1
    }
    shift_filler {
      type: "constant"
      value: 0
    }
    moving_average: true
    decay: 0.05
  }
}
layer {
  name: "conv2/relu_3x3_reduce"
  type: "ReLU"
  bottom: "conv2/3x3_reduce/bn"
  top: "conv2/3x3_reduce/bn"
}
layer {
  name: "conv2/3x3"
  type: "ConvolutionData"
  bottom: "conv2/3x3_reduce/bn"
  top: "conv2/3x3"
  param {
    lr_mult: 1
    decay_mult: 1
  }
  convolution_param {
    num_output: 192
    bias_term: false
    pad: 1
    kernel_size: 3
    weight_filler {
      type: "xavier"
    }
  }
}
layer {
  name: "conv2/3x3/bn"
  type: "BNData"
  bottom: "conv2/3x3"
  top: "conv2/3x3/bn"
  param {
    lr_mult: 1
    decay_mult: 0
  }
  param {
    lr_mult: 1
    decay_mult: 0
  }
  param {
    lr_mult: 0
    decay_mult: 0
  }
  param {
    lr_mult: 0
    decay_mult: 0
  }
  bn_param {
    scale_filler {
      type: "constant"
      value: 1
    }
    shift_filler {
      type: "constant"
      value: 0
    }
    moving_average: true
    decay: 0.05
  }
}
layer {
  name: "conv2/relu_3x3"
  type: "ReLU"
  bottom: "conv2/3x3/bn"
  top: "conv2/3x3/bn"
}
layer {
  name: "pool2/3x3_s2"
  type: "Pooling"
  bottom: "conv2/3x3/bn"
  top: "pool2/3x3_s2"
  pooling_param {
    pool: MAX
    kernel_size: 3
    stride: 2
  }
}
layer {
  name: "inception_3a/1x1"
  type: "ConvolutionData"
  bottom: "pool2/3x3_s2"
  top: "inception_3a/1x1"
  param {
    lr_mult: 1
    decay_mult: 1
  }
  convolution_param {
    num_output: 64
    bias_term: false
    kernel_size: 1
    weight_filler {
      type: "xavier"
    }
  }
}
layer {
  name: "inception_3a/1x1/bn"
  type: "BNData"
  bottom: "inception_3a/1x1"
  top: "inception_3a/1x1/bn"
  param {
    lr_mult: 1
    decay_mult: 0
  }
  param {
    lr_mult: 1
    decay_mult: 0
  }
  param {
    lr_mult: 0
    decay_mult: 0
  }
  param {
    lr_mult: 0
    decay_mult: 0
  }
  bn_param {
    scale_filler {
      type: "constant"
      value: 1
    }
    shift_filler {
      type: "constant"
      value: 0
    }
    moving_average: true
    decay: 0.05
  }
}
layer {
  name: "inception_3a/relu_1x1"
  type: "ReLU"
  bottom: "inception_3a/1x1/bn"
  top: "inception_3a/1x1/bn"
}
layer {
  name: "inception_3a/3x3_reduce"
  type: "ConvolutionData"
  bottom: "pool2/3x3_s2"
  top: "inception_3a/3x3_reduce"
  param {
    lr_mult: 1
    decay_mult: 1
  }
  convolution_param {
    num_output: 64
    bias_term: false
    kernel_size: 1
    weight_filler {
      type: "xavier"
    }
  }
}
layer {
  name: "inception_3a/3x3_reduce/bn"
  type: "BNData"
  bottom: "inception_3a/3x3_reduce"
  top: "inception_3a/3x3_reduce/bn"
  param {
    lr_mult: 1
    decay_mult: 0
  }
  param {
    lr_mult: 1
    decay_mult: 0
  }
  param {
    lr_mult: 0
    decay_mult: 0
  }
  param {
    lr_mult: 0
    decay_mult: 0
  }
  bn_param {
    scale_filler {
      type: "constant"
      value: 1
    }
    shift_filler {
      type: "constant"
      value: 0
    }
    moving_average: true
    decay: 0.05
  }
}
layer {
  name: "inception_3a/relu_3x3_reduce"
  type: "ReLU"
  bottom: "inception_3a/3x3_reduce/bn"
  top: "inception_3a/3x3_reduce/bn"
}
layer {
  name: "inception_3a/3x3"
  type: "ConvolutionData"
  bottom: "inception_3a/3x3_reduce/bn"
  top: "inception_3a/3x3"
  param {
    lr_mult: 1
    decay_mult: 1
  }
  convolution_param {
    num_output: 64
    bias_term: false
    pad: 1
    kernel_size: 3
    weight_filler {
      type: "xavier"
    }
  }
}
layer {
  name: "inception_3a/3x3/bn"
  type: "BNData"
  bottom: "inception_3a/3x3"
  top: "inception_3a/3x3/bn"
  param {
    lr_mult: 1
    decay_mult: 0
  }
  param {
    lr_mult: 1
    decay_mult: 0
  }
  param {
    lr_mult: 0
    decay_mult: 0
  }
  param {
    lr_mult: 0
    decay_mult: 0
  }
  bn_param {
    scale_filler {
      type: "constant"
      value: 1
    }
    shift_filler {
      type: "constant"
      value: 0
    }
    moving_average: true
    decay: 0.05
  }
}
layer {
  name: "inception_3a/relu_3x3"
  type: "ReLU"
  bottom: "inception_3a/3x3/bn"
  top: "inception_3a/3x3/bn"
}
layer {
  name: "inception_3a/double3x3_reduce"
  type: "ConvolutionData"
  bottom: "pool2/3x3_s2"
  top: "inception_3a/double3x3_reduce"
  param {
    lr_mult: 1
    decay_mult: 1
  }
  convolution_param {
    num_output: 64
    bias_term: false
    kernel_size: 1
    weight_filler {
      type: "xavier"
    }
  }
}
layer {
  name: "inception_3a/double3x3_reduce/bn"
  type: "BNData"
  bottom: "inception_3a/double3x3_reduce"
  top: "inception_3a/double3x3_reduce/bn"
  param {
    lr_mult: 1
    decay_mult: 0
  }
  param {
    lr_mult: 1
    decay_mult: 0
  }
  param {
    lr_mult: 0
    decay_mult: 0
  }
  param {
    lr_mult: 0
    decay_mult: 0
  }
  bn_param {
    scale_filler {
      type: "constant"
      value: 1
    }
    shift_filler {
      type: "constant"
      value: 0
    }
    moving_average: true
    decay: 0.05
  }
}
layer {
  name: "inception_3a/relu_double3x3_reduce"
  type: "ReLU"
  bottom: "inception_3a/double3x3_reduce/bn"
  top: "inception_3a/double3x3_reduce/bn"
}
layer {
  name: "inception_3a/double3x3a"
  type: "ConvolutionData"
  bottom: "inception_3a/double3x3_reduce/bn"
  top: "inception_3a/double3x3a"
  param {
    lr_mult: 1
    decay_mult: 1
  }
  convolution_param {
    num_output: 96
    bias_term: false
    pad: 1
    kernel_size: 3
    weight_filler {
      type: "xavier"
    }
  }
}
layer {
  name: "inception_3a/double3x3a/bn"
  type: "BNData"
  bottom: "inception_3a/double3x3a"
  top: "inception_3a/double3x3a/bn"
  param {
    lr_mult: 1
    decay_mult: 0
  }
  param {
    lr_mult: 1
    decay_mult: 0
  }
  param {
    lr_mult: 0
    decay_mult: 0
  }
  param {
    lr_mult: 0
    decay_mult: 0
  }
  bn_param {
    scale_filler {
      type: "constant"
      value: 1
    }
    shift_filler {
      type: "constant"
      value: 0
    }
    moving_average: true
    decay: 0.05
  }
}
layer {
  name: "inception_3a/relu_double3x3a"
  type: "ReLU"
  bottom: "inception_3a/double3x3a/bn"
  top: "inception_3a/double3x3a/bn"
}
layer {
  name: "inception_3a/double3x3b"
  type: "ConvolutionData"
  bottom: "inception_3a/double3x3a/bn"
  top: "inception_3a/double3x3b"
  param {
    lr_mult: 1
    decay_mult: 1
  }
  convolution_param {
    num_output: 96
    bias_term: false
    pad: 1
    kernel_size: 3
    weight_filler {
      type: "xavier"
    }
  }
}
layer {
  name: "inception_3a/double3x3b/bn"
  type: "BNData"
  bottom: "inception_3a/double3x3b"
  top: "inception_3a/double3x3b/bn"
  param {
    lr_mult: 1
    decay_mult: 0
  }
  param {
    lr_mult: 1
    decay_mult: 0
  }
  param {
    lr_mult: 0
  }
  param {
    lr_mult: 0
  }
  bn_param {
    scale_filler {
      type: "constant"
      value: 1
    }
    shift_filler {
      type: "constant"
      value: 0
    }
    moving_average: true
    decay: 0.05
  }
}
layer {
  name: "inception_3a/relu_double3x3b"
  type: "ReLU"
  bottom: "inception_3a/double3x3b/bn"
  top: "inception_3a/double3x3b/bn"
}
layer {
  name: "inception_3a/pool"
  type: "Pooling"
  bottom: "pool2/3x3_s2"
  top: "inception_3a/pool"
  pooling_param {
    pool: AVE
    kernel_size: 3
    stride: 1
    pad: 1
  }
}
layer {
  name: "inception_3a/pool_proj"
  type: "ConvolutionData"
  bottom: "inception_3a/pool"
  top: "inception_3a/pool_proj"
  param {
    lr_mult: 1
    decay_mult: 1
  }
  convolution_param {
    num_output: 32
    bias_term: false
    kernel_size: 1
    weight_filler {
      type: "xavier"
    }
  }
}
layer {
  name: "inception_3a/pool_proj/bn"
  type: "BNData"
  bottom: "inception_3a/pool_proj"
  top: "inception_3a/pool_proj/bn"
  param {
    lr_mult: 1
    decay_mult: 0
  }
  param {
    lr_mult: 1
    decay_mult: 0
  }
  param {
    lr_mult: 0
    decay_mult: 0
  }
  param {
    lr_mult: 0
    decay_mult: 0
  }
  bn_param {
    scale_filler {
      type: "constant"
      value: 1
    }
    shift_filler {
      type: "constant"
      value: 0
    }
    moving_average: true
    decay: 0.05
  }
}
layer {
  name: "inception_3a/relu_pool_proj"
  type: "ReLU"
  bottom: "inception_3a/pool_proj/bn"
  top: "inception_3a/pool_proj/bn"
}
layer {
  name: "inception_3a/output"
  type: "Concat"
  bottom: "inception_3a/1x1/bn"
  bottom: "inception_3a/3x3/bn"
  bottom: "inception_3a/double3x3b/bn"
  bottom: "inception_3a/pool_proj/bn"
  top: "inception_3a/output"
}
layer {
  name: "inception_3b/1x1"
  type: "ConvolutionData"
  bottom: "inception_3a/output"
  top: "inception_3b/1x1"
  param {
    lr_mult: 1
    decay_mult: 1
  }
  convolution_param {
    num_output: 64
    bias_term: false
    kernel_size: 1
    weight_filler {
      type: "xavier"
    }
  }
}
layer {
  name: "inception_3b/1x1/bn"
  type: "BNData"
  bottom: "inception_3b/1x1"
  top: "inception_3b/1x1/bn"
  param {
    lr_mult: 1
    decay_mult: 0
  }
  param {
    lr_mult: 1
    decay_mult: 0
  }
  param {
    lr_mult: 0
    decay_mult: 0
  }
  param {
    lr_mult: 0
    decay_mult: 0
  }
  bn_param {
    scale_filler {
      type: "constant"
      value: 1
    }
    shift_filler {
      type: "constant"
      value: 0
    }
    moving_average: true
    decay: 0.05
  }
}
layer {
  name: "inception_3b/relu_1x1"
  type: "ReLU"
  bottom: "inception_3b/1x1/bn"
  top: "inception_3b/1x1/bn"
}
layer {
  name: "inception_3b/3x3_reduce"
  type: "ConvolutionData"
  bottom: "inception_3a/output"
  top: "inception_3b/3x3_reduce"
  param {
    lr_mult: 1
    decay_mult: 1
  }
  convolution_param {
    num_output: 64
    bias_term: false
    kernel_size: 1
    weight_filler {
      type: "xavier"
    }
  }
}
layer {
  name: "inception_3b/3x3_reduce/bn"
  type: "BNData"
  bottom: "inception_3b/3x3_reduce"
  top: "inception_3b/3x3_reduce/bn"
  param {
    lr_mult: 1
    decay_mult: 0
  }
  param {
    lr_mult: 1
    decay_mult: 0
  }
  param {
    lr_mult: 0
    decay_mult: 0
  }
  param {
    lr_mult: 0
    decay_mult: 0
  }
  bn_param {
    scale_filler {
      type: "constant"
      value: 1
    }
    shift_filler {
      type: "constant"
      value: 0
    }
    moving_average: true
    decay: 0.05
  }
}
layer {
  name: "inception_3b/relu_3x3_reduce"
  type: "ReLU"
  bottom: "inception_3b/3x3_reduce/bn"
  top: "inception_3b/3x3_reduce/bn"
}
layer {
  name: "inception_3b/3x3"
  type: "ConvolutionData"
  bottom: "inception_3b/3x3_reduce/bn"
  top: "inception_3b/3x3"
  param {
    lr_mult: 1
    decay_mult: 1
  }
  convolution_param {
    num_output: 96
    bias_term: false
    pad: 1
    kernel_size: 3
    weight_filler {
      type: "xavier"
    }
  }
}
layer {
  name: "inception_3b/3x3/bn"
  type: "BNData"
  bottom: "inception_3b/3x3"
  top: "inception_3b/3x3/bn"
  param {
    lr_mult: 1
    decay_mult: 0
  }
  param {
    lr_mult: 1
    decay_mult: 0
  }
  param {
    lr_mult: 0
    decay_mult: 0
  }
  param {
    lr_mult: 0
    decay_mult: 0
  }
  bn_param {
    scale_filler {
      type: "constant"
      value: 1
    }
    shift_filler {
      type: "constant"
      value: 0
    }
    moving_average: true
    decay: 0.05
  }
}
layer {
  name: "inception_3b/relu_3x3"
  type: "ReLU"
  bottom: "inception_3b/3x3/bn"
  top: "inception_3b/3x3/bn"
}
layer {
  name: "inception_3b/double3x3_reduce"
  type: "ConvolutionData"
  bottom: "inception_3a/output"
  top: "inception_3b/double3x3_reduce"
  param {
    lr_mult: 1
    decay_mult: 1
  }
  convolution_param {
    num_output: 64
    bias_term: false
    kernel_size: 1
    weight_filler {
      type: "xavier"
    }
  }
}
layer {
  name: "inception_3b/double3x3_reduce/bn"
  type: "BNData"
  bottom: "inception_3b/double3x3_reduce"
  top: "inception_3b/double3x3_reduce/bn"
  param {
    lr_mult: 1
    decay_mult: 0
  }
  param {
    lr_mult: 1
    decay_mult: 0
  }
  param {
    lr_mult: 0
    decay_mult: 0
  }
  param {
    lr_mult: 0
    decay_mult: 0
  }
  bn_param {
    scale_filler {
      type: "constant"
      value: 1
    }
    shift_filler {
      type: "constant"
      value: 0
    }
    moving_average: true
    decay: 0.05
  }
}
layer {
  name: "inception_3b/relu_double3x3_reduce"
  type: "ReLU"
  bottom: "inception_3b/double3x3_reduce/bn"
  top: "inception_3b/double3x3_reduce/bn"
}
layer {
  name: "inception_3b/double3x3a"
  type: "ConvolutionData"
  bottom: "inception_3b/double3x3_reduce/bn"
  top: "inception_3b/double3x3a"
  param {
    lr_mult: 1
    decay_mult: 1
  }
  convolution_param {
    num_output: 96
    bias_term: false
    pad: 1
    kernel_size: 3
    weight_filler {
      type: "xavier"
    }
  }
}
layer {
  name: "inception_3b/double3x3a/bn"
  type: "BNData"
  bottom: "inception_3b/double3x3a"
  top: "inception_3b/double3x3a/bn"
  param {
    lr_mult: 1
    decay_mult: 0
  }
  param {
    lr_mult: 1
    decay_mult: 0
  }
  param {
    lr_mult: 0
    decay_mult: 0
  }
  param {
    lr_mult: 0
    decay_mult: 0
  }
  bn_param {
    scale_filler {
      type: "constant"
      value: 1
    }
    shift_filler {
      type: "constant"
      value: 0
    }
    moving_average: true
    decay: 0.05
  }
}
layer {
  name: "inception_3b/relu_double3x3a"
  type: "ReLU"
  bottom: "inception_3b/double3x3a/bn"
  top: "inception_3b/double3x3a/bn"
}
layer {
  name: "inception_3b/double3x3b"
  type: "ConvolutionData"
  bottom: "inception_3b/double3x3a/bn"
  top: "inception_3b/double3x3b"
  param {
    lr_mult: 1
    decay_mult: 1
  }
  convolution_param {
    num_output: 96
    bias_term: false
    pad: 1
    kernel_size: 3
    weight_filler {
      type: "xavier"
    }
  }
}
layer {
  name: "inception_3b/double3x3b/bn"
  type: "BNData"
  bottom: "inception_3b/double3x3b"
  top: "inception_3b/double3x3b/bn"
  param {
    lr_mult: 1
    decay_mult: 0
  }
  param {
    lr_mult: 1
    decay_mult: 0
  }
  param {
    lr_mult: 0
    decay_mult: 0
  }
  param {
    lr_mult: 0
    decay_mult: 0
  }
  bn_param {
    scale_filler {
      type: "constant"
      value: 1
    }
    shift_filler {
      type: "constant"
      value: 0
    }
    moving_average: true
    decay: 0.05
  }
}
layer {
  name: "inception_3b/relu_double3x3b"
  type: "ReLU"
  bottom: "inception_3b/double3x3b/bn"
  top: "inception_3b/double3x3b/bn"
}
layer {
  name: "inception_3b/pool"
  type: "Pooling"
  bottom: "inception_3a/output"
  top: "inception_3b/pool"
  pooling_param {
    pool: AVE
    kernel_size: 3
    stride: 1
    pad: 1
  }
}
layer {
  name: "inception_3b/pool_proj"
  type: "ConvolutionData"
  bottom: "inception_3b/pool"
  top: "inception_3b/pool_proj"
  param {
    lr_mult: 1
    decay_mult: 1
  }
  convolution_param {
    num_output: 64
    bias_term: false
    kernel_size: 1
    weight_filler {
      type: "xavier"
    }
  }
}
layer {
  name: "inception_3b/pool_proj/bn"
  type: "BNData"
  bottom: "inception_3b/pool_proj"
  top: "inception_3b/pool_proj/bn"
  param {
    lr_mult: 1
    decay_mult: 0
  }
  param {
    lr_mult: 1
    decay_mult: 0
  }
  param {
    lr_mult: 0
    decay_mult: 0
  }
  param {
    lr_mult: 0
    decay_mult: 0
  }
  bn_param {
    scale_filler {
      type: "constant"
      value: 1
    }
    shift_filler {
      type: "constant"
      value: 0
    }
    moving_average: true
    decay: 0.05
  }
}
layer {
  name: "inception_3b/relu_pool_proj"
  type: "ReLU"
  bottom: "inception_3b/pool_proj/bn"
  top: "inception_3b/pool_proj/bn"
}
layer {
  name: "inception_3b/output"
  type: "Concat"
  bottom: "inception_3b/1x1/bn"
  bottom: "inception_3b/3x3/bn"
  bottom: "inception_3b/double3x3b/bn"
  bottom: "inception_3b/pool_proj/bn"
  top: "inception_3b/output"
}
layer {
  name: "inception_3c/3x3_reduce"
  type: "ConvolutionData"
  bottom: "inception_3b/output"
  top: "inception_3c/3x3_reduce"
  param {
    lr_mult: 1
    decay_mult: 1
  }
  convolution_param {
    num_output: 128
    bias_term: false
    kernel_size: 1
    weight_filler {
      type: "xavier"
    }
  }
}
layer {
  name: "inception_3c/3x3_reduce/bn"
  type: "BNData"
  bottom: "inception_3c/3x3_reduce"
  top: "inception_3c/3x3_reduce/bn"
  param {
    lr_mult: 1
    decay_mult: 0
  }
  param {
    lr_mult: 1
    decay_mult: 0
  }
  param {
    lr_mult: 0
    decay_mult: 0
  }
  param {
    lr_mult: 0
    decay_mult: 0
  }
  bn_param {
    scale_filler {
      type: "constant"
      value: 1
    }
    shift_filler {
      type: "constant"
      value: 0
    }
    moving_average: true
    decay: 0.05
  }
}
layer {
  name: "inception_3c/relu_3x3_reduce"
  type: "ReLU"
  bottom: "inception_3c/3x3_reduce/bn"
  top: "inception_3c/3x3_reduce/bn"
}
layer {
  name: "inception_3c/3x3"
  type: "ConvolutionData"
  bottom: "inception_3c/3x3_reduce/bn"
  top: "inception_3c/3x3"
  param {
    lr_mult: 1
    decay_mult: 1
  }
  convolution_param {
    num_output: 160
    bias_term: false
    pad: 1
    kernel_size: 3
    stride: 2
    weight_filler {
      type: "xavier"
    }
  }
}
layer {
  name: "inception_3c/3x3/bn"
  type: "BNData"
  bottom: "inception_3c/3x3"
  top: "inception_3c/3x3/bn"
  param {
    lr_mult: 1
    decay_mult: 0
  }
  param {
    lr_mult: 1
    decay_mult: 0
  }
  param {
    lr_mult: 0
    decay_mult: 0
  }
  param {
    lr_mult: 0
    decay_mult: 0
  }
  bn_param {
    scale_filler {
      type: "constant"
      value: 1
    }
    shift_filler {
      type: "constant"
      value: 0
    }
    moving_average: true
    decay: 0.05
  }
}
layer {
  name: "inception_3c/relu_3x3"
  type: "ReLU"
  bottom: "inception_3c/3x3/bn"
  top: "inception_3c/3x3/bn"
}
layer {
  name: "inception_3c/double3x3_reduce"
  type: "ConvolutionData"
  bottom: "inception_3b/output"
  top: "inception_3c/double3x3_reduce"
  param {
    lr_mult: 1
    decay_mult: 1
  }
  convolution_param {
    num_output: 64
    bias_term: false
    kernel_size: 1
    weight_filler {
      type: "xavier"
    }
  }
}
layer {
  name: "inception_3c/double3x3_reduce/bn"
  type: "BNData"
  bottom: "inception_3c/double3x3_reduce"
  top: "inception_3c/double3x3_reduce/bn"
  param {
    lr_mult: 1
    decay_mult: 0
  }
  param {
    lr_mult: 1
    decay_mult: 0
  }
  param {
    lr_mult: 0
    decay_mult: 0
  }
  param {
    lr_mult: 0
    decay_mult: 0
  }
  bn_param {
    scale_filler {
      type: "constant"
      value: 1
    }
    shift_filler {
      type: "constant"
      value: 0
    }
    moving_average: true
    decay: 0.05
  }
}
layer {
  name: "inception_3c/relu_double3x3_reduce"
  type: "ReLU"
  bottom: "inception_3c/double3x3_reduce/bn"
  top: "inception_3c/double3x3_reduce/bn"
}
layer {
  name: "inception_3c/double3x3a"
  type: "ConvolutionData"
  bottom: "inception_3c/double3x3_reduce/bn"
  top: "inception_3c/double3x3a"
  param {
    lr_mult: 1
    decay_mult: 1
  }
  convolution_param {
    num_output: 96
    bias_term: false
    pad: 1
    kernel_size: 3
    weight_filler {
      type: "xavier"
    }
  }
}
layer {
  name: "inception_3c/double3x3a/bn"
  type: "BNData"
  bottom: "inception_3c/double3x3a"
  top: "inception_3c/double3x3a/bn"
  param {
    lr_mult: 1
    decay_mult: 0
  }
  param {
    lr_mult: 1
    decay_mult: 0
  }
  param {
    lr_mult: 0
    decay_mult: 0
  }
  param {
    lr_mult: 0
    decay_mult: 0
  }
  bn_param {
    scale_filler {
      type: "constant"
      value: 1
    }
    shift_filler {
      type: "constant"
      value: 0
    }
    moving_average: true
    decay: 0.05
  }
}
layer {
  name: "inception_3c/relu_double3x3a"
  type: "ReLU"
  bottom: "inception_3c/double3x3a/bn"
  top: "inception_3c/double3x3a/bn"
}
layer {
  name: "inception_3c/double3x3b"
  type: "ConvolutionData"
  bottom: "inception_3c/double3x3a/bn"
  top: "inception_3c/double3x3b"
  param {
    lr_mult: 1
    decay_mult: 1
  }
  convolution_param {
    num_output: 96
    bias_term: false
    pad: 1
    kernel_size: 3
    stride: 2
    weight_filler {
      type: "xavier"
    }
  }
}
layer {
  name: "inception_3c/double3x3b/bn"
  type: "BNData"
  bottom: "inception_3c/double3x3b"
  top: "inception_3c/double3x3b/bn"
  param {
    lr_mult: 1
    decay_mult: 0
  }
  param {
    lr_mult: 1
    decay_mult: 0
  }
  param {
    lr_mult: 0
    decay_mult: 0
  }
  param {
    lr_mult: 0
    decay_mult: 0
  }
  bn_param {
    scale_filler {
      type: "constant"
      value: 1
    }
    shift_filler {
      type: "constant"
      value: 0
    }
    moving_average: true
    decay: 0.05
  }
}
layer {
  name: "inception_3c/relu_double3x3b"
  type: "ReLU"
  bottom: "inception_3c/double3x3b/bn"
  top: "inception_3c/double3x3b/bn"
}
layer {
  name: "inception_3c/pool/3x3_s2"
  type: "Pooling"
  bottom: "inception_3b/output"
  top: "inception_3c/pool/3x3_s2"
  pooling_param {
    pool: MAX
    kernel_size: 3
    stride: 2
  }
}
layer {
  name: "inception_3c/output"
  type: "Concat"
  bottom: "inception_3c/3x3/bn"
  bottom: "inception_3c/double3x3b/bn"
  bottom: "inception_3c/pool/3x3_s2"
  top: "inception_3c/output"
}
layer {
  name: "inception_4a/1x1"
  type: "ConvolutionData"
  bottom: "inception_3c/output"
  top: "inception_4a/1x1"
  param {
    lr_mult: 1
    decay_mult: 1
  }
  convolution_param {
    num_output: 224
    bias_term: false
    kernel_size: 1
    weight_filler {
      type: "xavier"
    }
  }
}
layer {
  name: "inception_4a/1x1/bn"
  type: "BNData"
  bottom: "inception_4a/1x1"
  top: "inception_4a/1x1/bn"
  param {
    lr_mult: 1
    decay_mult: 0
  }
  param {
    lr_mult: 1
    decay_mult: 0
  }
  param {
    lr_mult: 0
    decay_mult: 0
  }
  param {
    lr_mult: 0
    decay_mult: 0
  }
  bn_param {
    scale_filler {
      type: "constant"
      value: 1
    }
    shift_filler {
      type: "constant"
      value: 0
    }
    moving_average: true
    decay: 0.05
  }
}
layer {
  name: "inception_4a/relu_1x1"
  type: "ReLU"
  bottom: "inception_4a/1x1/bn"
  top: "inception_4a/1x1/bn"
}
layer {
  name: "inception_4a/3x3_reduce"
  type: "ConvolutionData"
  bottom: "inception_3c/output"
  top: "inception_4a/3x3_reduce"
  param {
    lr_mult: 1
    decay_mult: 1
  }
  convolution_param {
    num_output: 64
    bias_term: false
    kernel_size: 1
    weight_filler {
      type: "xavier"
    }
  }
}
layer {
  name: "inception_4a/3x3_reduce/bn"
  type: "BNData"
  bottom: "inception_4a/3x3_reduce"
  top: "inception_4a/3x3_reduce/bn"
  param {
    lr_mult: 1
    decay_mult: 0
  }
  param {
    lr_mult: 1
    decay_mult: 0
  }
  param {
    lr_mult: 0
    decay_mult: 0
  }
  param {
    lr_mult: 0
    decay_mult: 0
  }
  bn_param {
    scale_filler {
      type: "constant"
      value: 1
    }
    shift_filler {
      type: "constant"
      value: 0
    }
    moving_average: true
    decay: 0.05
  }
}
layer {
  name: "inception_4a/relu_3x3_reduce"
  type: "ReLU"
  bottom: "inception_4a/3x3_reduce/bn"
  top: "inception_4a/3x3_reduce/bn"
}
layer {
  name: "inception_4a/3x3"
  type: "ConvolutionData"
  bottom: "inception_4a/3x3_reduce/bn"
  top: "inception_4a/3x3"
  param {
    lr_mult: 1
    decay_mult: 1
  }
  convolution_param {
    num_output: 96
    bias_term: false
    pad: 1
    kernel_size: 3
    weight_filler {
      type: "xavier"
    }
  }
}
layer {
  name: "inception_4a/3x3/bn"
  type: "BNData"
  bottom: "inception_4a/3x3"
  top: "inception_4a/3x3/bn"
  param {
    lr_mult: 1
    decay_mult: 0
  }
  param {
    lr_mult: 1
    decay_mult: 0
  }
  param {
    lr_mult: 0
    decay_mult: 0
  }
  param {
    lr_mult: 0
    decay_mult: 0
  }
  bn_param {
    scale_filler {
      type: "constant"
      value: 1
    }
    shift_filler {
      type: "constant"
      value: 0
    }
    moving_average: true
    decay: 0.05
  }
}
layer {
  name: "inception_4a/relu_3x3"
  type: "ReLU"
  bottom: "inception_4a/3x3/bn"
  top: "inception_4a/3x3/bn"
}
layer {
  name: "inception_4a/double3x3_reduce"
  type: "ConvolutionData"
  bottom: "inception_3c/output"
  top: "inception_4a/double3x3_reduce"
  param {
    lr_mult: 1
    decay_mult: 1
  }
  convolution_param {
    num_output: 96
    bias_term: false
    kernel_size: 1
    weight_filler {
      type: "xavier"
    }
  }
}
layer {
  name: "inception_4a/double3x3_reduce/bn"
  type: "BNData"
  bottom: "inception_4a/double3x3_reduce"
  top: "inception_4a/double3x3_reduce/bn"
  param {
    lr_mult: 1
    decay_mult: 0
  }
  param {
    lr_mult: 1
    decay_mult: 0
  }
  param {
    lr_mult: 0
    decay_mult: 0
  }
  param {
    lr_mult: 0
    decay_mult: 0
  }
  bn_param {
    scale_filler {
      type: "constant"
      value: 1
    }
    shift_filler {
      type: "constant"
      value: 0
    }
    moving_average: true
    decay: 0.05
  }
}
layer {
  name: "inception_4a/relu_double3x3_reduce"
  type: "ReLU"
  bottom: "inception_4a/double3x3_reduce/bn"
  top: "inception_4a/double3x3_reduce/bn"
}
layer {
  name: "inception_4a/double3x3a"
  type: "ConvolutionData"
  bottom: "inception_4a/double3x3_reduce/bn"
  top: "inception_4a/double3x3a"
  param {
    lr_mult: 1
    decay_mult: 1
  }
  convolution_param {
    num_output: 128
    bias_term: false
    pad: 1
    kernel_size: 3
    weight_filler {
      type: "xavier"
    }
  }
}
layer {
  name: "inception_4a/double3x3a/bn"
  type: "BNData"
  bottom: "inception_4a/double3x3a"
  top: "inception_4a/double3x3a/bn"
  param {
    lr_mult: 1
    decay_mult: 0
  }
  param {
    lr_mult: 1
    decay_mult: 0
  }
  param {
    lr_mult: 0
    decay_mult: 0
  }
  param {
    lr_mult: 0
    decay_mult: 0
  }
  bn_param {
    scale_filler {
      type: "constant"
      value: 1
    }
    shift_filler {
      type: "constant"
      value: 0
    }
    moving_average: true
    decay: 0.05
  }
}
layer {
  name: "inception_4a/relu_double3x3a"
  type: "ReLU"
  bottom: "inception_4a/double3x3a/bn"
  top: "inception_4a/double3x3a/bn"
}
layer {
  name: "inception_4a/double3x3b"
  type: "ConvolutionData"
  bottom: "inception_4a/double3x3a/bn"
  top: "inception_4a/double3x3b"
  param {
    lr_mult: 1
    decay_mult: 1
  }
  convolution_param {
    num_output: 128
    bias_term: false
    pad: 1
    kernel_size: 3
    weight_filler {
      type: "xavier"
    }
  }
}
layer {
  name: "inception_4a/double3x3b/bn"
  type: "BNData"
  bottom: "inception_4a/double3x3b"
  top: "inception_4a/double3x3b/bn"
  param {
    lr_mult: 1
    decay_mult: 0
  }
  param {
    lr_mult: 1
    decay_mult: 0
  }
  param {
    lr_mult: 0
    decay_mult: 0
  }
  param {
    lr_mult: 0
    decay_mult: 0
  }
  bn_param {
    scale_filler {
      type: "constant"
      value: 1
    }
    shift_filler {
      type: "constant"
      value: 0
    }
    moving_average: true
    decay: 0.05
  }
}
layer {
  name: "inception_4a/relu_double3x3b"
  type: "ReLU"
  bottom: "inception_4a/double3x3b/bn"
  top: "inception_4a/double3x3b/bn"
}
layer {
  name: "inception_4a/pool"
  type: "Pooling"
  bottom: "inception_3c/output"
  top: "inception_4a/pool"
  pooling_param {
    pool: AVE
    kernel_size: 3
    stride: 1
    pad: 1
  }
}
layer {
  name: "inception_4a/pool_proj"
  type: "ConvolutionData"
  bottom: "inception_4a/pool"
  top: "inception_4a/pool_proj"
  param {
    lr_mult: 1
    decay_mult: 1
  }
  convolution_param {
    num_output: 128
    bias_term: false
    kernel_size: 1
    weight_filler {
      type: "xavier"
    }
  }
}
layer {
  name: "inception_4a/pool_proj/bn"
  type: "BNData"
  bottom: "inception_4a/pool_proj"
  top: "inception_4a/pool_proj/bn"
  param {
    lr_mult: 1
    decay_mult: 0
  }
  param {
    lr_mult: 1
    decay_mult: 0
  }
  param {
    lr_mult: 0
    decay_mult: 0
  }
  param {
    lr_mult: 0
    decay_mult: 0
  }
  bn_param {
    scale_filler {
      type: "constant"
 
I0304 23:08:27.530325  4326 layer_factory.hpp:74] Creating layer data
I0304 23:08:27.530359  4326 net.cpp:90] Creating Layer data
I0304 23:08:27.530369  4326 net.cpp:368] data -> data
I0304 23:08:27.530393  4326 net.cpp:368] data -> label_single
I0304 23:08:27.530405  4326 net.cpp:120] Setting up data
I0304 23:08:27.530828  4326 video_data_layer.cpp:40] Opening file: /data1/wangjiang/datasets/ucf101_list/train_list_split1.txt
I0304 23:08:27.533077  4325 video_data_layer.cpp:56] A total of 9537 videos.
I0304 23:08:27.535392  4326 video_data_layer.cpp:56] A total of 9537 videos.
I0304 23:08:27.541893  4327 video_data_layer.cpp:87] output data size: 72,20,224,224
I0304 23:08:27.552577  4328 video_data_layer.cpp:87] output data size: 72,20,224,224
I0304 23:08:27.560807  4325 video_data_layer.cpp:87] output data size: 72,20,224,224
I0304 23:08:27.562834  4326 video_data_layer.cpp:87] output data size: 72,20,224,224
I0304 23:08:27.842802  4327 net.cpp:127] Top shape: 72 20 224 224 (72253440)
I0304 23:08:27.842846  4327 net.cpp:127] Top shape: 12 1 1 1 (12)
I0304 23:08:27.842856  4327 layer_factory.hpp:74] Creating layer Gather_label
I0304 23:08:27.842872  4327 net.cpp:90] Creating Layer Gather_label
I0304 23:08:27.842882  4327 net.cpp:410] Gather_label <- label_single
I0304 23:08:27.842900  4327 net.cpp:368] Gather_label -> label
I0304 23:08:27.842913  4327 net.cpp:120] Setting up Gather_label
I0304 23:08:27.842922  4327 net.cpp:127] Top shape: 48 1 1 1 (48)
I0304 23:08:27.842926  4327 layer_factory.hpp:74] Creating layer label_Gather_label_0_split
I0304 23:08:27.842939  4327 net.cpp:90] Creating Layer label_Gather_label_0_split
I0304 23:08:27.842944  4327 net.cpp:410] label_Gather_label_0_split <- label
I0304 23:08:27.842950  4327 net.cpp:368] label_Gather_label_0_split -> label_Gather_label_0_split_0
I0304 23:08:27.842957  4327 net.cpp:368] label_Gather_label_0_split -> label_Gather_label_0_split_1
I0304 23:08:27.842963  4327 net.cpp:120] Setting up label_Gather_label_0_split
I0304 23:08:27.842972  4327 net.cpp:127] Top shape: 48 1 1 1 (48)
I0304 23:08:27.843022  4327 net.cpp:127] Top shape: 48 1 1 1 (48)
I0304 23:08:27.843029  4327 layer_factory.hpp:74] Creating layer conv1/7x7_s2
I0304 23:08:27.843108  4327 net.cpp:90] Creating Layer conv1/7x7_s2
I0304 23:08:27.843118  4327 net.cpp:410] conv1/7x7_s2 <- data
I0304 23:08:27.843145  4327 net.cpp:368] conv1/7x7_s2 -> conv1/7x7_s2
I0304 23:08:27.843157  4327 net.cpp:120] Setting up conv1/7x7_s2
I0304 23:08:28.197332  4325 net.cpp:127] Top shape: 72 20 224 224 (72253440)
I0304 23:08:28.197386  4325 net.cpp:127] Top shape: 12 1 1 1 (12)
I0304 23:08:28.197401  4325 layer_factory.hpp:74] Creating layer Gather_label
I0304 23:08:28.197422  4325 net.cpp:90] Creating Layer Gather_label
I0304 23:08:28.197434  4325 net.cpp:410] Gather_label <- label_single
I0304 23:08:28.197454  4325 net.cpp:368] Gather_label -> label
I0304 23:08:28.197468  4325 net.cpp:120] Setting up Gather_label
I0304 23:08:28.197486  4325 net.cpp:127] Top shape: 48 1 1 1 (48)
I0304 23:08:28.197491  4325 layer_factory.hpp:74] Creating layer label_Gather_label_0_split
I0304 23:08:28.197541  4325 net.cpp:90] Creating Layer label_Gather_label_0_split
I0304 23:08:28.197549  4325 net.cpp:410] label_Gather_label_0_split <- label
I0304 23:08:28.197556  4325 net.cpp:368] label_Gather_label_0_split -> label_Gather_label_0_split_0
I0304 23:08:28.197566  4325 net.cpp:368] label_Gather_label_0_split -> label_Gather_label_0_split_1
I0304 23:08:28.197572  4325 net.cpp:120] Setting up label_Gather_label_0_split
I0304 23:08:28.197582  4325 net.cpp:127] Top shape: 48 1 1 1 (48)
I0304 23:08:28.197616  4325 net.cpp:127] Top shape: 48 1 1 1 (48)
I0304 23:08:28.197623  4325 layer_factory.hpp:74] Creating layer conv1/7x7_s2
I0304 23:08:28.197666  4325 net.cpp:90] Creating Layer conv1/7x7_s2
I0304 23:08:28.197674  4325 net.cpp:410] conv1/7x7_s2 <- data
I0304 23:08:28.197682  4325 net.cpp:368] conv1/7x7_s2 -> conv1/7x7_s2
I0304 23:08:28.197695  4325 net.cpp:120] Setting up conv1/7x7_s2
I0304 23:08:28.566973  4328 net.cpp:127] Top shape: 72 20 224 224 (72253440)
I0304 23:08:28.567036  4328 net.cpp:127] Top shape: 12 1 1 1 (12)
I0304 23:08:28.567050  4328 layer_factory.hpp:74] Creating layer Gather_label
I0304 23:08:28.567076  4328 net.cpp:90] Creating Layer Gather_label
I0304 23:08:28.567090  4328 net.cpp:410] Gather_label <- label_single
I0304 23:08:28.567107  4328 net.cpp:368] Gather_label -> label
I0304 23:08:28.567147  4328 net.cpp:120] Setting up Gather_label
I0304 23:08:28.567158  4328 net.cpp:127] Top shape: 48 1 1 1 (48)
I0304 23:08:28.567164  4328 layer_factory.hpp:74] Creating layer label_Gather_label_0_split
I0304 23:08:28.567203  4328 net.cpp:90] Creating Layer label_Gather_label_0_split
I0304 23:08:28.567209  4328 net.cpp:410] label_Gather_label_0_split <- label
I0304 23:08:28.567215  4328 net.cpp:368] label_Gather_label_0_split -> label_Gather_label_0_split_0
I0304 23:08:28.567224  4328 net.cpp:368] label_Gather_label_0_split -> label_Gather_label_0_split_1
I0304 23:08:28.567232  4328 net.cpp:120] Setting up label_Gather_label_0_split
I0304 23:08:28.567241  4328 net.cpp:127] Top shape: 48 1 1 1 (48)
I0304 23:08:28.567275  4328 net.cpp:127] Top shape: 48 1 1 1 (48)
I0304 23:08:28.567302  4328 layer_factory.hpp:74] Creating layer conv1/7x7_s2
I0304 23:08:28.567364  4328 net.cpp:90] Creating Layer conv1/7x7_s2
I0304 23:08:28.567371  4328 net.cpp:410] conv1/7x7_s2 <- data
I0304 23:08:28.567380  4328 net.cpp:368] conv1/7x7_s2 -> conv1/7x7_s2
I0304 23:08:28.567394  4328 net.cpp:120] Setting up conv1/7x7_s2
I0304 23:08:28.588590  4326 net.cpp:127] Top shape: 72 20 224 224 (72253440)
I0304 23:08:28.588750  4326 net.cpp:127] Top shape: 12 1 1 1 (12)
I0304 23:08:28.588767  4326 layer_factory.hpp:74] Creating layer Gather_label
I0304 23:08:28.588788  4326 net.cpp:90] Creating Layer Gather_label
I0304 23:08:28.588803  4326 net.cpp:410] Gather_label <- label_single
I0304 23:08:28.588821  4326 net.cpp:368] Gather_label -> label
I0304 23:08:28.588836  4326 net.cpp:120] Setting up Gather_label
I0304 23:08:28.588846  4326 net.cpp:127] Top shape: 48 1 1 1 (48)
I0304 23:08:28.588851  4326 layer_factory.hpp:74] Creating layer label_Gather_label_0_split
I0304 23:08:28.588865  4326 net.cpp:90] Creating Layer label_Gather_label_0_split
I0304 23:08:28.588871  4326 net.cpp:410] label_Gather_label_0_split <- label
I0304 23:08:28.588877  4326 net.cpp:368] label_Gather_label_0_split -> label_Gather_label_0_split_0
I0304 23:08:28.588884  4326 net.cpp:368] label_Gather_label_0_split -> label_Gather_label_0_split_1
I0304 23:08:28.588892  4326 net.cpp:120] Setting up label_Gather_label_0_split
I0304 23:08:28.588901  4326 net.cpp:127] Top shape: 48 1 1 1 (48)
I0304 23:08:28.588935  4326 net.cpp:127] Top shape: 48 1 1 1 (48)
I0304 23:08:28.588954  4326 layer_factory.hpp:74] Creating layer conv1/7x7_s2
I0304 23:08:28.588973  4326 net.cpp:90] Creating Layer conv1/7x7_s2
I0304 23:08:28.588981  4326 net.cpp:410] conv1/7x7_s2 <- data
I0304 23:08:28.588995  4326 net.cpp:368] conv1/7x7_s2 -> conv1/7x7_s2
I0304 23:08:28.589030  4326 net.cpp:120] Setting up conv1/7x7_s2
I0304 23:08:28.859014  4327 cudnn_conv_data_layer.cpp:184] Reallocating workspace storage: 909720
I0304 23:08:28.859468  4327 net.cpp:127] Top shape: 72 64 112 112 (57802752)
I0304 23:08:28.859580  4327 layer_factory.hpp:74] Creating layer conv1/7x7_s2/bn
I0304 23:08:28.859665  4327 net.cpp:90] Creating Layer conv1/7x7_s2/bn
I0304 23:08:28.859725  4327 net.cpp:410] conv1/7x7_s2/bn <- conv1/7x7_s2
I0304 23:08:28.859791  4327 net.cpp:368] conv1/7x7_s2/bn -> conv1/7x7_s2/bn
I0304 23:08:28.859859  4327 net.cpp:120] Setting up conv1/7x7_s2/bn
I0304 23:08:29.007124  4326 cudnn_conv_data_layer.cpp:184] Reallocating workspace storage: 909720
I0304 23:08:29.007355  4326 net.cpp:127] Top shape: 72 64 112 112 (57802752)
I0304 23:08:29.007407  4326 layer_factory.hpp:74] Creating layer conv1/7x7_s2/bn
I0304 23:08:29.007558  4326 net.cpp:90] Creating Layer conv1/7x7_s2/bn
I0304 23:08:29.007582  4326 net.cpp:410] conv1/7x7_s2/bn <- conv1/7x7_s2
I0304 23:08:29.007658  4326 net.cpp:368] conv1/7x7_s2/bn -> conv1/7x7_s2/bn
I0304 23:08:29.007699  4326 net.cpp:120] Setting up conv1/7x7_s2/bn
I0304 23:08:29.360525  4328 cudnn_conv_data_layer.cpp:184] Reallocating workspace storage: 909720
I0304 23:08:29.361845  4328 net.cpp:127] Top shape: 72 64 112 112 (57802752)
I0304 23:08:29.362884  4328 layer_factory.hpp:74] Creating layer conv1/7x7_s2/bn
I0304 23:08:29.362998  4328 net.cpp:90] Creating Layer conv1/7x7_s2/bn
I0304 23:08:29.363014  4328 net.cpp:410] conv1/7x7_s2/bn <- conv1/7x7_s2
I0304 23:08:29.363030  4328 net.cpp:368] conv1/7x7_s2/bn -> conv1/7x7_s2/bn
I0304 23:08:29.363054  4328 net.cpp:120] Setting up conv1/7x7_s2/bn
I0304 23:08:29.601940  4325 cudnn_conv_data_layer.cpp:184] Reallocating workspace storage: 909720
I0304 23:08:29.602154  4325 net.cpp:127] Top shape: 72 64 112 112 (57802752)
I0304 23:08:29.602190  4325 layer_factory.hpp:74] Creating layer conv1/7x7_s2/bn
I0304 23:08:29.602222  4325 net.cpp:90] Creating Layer conv1/7x7_s2/bn
I0304 23:08:29.602234  4325 net.cpp:410] conv1/7x7_s2/bn <- conv1/7x7_s2
I0304 23:08:29.602248  4325 net.cpp:368] conv1/7x7_s2/bn -> conv1/7x7_s2/bn
I0304 23:08:29.602268  4325 net.cpp:120] Setting up conv1/7x7_s2/bn
I0304 23:08:29.602427  4325 bn_data_layer.cpp:60] scale: 1 1 1
I0304 23:08:29.602495  4325 bn_data_layer.cpp:71] shift: 0 0 0
I0304 23:08:29.602516  4325 bn_data_layer.cpp:80] mean: 0 0 0
I0304 23:08:29.602485  4326 bn_data_layer.cpp:60] scale: 1 1 1
I0304 23:08:29.602488  4327 bn_data_layer.cpp:60] scale: 1 1 1
I0304 23:08:29.602536  4325 bn_data_layer.cpp:89] variance: 0 0 0
I0304 23:08:29.602550  4325 net.cpp:127] Top shape: 72 64 112 112 (57802752)
I0304 23:08:29.602572  4325 layer_factory.hpp:74] Creating layer conv1/relu_7x7
I0304 23:08:29.602571  4326 bn_data_layer.cpp:71] shift: 0 0 0
I0304 23:08:29.602591  4325 net.cpp:90] Creating Layer conv1/relu_7x7
I0304 23:08:29.602598  4325 net.cpp:410] conv1/relu_7x7 <- conv1/7x7_s2/bn
I0304 23:08:29.602596  4326 bn_data_layer.cpp:80] mean: 0 0 0
I0304 23:08:29.602604  4327 bn_data_layer.cpp:71] shift: 0 0 0
I0304 23:08:29.602609  4325 net.cpp:357] conv1/relu_7x7 -> conv1/7x7_s2/bn (in-place)
I0304 23:08:29.602615  4326 bn_data_layer.cpp:89] variance: 0 0 0
I0304 23:08:29.602619  4327 bn_data_layer.cpp:80] mean: 0 0 0
I0304 23:08:29.602622  4325 net.cpp:120] Setting up conv1/relu_7x7
I0304 23:08:29.602632  4327 bn_data_layer.cpp:89] variance: 0 0 0
I0304 23:08:29.602634  4326 net.cpp:127] Top shape: 72 64 112 112 (57802752)
I0304 23:08:29.602649  4327 net.cpp:127] Top shape: 72 64 112 112 (57802752)
I0304 23:08:29.602663  4326 layer_factory.hpp:74] Creating layer conv1/relu_7x7
I0304 23:08:29.602684  4327 layer_factory.hpp:74] Creating layer conv1/relu_7x7
I0304 23:08:29.602684  4326 net.cpp:90] Creating Layer conv1/relu_7x7
I0304 23:08:29.602694  4326 net.cpp:410] conv1/relu_7x7 <- conv1/7x7_s2/bn
I0304 23:08:29.602705  4327 net.cpp:90] Creating Layer conv1/relu_7x7
I0304 23:08:29.602707  4326 net.cpp:357] conv1/relu_7x7 -> conv1/7x7_s2/bn (in-place)
I0304 23:08:29.602713  4327 net.cpp:410] conv1/relu_7x7 <- conv1/7x7_s2/bn
I0304 23:08:29.602720  4326 net.cpp:120] Setting up conv1/relu_7x7
I0304 23:08:29.602725  4327 net.cpp:357] conv1/relu_7x7 -> conv1/7x7_s2/bn (in-place)
I0304 23:08:29.602735  4327 net.cpp:120] Setting up conv1/relu_7x7
I0304 23:08:29.602995  4325 net.cpp:127] Top shape: 72 64 112 112 (57802752)
I0304 23:08:29.603013  4325 layer_factory.hpp:74] Creating layer pool1/3x3_s2
I0304 23:08:29.603032  4325 net.cpp:90] Creating Layer pool1/3x3_s2
I0304 23:08:29.603039  4325 net.cpp:410] pool1/3x3_s2 <- conv1/7x7_s2/bn
I0304 23:08:29.603050  4325 net.cpp:368] pool1/3x3_s2 -> pool1/3x3_s2
I0304 23:08:29.603063  4325 net.cpp:120] Setting up pool1/3x3_s2
I0304 23:08:29.603293  4325 net.cpp:127] Top shape: 72 64 56 56 (14450688)
I0304 23:08:29.603296  4326 net.cpp:127] Top shape: 72 64 112 112 (57802752)
I0304 23:08:29.603312  4326 layer_factory.hpp:74] Creating layer pool1/3x3_s2
I0304 23:08:29.603309  4325 layer_factory.hpp:74] Creating layer conv2/3x3_reduce
I0304 23:08:29.603341  4325 net.cpp:90] Creating Layer conv2/3x3_reduce
I0304 23:08:29.603343  4326 net.cpp:90] Creating Layer pool1/3x3_s2
I0304 23:08:29.603351  4326 net.cpp:410] pool1/3x3_s2 <- conv1/7x7_s2/bn
I0304 23:08:29.603354  4325 net.cpp:410] conv2/3x3_reduce <- pool1/3x3_s2
I0304 23:08:29.603363  4326 net.cpp:368] pool1/3x3_s2 -> pool1/3x3_s2
I0304 23:08:29.603369  4325 net.cpp:368] conv2/3x3_reduce -> conv2/3x3_reduce
I0304 23:08:29.603375  4326 net.cpp:120] Setting up pool1/3x3_s2
I0304 23:08:29.603387  4325 net.cpp:120] Setting up conv2/3x3_reduce
I0304 23:08:29.603425  4327 net.cpp:127] Top shape: 72 64 112 112 (57802752)
I0304 23:08:29.603440  4327 layer_factory.hpp:74] Creating layer pool1/3x3_s2
I0304 23:08:29.603456  4327 net.cpp:90] Creating Layer pool1/3x3_s2
I0304 23:08:29.603461  4327 net.cpp:410] pool1/3x3_s2 <- conv1/7x7_s2/bn
I0304 23:08:29.603472  4327 net.cpp:368] pool1/3x3_s2 -> pool1/3x3_s2
I0304 23:08:29.603482  4327 net.cpp:120] Setting up pool1/3x3_s2
I0304 23:08:29.603636  4326 net.cpp:127] Top shape: 72 64 56 56 (14450688)
I0304 23:08:29.603655  4326 layer_factory.hpp:74] Creating layer conv2/3x3_reduce
I0304 23:08:29.603672  4326 net.cpp:90] Creating Layer conv2/3x3_reduce
I0304 23:08:29.603680  4326 net.cpp:410] conv2/3x3_reduce <- pool1/3x3_s2
I0304 23:08:29.603685  4327 net.cpp:127] Top shape: 72 64 56 56 (14450688)
I0304 23:08:29.603693  4326 net.cpp:368] conv2/3x3_reduce -> conv2/3x3_reduce
I0304 23:08:29.603698  4327 layer_factory.hpp:74] Creating layer conv2/3x3_reduce
I0304 23:08:29.603713  4327 net.cpp:90] Creating Layer conv2/3x3_reduce
I0304 23:08:29.603710  4326 net.cpp:120] Setting up conv2/3x3_reduce
I0304 23:08:29.603718  4327 net.cpp:410] conv2/3x3_reduce <- pool1/3x3_s2
I0304 23:08:29.603729  4327 net.cpp:368] conv2/3x3_reduce -> conv2/3x3_reduce
I0304 23:08:29.603741  4327 net.cpp:120] Setting up conv2/3x3_reduce
I0304 23:08:29.604671  4327 cudnn_conv_data_layer.cpp:184] Reallocating workspace storage: 63000
I0304 23:08:29.604701  4327 net.cpp:127] Top shape: 72 64 56 56 (14450688)
I0304 23:08:29.604712  4327 layer_factory.hpp:74] Creating layer conv2/3x3_reduce/bn
I0304 23:08:29.604727  4327 net.cpp:90] Creating Layer conv2/3x3_reduce/bn
I0304 23:08:29.604733  4327 net.cpp:410] conv2/3x3_reduce/bn <- conv2/3x3_reduce
I0304 23:08:29.604743  4327 net.cpp:368] conv2/3x3_reduce/bn -> conv2/3x3_reduce/bn
I0304 23:08:29.604751  4327 net.cpp:120] Setting up conv2/3x3_reduce/bn
I0304 23:08:29.604934  4326 cudnn_conv_data_layer.cpp:184] Reallocating workspace storage: 63000
I0304 23:08:29.604975  4326 net.cpp:127] Top shape: 72 64 56 56 (14450688)
I0304 23:08:29.604987  4326 layer_factory.hpp:74] Creating layer conv2/3x3_reduce/bn
I0304 23:08:29.605007  4326 net.cpp:90] Creating Layer conv2/3x3_reduce/bn
I0304 23:08:29.605020  4326 net.cpp:410] conv2/3x3_reduce/bn <- conv2/3x3_reduce
I0304 23:08:29.605032  4326 net.cpp:368] conv2/3x3_reduce/bn -> conv2/3x3_reduce/bn
I0304 23:08:29.605046  4326 net.cpp:120] Setting up conv2/3x3_reduce/bn
I0304 23:08:29.656828  4328 bn_data_layer.cpp:60] scale: 1 1 1
I0304 23:08:29.656946  4328 bn_data_layer.cpp:71] shift: 0 0 0
I0304 23:08:29.656977  4328 bn_data_layer.cpp:80] mean: 0 0 0
I0304 23:08:29.656997  4328 bn_data_layer.cpp:89] variance: 0 0 0
I0304 23:08:29.657018  4328 net.cpp:127] Top shape: 72 64 112 112 (57802752)
I0304 23:08:29.657054  4328 layer_factory.hpp:74] Creating layer conv1/relu_7x7
I0304 23:08:29.657081  4328 net.cpp:90] Creating Layer conv1/relu_7x7
I0304 23:08:29.657094  4328 net.cpp:410] conv1/relu_7x7 <- conv1/7x7_s2/bn
I0304 23:08:29.657111  4328 net.cpp:357] conv1/relu_7x7 -> conv1/7x7_s2/bn (in-place)
I0304 23:08:29.657133  4328 net.cpp:120] Setting up conv1/relu_7x7
I0304 23:08:29.657799  4328 net.cpp:127] Top shape: 72 64 112 112 (57802752)
I0304 23:08:29.657821  4328 layer_factory.hpp:74] Creating layer pool1/3x3_s2
I0304 23:08:29.657846  4328 net.cpp:90] Creating Layer pool1/3x3_s2
I0304 23:08:29.657858  4328 net.cpp:410] pool1/3x3_s2 <- conv1/7x7_s2/bn
I0304 23:08:29.657871  4328 net.cpp:368] pool1/3x3_s2 -> pool1/3x3_s2
I0304 23:08:29.657887  4328 net.cpp:120] Setting up pool1/3x3_s2
I0304 23:08:29.658180  4328 net.cpp:127] Top shape: 72 64 56 56 (14450688)
I0304 23:08:29.658200  4328 layer_factory.hpp:74] Creating layer conv2/3x3_reduce
I0304 23:08:29.658221  4328 net.cpp:90] Creating Layer conv2/3x3_reduce
I0304 23:08:29.658229  4328 net.cpp:410] conv2/3x3_reduce <- pool1/3x3_s2
I0304 23:08:29.658243  4328 net.cpp:368] conv2/3x3_reduce -> conv2/3x3_reduce
I0304 23:08:29.658263  4328 net.cpp:120] Setting up conv2/3x3_reduce
I0304 23:08:29.659503  4328 cudnn_conv_data_layer.cpp:184] Reallocating workspace storage: 63000
I0304 23:08:29.659545  4328 net.cpp:127] Top shape: 72 64 56 56 (14450688)
I0304 23:08:29.659562  4328 layer_factory.hpp:74] Creating layer conv2/3x3_reduce/bn
I0304 23:08:29.659556  4325 cudnn_conv_data_layer.cpp:184] Reallocating workspace storage: 63000
I0304 23:08:29.659585  4328 net.cpp:90] Creating Layer conv2/3x3_reduce/bn
I0304 23:08:29.659595  4328 net.cpp:410] conv2/3x3_reduce/bn <- conv2/3x3_reduce
I0304 23:08:29.659610  4328 net.cpp:368] conv2/3x3_reduce/bn -> conv2/3x3_reduce/bn
I0304 23:08:29.659611  4325 net.cpp:127] Top shape: 72 64 56 56 (14450688)
I0304 23:08:29.659627  4325 layer_factory.hpp:74] Creating layer conv2/3x3_reduce/bn
I0304 23:08:29.659626  4328 net.cpp:120] Setting up conv2/3x3_reduce/bn
I0304 23:08:29.659651  4325 net.cpp:90] Creating Layer conv2/3x3_reduce/bn
I0304 23:08:29.659665  4325 net.cpp:410] conv2/3x3_reduce/bn <- conv2/3x3_reduce
I0304 23:08:29.659678  4325 net.cpp:368] conv2/3x3_reduce/bn -> conv2/3x3_reduce/bn
I0304 23:08:29.659693  4325 net.cpp:120] Setting up conv2/3x3_reduce/bn
I0304 23:08:29.659740  4325 bn_data_layer.cpp:60] scale: 1 1 1
I0304 23:08:29.659754  4328 bn_data_layer.cpp:60] scale: 1 1 1
I0304 23:08:29.659749  4327 bn_data_layer.cpp:60] scale: 1 1 1
I0304 23:08:29.659757  4326 bn_data_layer.cpp:60] scale: 1 1 1
I0304 23:08:29.659765  4325 bn_data_layer.cpp:71] shift: 0 0 0
I0304 23:08:29.659775  4327 bn_data_layer.cpp:71] shift: 0 0 0
I0304 23:08:29.659787  4327 bn_data_layer.cpp:80] mean: 0 0 0
I0304 23:08:29.659785  4328 bn_data_layer.cpp:71] shift: 0 0 0
I0304 23:08:29.659783  4325 bn_data_layer.cpp:80] mean: 0 0 0
I0304 23:08:29.659797  4325 bn_data_layer.cpp:89] variance: 0 0 0
I0304 23:08:29.659783  4326 bn_data_layer.cpp:71] shift: 0 0 0
I0304 23:08:29.659795  4326 bn_data_layer.cpp:80] mean: 0 0 0
I0304 23:08:29.659798  4327 bn_data_layer.cpp:89] variance: 0 0 0
I0304 23:08:29.659808  4327 net.cpp:127] Top shape: 72 64 56 56 (14450688)
I0304 23:08:29.659806  4326 bn_data_layer.cpp:89] variance: 0 0 0
I0304 23:08:29.659817  4326 net.cpp:127] Top shape: 72 64 56 56 (14450688)
I0304 23:08:29.659800  4328 bn_data_layer.cpp:80] mean: 0 0 0
I0304 23:08:29.659812  4328 bn_data_layer.cpp:89] variance: 0 0 0
I0304 23:08:29.659809  4325 net.cpp:127] Top shape: 72 64 56 56 (14450688)
I0304 23:08:29.659822  4327 layer_factory.hpp:74] Creating layer conv2/relu_3x3_reduce
I0304 23:08:29.659833  4327 net.cpp:90] Creating Layer conv2/relu_3x3_reduce
I0304 23:08:29.659839  4327 net.cpp:410] conv2/relu_3x3_reduce <- conv2/3x3_reduce/bn
I0304 23:08:29.659834  4326 layer_factory.hpp:74] Creating layer conv2/relu_3x3_reduce
I0304 23:08:29.659845  4326 net.cpp:90] Creating Layer conv2/relu_3x3_reduce
I0304 23:08:29.659826  4328 net.cpp:127] Top shape: 72 64 56 56 (14450688)
I0304 23:08:29.659831  4325 layer_factory.hpp:74] Creating layer conv2/relu_3x3_reduce
I0304 23:08:29.659843  4325 net.cpp:90] Creating Layer conv2/relu_3x3_reduce
I0304 23:08:29.659847  4327 net.cpp:357] conv2/relu_3x3_reduce -> conv2/3x3_reduce/bn (in-place)
I0304 23:08:29.659855  4327 net.cpp:120] Setting up conv2/relu_3x3_reduce
I0304 23:08:29.659852  4326 net.cpp:410] conv2/relu_3x3_reduce <- conv2/3x3_reduce/bn
I0304 23:08:29.659849  4328 layer_factory.hpp:74] Creating layer conv2/relu_3x3_reduce
I0304 23:08:29.659852  4325 net.cpp:410] conv2/relu_3x3_reduce <- conv2/3x3_reduce/bn
I0304 23:08:29.659860  4325 net.cpp:357] conv2/relu_3x3_reduce -> conv2/3x3_reduce/bn (in-place)
I0304 23:08:29.659870  4325 net.cpp:120] Setting up conv2/relu_3x3_reduce
I0304 23:08:29.659862  4328 net.cpp:90] Creating Layer conv2/relu_3x3_reduce
I0304 23:08:29.659870  4328 net.cpp:410] conv2/relu_3x3_reduce <- conv2/3x3_reduce/bn
I0304 23:08:29.659860  4326 net.cpp:357] conv2/relu_3x3_reduce -> conv2/3x3_reduce/bn (in-place)
I0304 23:08:29.659868  4326 net.cpp:120] Setting up conv2/relu_3x3_reduce
I0304 23:08:29.659880  4328 net.cpp:357] conv2/relu_3x3_reduce -> conv2/3x3_reduce/bn (in-place)
I0304 23:08:29.659893  4328 net.cpp:120] Setting up conv2/relu_3x3_reduce
I0304 23:08:29.660388  4327 net.cpp:127] Top shape: 72 64 56 56 (14450688)
I0304 23:08:29.660403  4327 layer_factory.hpp:74] Creating layer conv2/3x3
I0304 23:08:29.660418  4327 net.cpp:90] Creating Layer conv2/3x3
I0304 23:08:29.660451  4327 net.cpp:410] conv2/3x3 <- conv2/3x3_reduce/bn
I0304 23:08:29.660451  4325 net.cpp:127] Top shape: 72 64 56 56 (14450688)
I0304 23:08:29.660466  4325 layer_factory.hpp:74] Creating layer conv2/3x3
I0304 23:08:29.660462  4327 net.cpp:368] conv2/3x3 -> conv2/3x3
I0304 23:08:29.660472  4327 net.cpp:120] Setting up conv2/3x3
I0304 23:08:29.660481  4325 net.cpp:90] Creating Layer conv2/3x3
I0304 23:08:29.660511  4325 net.cpp:410] conv2/3x3 <- conv2/3x3_reduce/bn
I0304 23:08:29.660507  4326 net.cpp:127] Top shape: 72 64 56 56 (14450688)
I0304 23:08:29.660522  4326 layer_factory.hpp:74] Creating layer conv2/3x3
I0304 23:08:29.660531  4325 net.cpp:368] conv2/3x3 -> conv2/3x3
I0304 23:08:29.660547  4325 net.cpp:120] Setting up conv2/3x3
I0304 23:08:29.660542  4328 net.cpp:127] Top shape: 72 64 56 56 (14450688)
I0304 23:08:29.660537  4326 net.cpp:90] Creating Layer conv2/3x3
I0304 23:08:29.660568  4326 net.cpp:410] conv2/3x3 <- conv2/3x3_reduce/bn
I0304 23:08:29.660579  4326 net.cpp:368] conv2/3x3 -> conv2/3x3
I0304 23:08:29.660589  4326 net.cpp:120] Setting up conv2/3x3
I0304 23:08:29.660554  4328 layer_factory.hpp:74] Creating layer conv2/3x3
I0304 23:08:29.661296  4328 net.cpp:90] Creating Layer conv2/3x3
I0304 23:08:29.661334  4328 net.cpp:410] conv2/3x3 <- conv2/3x3_reduce/bn
I0304 23:08:29.661345  4328 net.cpp:368] conv2/3x3 -> conv2/3x3
I0304 23:08:29.661355  4328 net.cpp:120] Setting up conv2/3x3
I0304 23:08:29.663216  4325 cudnn_conv_data_layer.cpp:184] Reallocating workspace storage: 63000
I0304 23:08:29.663256  4325 net.cpp:127] Top shape: 72 192 56 56 (43352064)
I0304 23:08:29.663280  4325 layer_factory.hpp:74] Creating layer conv2/3x3/bn
I0304 23:08:29.663296  4325 net.cpp:90] Creating Layer conv2/3x3/bn
I0304 23:08:29.663312  4325 net.cpp:410] conv2/3x3/bn <- conv2/3x3
I0304 23:08:29.663291  4326 cudnn_conv_data_layer.cpp:184] Reallocating workspace storage: 63000
I0304 23:08:29.663326  4326 net.cpp:127] Top shape: 72 192 56 56 (43352064)
I0304 23:08:29.663327  4325 net.cpp:368] conv2/3x3/bn -> conv2/3x3/bn
I0304 23:08:29.663341  4326 layer_factory.hpp:74] Creating layer conv2/3x3/bn
I0304 23:08:29.663344  4327 cudnn_conv_data_layer.cpp:184] Reallocating workspace storage: 63000
I0304 23:08:29.663344  4325 net.cpp:120] Setting up conv2/3x3/bn
I0304 23:08:29.663352  4326 net.cpp:90] Creating Layer conv2/3x3/bn
I0304 23:08:29.663358  4326 net.cpp:410] conv2/3x3/bn <- conv2/3x3
I0304 23:08:29.663370  4327 net.cpp:127] Top shape: 72 192 56 56 (43352064)
I0304 23:08:29.663367  4326 net.cpp:368] conv2/3x3/bn -> conv2/3x3/bn
I0304 23:08:29.663378  4326 net.cpp:120] Setting up conv2/3x3/bn
I0304 23:08:29.663381  4327 layer_factory.hpp:74] Creating layer conv2/3x3/bn
I0304 23:08:29.663394  4327 net.cpp:90] Creating Layer conv2/3x3/bn
I0304 23:08:29.663388  4325 bn_data_layer.cpp:60] scale: 1 1 1
I0304 23:08:29.663400  4327 net.cpp:410] conv2/3x3/bn <- conv2/3x3
I0304 23:08:29.663401  4326 bn_data_layer.cpp:60] scale: 1 1 1
I0304 23:08:29.663405  4328 cudnn_conv_data_layer.cpp:184] Reallocating workspace storage: 63000
I0304 23:08:29.663409  4327 net.cpp:368] conv2/3x3/bn -> conv2/3x3/bn
I0304 23:08:29.663419  4327 net.cpp:120] Setting up conv2/3x3/bn
I0304 23:08:29.663411  4325 bn_data_layer.cpp:71] shift: 0 0 0
I0304 23:08:29.663419  4326 bn_data_layer.cpp:71] shift: 0 0 0
I0304 23:08:29.663426  4325 bn_data_layer.cpp:80] mean: 0 0 0
I0304 23:08:29.663431  4326 bn_data_layer.cpp:80] mean: 0 0 0
I0304 23:08:29.663441  4328 net.cpp:127] Top shape: 72 192 56 56 (43352064)
I0304 23:08:29.663465  4328 layer_factory.hpp:74] Creating layer conv2/3x3/bn
I0304 23:08:29.663444  4326 bn_data_layer.cpp:89] variance: 0 0 0
I0304 23:08:29.663462  4326 net.cpp:127] Top shape: 72 192 56 56 (43352064)
I0304 23:08:29.663472  4326 layer_factory.hpp:74] Creating layer conv2/relu_3x3
I0304 23:08:29.663442  4327 bn_data_layer.cpp:60] scale: 1 1 1
I0304 23:08:29.663467  4327 bn_data_layer.cpp:71] shift: 0 0 0
I0304 23:08:29.663478  4327 bn_data_layer.cpp:80] mean: 0 0 0
I0304 23:08:29.663441  4325 bn_data_layer.cpp:89] variance: 0 0 0
I0304 23:08:29.663463  4325 net.cpp:127] Top shape: 72 192 56 56 (43352064)
I0304 23:08:29.663476  4325 layer_factory.hpp:74] Creating layer conv2/relu_3x3
I0304 23:08:29.663486  4325 net.cpp:90] Creating Layer conv2/relu_3x3
I0304 23:08:29.663482  4326 net.cpp:90] Creating Layer conv2/relu_3x3
I0304 23:08:29.663488  4326 net.cpp:410] conv2/relu_3x3 <- conv2/3x3/bn
I0304 23:08:29.663496  4326 net.cpp:357] conv2/relu_3x3 -> conv2/3x3/bn (in-place)
I0304 23:08:29.663488  4327 bn_data_layer.cpp:89] variance: 0 0 0
I0304 23:08:29.663497  4327 net.cpp:127] Top shape: 72 192 56 56 (43352064)
I0304 23:08:29.663483  4328 net.cpp:90] Creating Layer conv2/3x3/bn
I0304 23:08:29.663491  4328 net.cpp:410] conv2/3x3/bn <- conv2/3x3
I0304 23:08:29.663492  4325 net.cpp:410] conv2/relu_3x3 <- conv2/3x3/bn
I0304 23:08:29.663504  4325 net.cpp:357] conv2/relu_3x3 -> conv2/3x3/bn (in-place)
I0304 23:08:29.663513  4325 net.cpp:120] Setting up conv2/relu_3x3
I0304 23:08:29.663502  4326 net.cpp:120] Setting up conv2/relu_3x3
I0304 23:08:29.663506  4327 layer_factory.hpp:74] Creating layer conv2/relu_3x3
I0304 23:08:29.663516  4327 net.cpp:90] Creating Layer conv2/relu_3x3
I0304 23:08:29.663522  4327 net.cpp:410] conv2/relu_3x3 <- conv2/3x3/bn
I0304 23:08:29.663527  4327 net.cpp:357] conv2/relu_3x3 -> conv2/3x3/bn (in-place)
I0304 23:08:29.663534  4327 net.cpp:120] Setting up conv2/relu_3x3
I0304 23:08:29.663504  4328 net.cpp:368] conv2/3x3/bn -> conv2/3x3/bn
I0304 23:08:29.663519  4328 net.cpp:120] Setting up conv2/3x3/bn
I0304 23:08:29.663548  4328 bn_data_layer.cpp:60] scale: 1 1 1
I0304 23:08:29.663565  4328 bn_data_layer.cpp:71] shift: 0 0 0
I0304 23:08:29.663579  4328 bn_data_layer.cpp:80] mean: 0 0 0
I0304 23:08:29.663597  4328 bn_data_layer.cpp:89] variance: 0 0 0
I0304 23:08:29.663611  4328 net.cpp:127] Top shape: 72 192 56 56 (43352064)
I0304 23:08:29.663626  4328 layer_factory.hpp:74] Creating layer conv2/relu_3x3
I0304 23:08:29.663640  4328 net.cpp:90] Creating Layer conv2/relu_3x3
I0304 23:08:29.663648  4328 net.cpp:410] conv2/relu_3x3 <- conv2/3x3/bn
I0304 23:08:29.663661  4328 net.cpp:357] conv2/relu_3x3 -> conv2/3x3/bn (in-place)
I0304 23:08:29.663671  4328 net.cpp:120] Setting up conv2/relu_3x3
I0304 23:08:29.663895  4326 net.cpp:127] Top shape: 72 192 56 56 (43352064)
I0304 23:08:29.663910  4326 layer_factory.hpp:74] Creating layer pool2/3x3_s2
I0304 23:08:29.663920  4326 net.cpp:90] Creating Layer pool2/3x3_s2
I0304 23:08:29.663926  4326 net.cpp:410] pool2/3x3_s2 <- conv2/3x3/bn
I0304 23:08:29.663934  4326 net.cpp:368] pool2/3x3_s2 -> pool2/3x3_s2
I0304 23:08:29.663943  4326 net.cpp:120] Setting up pool2/3x3_s2
I0304 23:08:29.663995  4327 net.cpp:127] Top shape: 72 192 56 56 (43352064)
I0304 23:08:29.664008  4327 layer_factory.hpp:74] Creating layer pool2/3x3_s2
I0304 23:08:29.664021  4327 net.cpp:90] Creating Layer pool2/3x3_s2
I0304 23:08:29.664026  4327 net.cpp:410] pool2/3x3_s2 <- conv2/3x3/bn
I0304 23:08:29.664032  4327 net.cpp:368] pool2/3x3_s2 -> pool2/3x3_s2
I0304 23:08:29.664039  4327 net.cpp:120] Setting up pool2/3x3_s2
I0304 23:08:29.664008  4325 net.cpp:127] Top shape: 72 192 56 56 (43352064)
I0304 23:08:29.664023  4325 layer_factory.hpp:74] Creating layer pool2/3x3_s2
I0304 23:08:29.664037  4325 net.cpp:90] Creating Layer pool2/3x3_s2
I0304 23:08:29.664046  4325 net.cpp:410] pool2/3x3_s2 <- conv2/3x3/bn
I0304 23:08:29.664058  4325 net.cpp:368] pool2/3x3_s2 -> pool2/3x3_s2
I0304 23:08:29.664069  4325 net.cpp:120] Setting up pool2/3x3_s2
I0304 23:08:29.664113  4326 net.cpp:127] Top shape: 72 192 28 28 (10838016)
I0304 23:08:29.664122  4326 layer_factory.hpp:74] Creating layer pool2/3x3_s2_pool2/3x3_s2_0_split
I0304 23:08:29.664131  4326 net.cpp:90] Creating Layer pool2/3x3_s2_pool2/3x3_s2_0_split
I0304 23:08:29.664136  4326 net.cpp:410] pool2/3x3_s2_pool2/3x3_s2_0_split <- pool2/3x3_s2
I0304 23:08:29.664144  4326 net.cpp:368] pool2/3x3_s2_pool2/3x3_s2_0_split -> pool2/3x3_s2_pool2/3x3_s2_0_split_0
I0304 23:08:29.664151  4326 net.cpp:368] pool2/3x3_s2_pool2/3x3_s2_0_split -> pool2/3x3_s2_pool2/3x3_s2_0_split_1
I0304 23:08:29.664160  4326 net.cpp:368] pool2/3x3_s2_pool2/3x3_s2_0_split -> pool2/3x3_s2_pool2/3x3_s2_0_split_2
I0304 23:08:29.664166  4326 net.cpp:368] pool2/3x3_s2_pool2/3x3_s2_0_split -> pool2/3x3_s2_pool2/3x3_s2_0_split_3
I0304 23:08:29.664175  4326 net.cpp:120] Setting up pool2/3x3_s2_pool2/3x3_s2_0_split
I0304 23:08:29.664186  4326 net.cpp:127] Top shape: 72 192 28 28 (10838016)
I0304 23:08:29.664191  4326 net.cpp:127] Top shape: 72 192 28 28 (10838016)
I0304 23:08:29.664196  4326 net.cpp:127] Top shape: 72 192 28 28 (10838016)
I0304 23:08:29.664202  4326 net.cpp:127] Top shape: 72 192 28 28 (10838016)
I0304 23:08:29.664207  4326 layer_factory.hpp:74] Creating layer inception_3a/1x1
I0304 23:08:29.664216  4326 net.cpp:90] Creating Layer inception_3a/1x1
I0304 23:08:29.664221  4326 net.cpp:410] inception_3a/1x1 <- pool2/3x3_s2_pool2/3x3_s2_0_split_0
I0304 23:08:29.664196  4327 net.cpp:127] Top shape: 72 192 28 28 (10838016)
I0304 23:08:29.664204  4327 layer_factory.hpp:74] Creating layer pool2/3x3_s2_pool2/3x3_s2_0_split
I0304 23:08:29.664213  4327 net.cpp:90] Creating Layer pool2/3x3_s2_pool2/3x3_s2_0_split
I0304 23:08:29.664218  4327 net.cpp:410] pool2/3x3_s2_pool2/3x3_s2_0_split <- pool2/3x3_s2
I0304 23:08:29.664227  4327 net.cpp:368] pool2/3x3_s2_pool2/3x3_s2_0_split -> pool2/3x3_s2_pool2/3x3_s2_0_split_0
I0304 23:08:29.664229  4326 net.cpp:368] inception_3a/1x1 -> inception_3a/1x1
I0304 23:08:29.664237  4326 net.cpp:120] Setting up inception_3a/1x1
I0304 23:08:29.664235  4327 net.cpp:368] pool2/3x3_s2_pool2/3x3_s2_0_split -> pool2/3x3_s2_pool2/3x3_s2_0_split_1
I0304 23:08:29.664243  4327 net.cpp:368] pool2/3x3_s2_pool2/3x3_s2_0_split -> pool2/3x3_s2_pool2/3x3_s2_0_split_2
I0304 23:08:29.664250  4327 net.cpp:368] pool2/3x3_s2_pool2/3x3_s2_0_split -> pool2/3x3_s2_pool2/3x3_s2_0_split_3
I0304 23:08:29.664258  4327 net.cpp:120] Setting up pool2/3x3_s2_pool2/3x3_s2_0_split
I0304 23:08:29.664268  4327 net.cpp:127] Top shape: 72 192 28 28 (10838016)
I0304 23:08:29.664273  4327 net.cpp:127] Top shape: 72 192 28 28 (10838016)
I0304 23:08:29.664278  4327 net.cpp:127] Top shape: 72 192 28 28 (10838016)
I0304 23:08:29.664283  4327 net.cpp:127] Top shape: 72 192 28 28 (10838016)
I0304 23:08:29.664288  4327 layer_factory.hpp:74] Creating layer inception_3a/1x1
I0304 23:08:29.664297  4327 net.cpp:90] Creating Layer inception_3a/1x1
I0304 23:08:29.664301  4327 net.cpp:410] inception_3a/1x1 <- pool2/3x3_s2_pool2/3x3_s2_0_split_0
I0304 23:08:29.664264  4328 net.cpp:127] Top shape: 72 192 56 56 (43352064)
I0304 23:08:29.664281  4328 layer_factory.hpp:74] Creating layer pool2/3x3_s2
I0304 23:08:29.664294  4328 net.cpp:90] Creating Layer pool2/3x3_s2
I0304 23:08:29.664302  4328 net.cpp:410] pool2/3x3_s2 <- conv2/3x3/bn
I0304 23:08:29.664290  4325 net.cpp:127] Top shape: 72 192 28 28 (10838016)
I0304 23:08:29.664300  4325 layer_factory.hpp:74] Creating layer pool2/3x3_s2_pool2/3x3_s2_0_split
I0304 23:08:29.664311  4325 net.cpp:90] Creating Layer pool2/3x3_s2_pool2/3x3_s2_0_split
I0304 23:08:29.664319  4325 net.cpp:410] pool2/3x3_s2_pool2/3x3_s2_0_split <- pool2/3x3_s2
I0304 23:08:29.664310  4327 net.cpp:368] inception_3a/1x1 -> inception_3a/1x1
I0304 23:08:29.664317  4327 net.cpp:120] Setting up inception_3a/1x1
I0304 23:08:29.664314  4328 net.cpp:368] pool2/3x3_s2 -> pool2/3x3_s2
I0304 23:08:29.664325  4328 net.cpp:120] Setting up pool2/3x3_s2
I0304 23:08:29.664330  4325 net.cpp:368] pool2/3x3_s2_pool2/3x3_s2_0_split -> pool2/3x3_s2_pool2/3x3_s2_0_split_0
I0304 23:08:29.664340  4325 net.cpp:368] pool2/3x3_s2_pool2/3x3_s2_0_split -> pool2/3x3_s2_pool2/3x3_s2_0_split_1
I0304 23:08:29.664350  4325 net.cpp:368] pool2/3x3_s2_pool2/3x3_s2_0_split -> pool2/3x3_s2_pool2/3x3_s2_0_split_2
I0304 23:08:29.664361  4325 net.cpp:368] pool2/3x3_s2_pool2/3x3_s2_0_split -> pool2/3x3_s2_pool2/3x3_s2_0_split_3
I0304 23:08:29.664371  4325 net.cpp:120] Setting up pool2/3x3_s2_pool2/3x3_s2_0_split
I0304 23:08:29.664383  4325 net.cpp:127] Top shape: 72 192 28 28 (10838016)
I0304 23:08:29.664391  4325 net.cpp:127] Top shape: 72 192 28 28 (10838016)
I0304 23:08:29.664398  4325 net.cpp:127] Top shape: 72 192 28 28 (10838016)
I0304 23:08:29.664407  4325 net.cpp:127] Top shape: 72 192 28 28 (10838016)
I0304 23:08:29.664413  4325 layer_factory.hpp:74] Creating layer inception_3a/1x1
I0304 23:08:29.664423  4325 net.cpp:90] Creating Layer inception_3a/1x1
I0304 23:08:29.664430  4325 net.cpp:410] inception_3a/1x1 <- pool2/3x3_s2_pool2/3x3_s2_0_split_0
I0304 23:08:29.664446  4325 net.cpp:368] inception_3a/1x1 -> inception_3a/1x1
I0304 23:08:29.664456  4325 net.cpp:120] Setting up inception_3a/1x1
I0304 23:08:29.664582  4328 net.cpp:127] Top shape: 72 192 28 28 (10838016)
I0304 23:08:29.664597  4328 layer_factory.hpp:74] Creating layer pool2/3x3_s2_pool2/3x3_s2_0_split
I0304 23:08:29.664609  4328 net.cpp:90] Creating Layer pool2/3x3_s2_pool2/3x3_s2_0_split
I0304 23:08:29.664654  4328 net.cpp:410] pool2/3x3_s2_pool2/3x3_s2_0_split <- pool2/3x3_s2
I0304 23:08:29.664666  4328 net.cpp:368] pool2/3x3_s2_pool2/3x3_s2_0_split -> pool2/3x3_s2_pool2/3x3_s2_0_split_0
I0304 23:08:29.664680  4328 net.cpp:368] pool2/3x3_s2_pool2/3x3_s2_0_split -> pool2/3x3_s2_pool2/3x3_s2_0_split_1
I0304 23:08:29.664691  4328 net.cpp:368] pool2/3x3_s2_pool2/3x3_s2_0_split -> pool2/3x3_s2_pool2/3x3_s2_0_split_2
I0304 23:08:29.664703  4328 net.cpp:368] pool2/3x3_s2_pool2/3x3_s2_0_split -> pool2/3x3_s2_pool2/3x3_s2_0_split_3
I0304 23:08:29.664716  4328 net.cpp:120] Setting up pool2/3x3_s2_pool2/3x3_s2_0_split
I0304 23:08:29.664729  4328 net.cpp:127] Top shape: 72 192 28 28 (10838016)
I0304 23:08:29.664739  4328 net.cpp:127] Top shape: 72 192 28 28 (10838016)
I0304 23:08:29.664748  4328 net.cpp:127] Top shape: 72 192 28 28 (10838016)
I0304 23:08:29.664760  4328 net.cpp:127] Top shape: 72 192 28 28 (10838016)
I0304 23:08:29.664772  4328 layer_factory.hpp:74] Creating layer inception_3a/1x1
I0304 23:08:29.664784  4328 net.cpp:90] Creating Layer inception_3a/1x1
I0304 23:08:29.664793  4328 net.cpp:410] inception_3a/1x1 <- pool2/3x3_s2_pool2/3x3_s2_0_split_0
I0304 23:08:29.664806  4328 net.cpp:368] inception_3a/1x1 -> inception_3a/1x1
I0304 23:08:29.664819  4328 net.cpp:120] Setting up inception_3a/1x1
I0304 23:08:29.665577  4327 cudnn_conv_data_layer.cpp:184] Reallocating workspace storage: 20664
I0304 23:08:29.665604  4327 net.cpp:127] Top shape: 72 64 28 28 (3612672)
I0304 23:08:29.665616  4327 layer_factory.hpp:74] Creating layer inception_3a/1x1/bn
I0304 23:08:29.665629  4327 net.cpp:90] Creating Layer inception_3a/1x1/bn
I0304 23:08:29.665634  4327 net.cpp:410] inception_3a/1x1/bn <- inception_3a/1x1
I0304 23:08:29.665643  4327 net.cpp:368] inception_3a/1x1/bn -> inception_3a/1x1/bn
I0304 23:08:29.665652  4327 net.cpp:120] Setting up inception_3a/1x1/bn
I0304 23:08:29.665696  4326 cudnn_conv_data_layer.cpp:184] Reallocating workspace storage: 20664
I0304 23:08:29.665726  4326 net.cpp:127] Top shape: 72 64 28 28 (3612672)
I0304 23:08:29.665736  4326 layer_factory.hpp:74] Creating layer inception_3a/1x1/bn
I0304 23:08:29.665750  4326 net.cpp:90] Creating Layer inception_3a/1x1/bn
I0304 23:08:29.665756  4326 net.cpp:410] inception_3a/1x1/bn <- inception_3a/1x1
I0304 23:08:29.665765  4326 net.cpp:368] inception_3a/1x1/bn -> inception_3a/1x1/bn
I0304 23:08:29.665776  4326 net.cpp:120] Setting up inception_3a/1x1/bn
I0304 23:08:29.666064  4325 cudnn_conv_data_layer.cpp:184] Reallocating workspace storage: 20664
I0304 23:08:29.666100  4325 net.cpp:127] Top shape: 72 64 28 28 (3612672)
I0304 23:08:29.666115  4325 layer_factory.hpp:74] Creating layer inception_3a/1x1/bn
I0304 23:08:29.666133  4325 net.cpp:90] Creating Layer inception_3a/1x1/bn
I0304 23:08:29.666141  4325 net.cpp:410] inception_3a/1x1/bn <- inception_3a/1x1
I0304 23:08:29.666152  4325 net.cpp:368] inception_3a/1x1/bn -> inception_3a/1x1/bn
I0304 23:08:29.666167  4325 net.cpp:120] Setting up inception_3a/1x1/bn
I0304 23:08:29.666195  4327 bn_data_layer.cpp:60] scale: 1 1 1
I0304 23:08:29.666232  4327 bn_data_layer.cpp:71] shift: 0 0 0
I0304 23:08:29.666198  4326 bn_data_layer.cpp:60] scale: 1 1 1
I0304 23:08:29.666231  4326 bn_data_layer.cpp:71] shift: 0 0 0
I0304 23:08:29.666196  4325 bn_data_layer.cpp:60] scale: 1 1 1
I0304 23:08:29.666231  4325 bn_data_layer.cpp:71] shift: 0 0 0
I0304 23:08:29.666246  4325 bn_data_layer.cpp:80] mean: 0 0 0
I0304 23:08:29.666260  4325 bn_data_layer.cpp:89] variance: 0 0 0
I0304 23:08:29.666272  4325 net.cpp:127] Top shape: 72 64 28 28 (3612672)
I0304 23:08:29.666246  4326 bn_data_layer.cpp:80] mean: 0 0 0
I0304 23:08:29.666260  4326 bn_data_layer.cpp:89] variance: 0 0 0
I0304 23:08:29.666268  4326 net.cpp:127] Top shape: 72 64 28 28 (3612672)
I0304 23:08:29.666247  4327 bn_data_layer.cpp:80] mean: 0 0 0
I0304 23:08:29.666260  4327 bn_data_layer.cpp:89] variance: 0 0 0
I0304 23:08:29.666270  4327 net.cpp:127] Top shape: 72 64 28 28 (3612672)
I0304 23:08:29.666282  4326 layer_factory.hpp:74] Creating layer inception_3a/relu_1x1
I0304 23:08:29.666292  4326 net.cpp:90] Creating Layer inception_3a/relu_1x1
I0304 23:08:29.666297  4326 net.cpp:410] inception_3a/relu_1x1 <- inception_3a/1x1/bn
I0304 23:08:29.666282  4327 layer_factory.hpp:74] Creating layer inception_3a/relu_1x1
I0304 23:08:29.666290  4327 net.cpp:90] Creating Layer inception_3a/relu_1x1
I0304 23:08:29.666295  4327 net.cpp:410] inception_3a/relu_1x1 <- inception_3a/1x1/bn
I0304 23:08:29.666301  4327 net.cpp:357] inception_3a/relu_1x1 -> inception_3a/1x1/bn (in-place)
I0304 23:08:29.666308  4327 net.cpp:120] Setting up inception_3a/relu_1x1
I0304 23:08:29.666291  4325 layer_factory.hpp:74] Creating layer inception_3a/relu_1x1
I0304 23:08:29.666302  4325 net.cpp:90] Creating Layer inception_3a/relu_1x1
I0304 23:08:29.666311  4325 net.cpp:410] inception_3a/relu_1x1 <- inception_3a/1x1/bn
I0304 23:08:29.666322  4325 net.cpp:357] inception_3a/relu_1x1 -> inception_3a/1x1/bn (in-place)
I0304 23:08:29.666313  4326 net.cpp:357] inception_3a/relu_1x1 -> inception_3a/1x1/bn (in-place)
I0304 23:08:29.666321  4326 net.cpp:120] Setting up inception_3a/relu_1x1
I0304 23:08:29.666332  4325 net.cpp:120] Setting up inception_3a/relu_1x1
I0304 23:08:29.666363  4328 cudnn_conv_data_layer.cpp:184] Reallocating workspace storage: 20664
I0304 23:08:29.666409  4328 net.cpp:127] Top shape: 72 64 28 28 (3612672)
I0304 23:08:29.666424  4328 layer_factory.hpp:74] Creating layer inception_3a/1x1/bn
I0304 23:08:29.666445  4328 net.cpp:90] Creating Layer inception_3a/1x1/bn
I0304 23:08:29.666455  4328 net.cpp:410] inception_3a/1x1/bn <- inception_3a/1x1
I0304 23:08:29.666472  4328 net.cpp:368] inception_3a/1x1/bn -> inception_3a/1x1/bn
I0304 23:08:29.666489  4328 net.cpp:120] Setting up inception_3a/1x1/bn
I0304 23:08:29.666527  4328 bn_data_layer.cpp:60] scale: 1 1 1
I0304 23:08:29.666571  4328 bn_data_layer.cpp:71] shift: 0 0 0
I0304 23:08:29.666597  4328 bn_data_layer.cpp:80] mean: 0 0 0
I0304 23:08:29.666615  4328 bn_data_layer.cpp:89] variance: 0 0 0
I0304 23:08:29.666635  4328 net.cpp:127] Top shape: 72 64 28 28 (3612672)
I0304 23:08:29.666659  4328 layer_factory.hpp:74] Creating layer inception_3a/relu_1x1
I0304 23:08:29.666692  4327 net.cpp:127] Top shape: 72 64 28 28 (3612672)
I0304 23:08:29.666704  4327 layer_factory.hpp:74] Creating layer inception_3a/3x3_reduce
I0304 23:08:29.666717  4327 net.cpp:90] Creating Layer inception_3a/3x3_reduce
I0304 23:08:29.666704  4328 net.cpp:90] Creating Layer inception_3a/relu_1x1
I0304 23:08:29.666721  4328 net.cpp:410] inception_3a/relu_1x1 <- inception_3a/1x1/bn
I0304 23:08:29.666721  4327 net.cpp:410] inception_3a/3x3_reduce <- pool2/3x3_s2_pool2/3x3_s2_0_split_1
I0304 23:08:29.666729  4327 net.cpp:368] inception_3a/3x3_reduce -> inception_3a/3x3_reduce
I0304 23:08:29.666738  4327 net.cpp:120] Setting up inception_3a/3x3_reduce
I0304 23:08:29.666736  4328 net.cpp:357] inception_3a/relu_1x1 -> inception_3a/1x1/bn (in-place)
I0304 23:08:29.666752  4328 net.cpp:120] Setting up inception_3a/relu_1x1
I0304 23:08:29.666749  4326 net.cpp:127] Top shape: 72 64 28 28 (3612672)
I0304 23:08:29.666761  4326 layer_factory.hpp:74] Creating layer inception_3a/3x3_reduce
I0304 23:08:29.666774  4326 net.cpp:90] Creating Layer inception_3a/3x3_reduce
I0304 23:08:29.666779  4326 net.cpp:410] inception_3a/3x3_reduce <- pool2/3x3_s2_pool2/3x3_s2_0_split_1
I0304 23:08:29.666786  4326 net.cpp:368] inception_3a/3x3_reduce -> inception_3a/3x3_reduce
I0304 23:08:29.666795  4326 net.cpp:120] Setting up inception_3a/3x3_reduce
I0304 23:08:29.666828  4325 net.cpp:127] Top shape: 72 64 28 28 (3612672)
I0304 23:08:29.666844  4325 layer_factory.hpp:74] Creating layer inception_3a/3x3_reduce
I0304 23:08:29.666860  4325 net.cpp:90] Creating Layer inception_3a/3x3_reduce
I0304 23:08:29.666868  4325 net.cpp:410] inception_3a/3x3_reduce <- pool2/3x3_s2_pool2/3x3_s2_0_split_1
I0304 23:08:29.666878  4325 net.cpp:368] inception_3a/3x3_reduce -> inception_3a/3x3_reduce
I0304 23:08:29.666892  4325 net.cpp:120] Setting up inception_3a/3x3_reduce
I0304 23:08:29.667251  4328 net.cpp:127] Top shape: 72 64 28 28 (3612672)
I0304 23:08:29.667273  4328 layer_factory.hpp:74] Creating layer inception_3a/3x3_reduce
I0304 23:08:29.667299  4328 net.cpp:90] Creating Layer inception_3a/3x3_reduce
I0304 23:08:29.667309  4328 net.cpp:410] inception_3a/3x3_reduce <- pool2/3x3_s2_pool2/3x3_s2_0_split_1
I0304 23:08:29.667328  4328 net.cpp:368] inception_3a/3x3_reduce -> inception_3a/3x3_reduce
I0304 23:08:29.667346  4328 net.cpp:120] Setting up inception_3a/3x3_reduce
I0304 23:08:29.667934  4327 cudnn_conv_data_layer.cpp:184] Reallocating workspace storage: 20664
I0304 23:08:29.667961  4327 net.cpp:127] Top shape: 72 64 28 28 (3612672)
I0304 23:08:29.667971  4327 layer_factory.hpp:74] Creating layer inception_3a/3x3_reduce/bn
I0304 23:08:29.667984  4327 net.cpp:90] Creating Layer inception_3a/3x3_reduce/bn
I0304 23:08:29.667990  4327 net.cpp:410] inception_3a/3x3_reduce/bn <- inception_3a/3x3_reduce
I0304 23:08:29.667999  4327 net.cpp:368] inception_3a/3x3_reduce/bn -> inception_3a/3x3_reduce/bn
I0304 23:08:29.668007  4327 net.cpp:120] Setting up inception_3a/3x3_reduce/bn
I0304 23:08:29.668153  4326 cudnn_conv_data_layer.cpp:184] Reallocating workspace storage: 20664
I0304 23:08:29.668182  4326 net.cpp:127] Top shape: 72 64 28 28 (3612672)
I0304 23:08:29.668191  4326 layer_factory.hpp:74] Creating layer inception_3a/3x3_reduce/bn
I0304 23:08:29.668205  4326 net.cpp:90] Creating Layer inception_3a/3x3_reduce/bn
I0304 23:08:29.668211  4326 net.cpp:410] inception_3a/3x3_reduce/bn <- inception_3a/3x3_reduce
I0304 23:08:29.668220  4326 net.cpp:368] inception_3a/3x3_reduce/bn -> inception_3a/3x3_reduce/bn
I0304 23:08:29.668231  4326 net.cpp:120] Setting up inception_3a/3x3_reduce/bn
I0304 23:08:29.668501  4325 cudnn_conv_data_layer.cpp:184] Reallocating workspace storage: 20664
I0304 23:08:29.668540  4325 net.cpp:127] Top shape: 72 64 28 28 (3612672)
I0304 23:08:29.668570  4325 layer_factory.hpp:74] Creating layer inception_3a/3x3_reduce/bn
I0304 23:08:29.668588  4325 net.cpp:90] Creating Layer inception_3a/3x3_reduce/bn
I0304 23:08:29.668598  4325 net.cpp:410] inception_3a/3x3_reduce/bn <- inception_3a/3x3_reduce
I0304 23:08:29.668611  4325 net.cpp:368] inception_3a/3x3_reduce/bn -> inception_3a/3x3_reduce/bn
I0304 23:08:29.668658  4325 net.cpp:120] Setting up inception_3a/3x3_reduce/bn
I0304 23:08:29.668700  4325 bn_data_layer.cpp:60] scale: 1 1 1
I0304 23:08:29.668700  4327 bn_data_layer.cpp:60] scale: 1 1 1
I0304 23:08:29.668701  4326 bn_data_layer.cpp:60] scale: 1 1 1
I0304 23:08:29.668728  4327 bn_data_layer.cpp:71] shift: 0 0 0
I0304 23:08:29.668726  4326 bn_data_layer.cpp:71] shift: 0 0 0
I0304 23:08:29.668726  4325 bn_data_layer.cpp:71] shift: 0 0 0
I0304 23:08:29.668741  4326 bn_data_layer.cpp:80] mean: 0 0 0
I0304 23:08:29.668742  4327 bn_data_layer.cpp:80] mean: 0 0 0
I0304 23:08:29.668741  4325 bn_data_layer.cpp:80] mean: 0 0 0
I0304 23:08:29.668756  4325 bn_data_layer.cpp:89] variance: 0 0 0
I0304 23:08:29.668754  4326 bn_data_layer.cpp:89] variance: 0 0 0
I0304 23:08:29.668757  4327 bn_data_layer.cpp:89] variance: 0 0 0
I0304 23:08:29.668774  4327 net.cpp:127] Top shape: 72 64 28 28 (3612672)
I0304 23:08:29.668776  4326 net.cpp:127] Top shape: 72 64 28 28 (3612672)
I0304 23:08:29.668772  4325 net.cpp:127] Top shape: 72 64 28 28 (3612672)
I0304 23:08:29.668787  4327 layer_factory.hpp:74] Creating layer inception_3a/relu_3x3_reduce
I0304 23:08:29.668792  4326 layer_factory.hpp:74] Creating layer inception_3a/relu_3x3_reduce
I0304 23:08:29.668792  4325 layer_factory.hpp:74] Creating layer inception_3a/relu_3x3_reduce
I0304 23:08:29.668795  4327 net.cpp:90] Creating Layer inception_3a/relu_3x3_reduce
I0304 23:08:29.668802  4327 net.cpp:410] inception_3a/relu_3x3_reduce <- inception_3a/3x3_reduce/bn
…
I0304 23:08:29.668813  4325 net.cpp:410] inception_3a/relu_3x3_reduce <- inception_3a/3x3_reduce/bn
I0304 23:08:29.668817  4326 net.cpp:357] inception_3a/relu_3x3_reduce -> inception_3a/3x3_reduce/bn (in-place)
I0304 23:08:29.668825  4326 net.cpp:120] Setting up inception_3a/relu_3x3_reduce
I0304 23:08:29.668826  4325 net.cpp:357] inception_3a/relu_3x3_reduce -> inception_3a/3x3_reduce/bn (in-place)
I0304 23:08:29.668838  4325 net.cpp:120] Setting up inception_3a/relu_3x3_reduce
I0304 23:08:29.668972  4328 cudnn_conv_data_layer.cpp:184] Reallocating workspace storage: 20664
I0304 23:08:29.668987  4327 net.cpp:127] Top shape: 72 64 28 28 (3612672)
I0304 23:08:29.668997  4327 layer_factory.hpp:74] Creating layer inception_3a/3x3
I0304 23:08:29.669006  4327 net.cpp:90] Creating Layer inception_3a/3x3
I0304 23:08:29.669011  4327 net.cpp:410] inception_3a/3x3 <- inception_3a/3x3_reduce/bn
I0304 23:08:29.669029  4327 net.cpp:368] inception_3a/3x3 -> inception_3a/3x3
I0304 23:08:29.669039  4327 net.cpp:120] Setting up inception_3a/3x3
I0304 23:08:29.669034  4326 net.cpp:127] Top shape: 72 64 28 28 (3612672)
I0304 23:08:29.669044  4326 layer_factory.hpp:74] Creating layer inception_3a/3x3
I0304 23:08:29.669056  4326 net.cpp:90] Creating Layer inception_3a/3x3
I0304 23:08:29.669016  4328 net.cpp:127] Top shape: 72 64 28 28 (3612672)
I0304 23:08:29.669030  4328 layer_factory.hpp:74] Creating layer inception_3a/3x3_reduce/bn
I0304 23:08:29.669049  4328 net.cpp:90] Creating Layer inception_3a/3x3_reduce/bn
I0304 23:08:29.669059  4328 net.cpp:410] inception_3a/3x3_reduce/bn <- inception_3a/3x3_reduce
I0304 23:08:29.669062  4326 net.cpp:410] inception_3a/3x3 <- inception_3a/3x3_reduce/bn
I0304 23:08:29.669073  4326 net.cpp:368] inception_3a/3x3 -> inception_3a/3x3
I0304 23:08:29.669082  4326 net.cpp:120] Setting up inception_3a/3x3
I0304 23:08:29.669073  4328 net.cpp:368] inception_3a/3x3_reduce/bn -> inception_3a/3x3_reduce/bn
I0304 23:08:29.669088  4328 net.cpp:120] Setting up inception_3a/3x3_reduce/bn
I0304 23:08:29.669088  4325 net.cpp:127] Top shape: 72 64 28 28 (3612672)
I0304 23:08:29.669100  4325 layer_factory.hpp:74] Creating layer inception_3a/3x3
I0304 23:08:29.669113  4325 net.cpp:90] Creating Layer inception_3a/3x3
I0304 23:08:29.669121  4325 net.cpp:410] inception_3a/3x3 <- inception_3a/3x3_reduce/bn
I0304 23:08:29.669132  4325 net.cpp:368] inception_3a/3x3 -> inception_3a/3x3
I0304 23:08:29.669119  4328 bn_data_layer.cpp:60] scale: 1 1 1
I0304 23:08:29.669137  4328 bn_data_layer.cpp:71] shift: 0 0 0
I0304 23:08:29.669143  4325 net.cpp:120] Setting up inception_3a/3x3
I0304 23:08:29.669152  4328 bn_data_layer.cpp:80] mean: 0 0 0
I0304 23:08:29.669165  4328 bn_data_layer.cpp:89] variance: 0 0 0
I0304 23:08:29.669178  4328 net.cpp:127] Top shape: 72 64 28 28 (3612672)
I0304 23:08:29.669194  4328 layer_factory.hpp:74] Creating layer inception_3a/relu_3x3_reduce
I0304 23:08:29.669205  4328 net.cpp:90] Creating Layer inception_3a/relu_3x3_reduce
I0304 23:08:29.669212  4328 net.cpp:410] inception_3a/relu_3x3_reduce <- inception_3a/3x3_reduce/bn
I0304 23:08:29.669226  4328 net.cpp:357] inception_3a/relu_3x3_reduce -> inception_3a/3x3_reduce/bn (in-place)
I0304 23:08:29.669237  4328 net.cpp:120] Setting up inception_3a/relu_3x3_reduce
I0304 23:08:29.669502  4328 net.cpp:127] Top shape: 72 64 28 28 (3612672)
I0304 23:08:29.669519  4328 layer_factory.hpp:74] Creating layer inception_3a/3x3
I0304 23:08:29.669533  4328 net.cpp:90] Creating Layer inception_3a/3x3
I0304 23:08:29.669540  4328 net.cpp:410] inception_3a/3x3 <- inception_3a/3x3_reduce/bn
I0304 23:08:29.669569  4328 net.cpp:368] inception_3a/3x3 -> inception_3a/3x3
I0304 23:08:29.669581  4328 net.cpp:120] Setting up inception_3a/3x3
I0304 23:08:29.670954  4327 cudnn_conv_data_layer.cpp:184] Reallocating workspace storage: 20664
I0304 23:08:29.670984  4327 net.cpp:127] Top shape: 72 64 28 28 (3612672)
I0304 23:08:29.671005  4327 layer_factory.hpp:74] Creating layer inception_3a/3x3/bn
I0304 23:08:29.671020  4327 net.cpp:90] Creating Layer inception_3a/3x3/bn
I0304 23:08:29.671025  4327 net.cpp:410] inception_3a/3x3/bn <- inception_3a/3x3
I0304 23:08:29.671035  4327 net.cpp:368] inception_3a/3x3/bn -> inception_3a/3x3/bn
I0304 23:08:29.671044  4327 net.cpp:120] Setting up inception_3a/3x3/bn
I0304 23:08:29.671142  4326 cudnn_conv_data_layer.cpp:184] Reallocating workspace storage: 20664
I0304 23:08:29.671181  4326 net.cpp:127] Top shape: 72 64 28 28 (3612672)
I0304 23:08:29.671192  4326 layer_factory.hpp:74] Creating layer inception_3a/3x3/bn
I0304 23:08:29.671208  4326 net.cpp:90] Creating Layer inception_3a/3x3/bn
I0304 23:08:29.671216  4326 net.cpp:410] inception_3a/3x3/bn <- inception_3a/3x3
I0304 23:08:29.671224  4326 net.cpp:368] inception_3a/3x3/bn -> inception_3a/3x3/bn
I0304 23:08:29.671234  4326 net.cpp:120] Setting up inception_3a/3x3/bn
I0304 23:08:29.671334  4325 cudnn_conv_data_layer.cpp:184] Reallocating workspace storage: 20664
I0304 23:08:29.671386  4325 net.cpp:127] Top shape: 72 64 28 28 (3612672)
I0304 23:08:29.671396  4325 layer_factory.hpp:74] Creating layer inception_3a/3x3/bn
I0304 23:08:29.671411  4325 net.cpp:90] Creating Layer inception_3a/3x3/bn
I0304 23:08:29.671418  4325 net.cpp:410] inception_3a/3x3/bn <- inception_3a/3x3
I0304 23:08:29.671428  4325 net.cpp:368] inception_3a/3x3/bn -> inception_3a/3x3/bn
I0304 23:08:29.671440  4325 net.cpp:120] Setting up inception_3a/3x3/bn
I0304 23:08:29.671468  4327 bn_data_layer.cpp:60] scale: 1 1 1
I0304 23:08:29.671488  4327 bn_data_layer.cpp:71] shift: 0 0 0
I0304 23:08:29.671499  4327 bn_data_layer.cpp:80] mean: 0 0 0
I0304 23:08:29.671473  4326 bn_data_layer.cpp:60] scale: 1 1 1
I0304 23:08:29.671489  4326 bn_data_layer.cpp:71] shift: 0 0 0
I0304 23:08:29.671499  4326 bn_data_layer.cpp:80] mean: 0 0 0
I0304 23:08:29.671469  4325 bn_data_layer.cpp:60] scale: 1 1 1
I0304 23:08:29.671486  4325 bn_data_layer.cpp:71] shift: 0 0 0
I0304 23:08:29.671499  4325 bn_data_layer.cpp:80] mean: 0 0 0
I0304 23:08:29.671514  4326 bn_data_layer.cpp:89] variance: 0 0 0
I0304 23:08:29.671524  4326 net.cpp:127] Top shape: 72 64 28 28 (3612672)
I0304 23:08:29.671535  4326 layer_factory.hpp:74] Creating layer inception_3a/relu_3x3
I0304 23:08:29.671512  4325 bn_data_layer.cpp:89] variance: 0 0 0
I0304 23:08:29.671524  4325 net.cpp:127] Top shape: 72 64 28 28 (3612672)
I0304 23:08:29.671536  4325 layer_factory.hpp:74] Creating layer inception_3a/relu_3x3
I0304 23:08:29.671510  4327 bn_data_layer.cpp:89] variance: 0 0 0
I0304 23:08:29.671519  4327 net.cpp:127] Top shape: 72 64 28 28 (3612672)
I0304 23:08:29.671530  4327 layer_factory.hpp:74] Creating layer inception_3a/relu_3x3
I0304 23:08:29.671538  4327 net.cpp:90] Creating Layer inception_3a/relu_3x3
I0304 23:08:29.671558  4327 net.cpp:410] inception_3a/relu_3x3 <- inception_3a/3x3/bn
I0304 23:08:29.671566  4327 net.cpp:357] inception_3a/relu_3x3 -> inception_3a/3x3/bn (in-place)
I0304 23:08:29.671540  4328 cudnn_conv_data_layer.cpp:184] Reallocating workspace storage: 20664
I0304 23:08:29.671574  4328 net.cpp:127] Top shape: 72 64 28 28 (3612672)
I0304 23:08:29.671587  4328 layer_factory.hpp:74] Creating layer inception_3a/3x3/bn
I0304 23:08:29.671572  4327 net.cpp:120] Setting up inception_3a/relu_3x3
I0304 23:08:29.671545  4325 net.cpp:90] Creating Layer inception_3a/relu_3x3
I0304 23:08:29.671567  4325 net.cpp:410] inception_3a/relu_3x3 <- inception_3a/3x3/bn
I0304 23:08:29.671577  4325 net.cpp:357] inception_3a/relu_3x3 -> inception_3a/3x3/bn (in-place)
I0304 23:08:29.671586  4325 net.cpp:120] Setting up inception_3a/relu_3x3
I0304 23:08:29.671542  4326 net.cpp:90] Creating Layer inception_3a/relu_3x3
I0304 23:08:29.671566  4326 net.cpp:410] inception_3a/relu_3x3 <- inception_3a/3x3/bn
I0304 23:08:29.671576  4326 net.cpp:357] inception_3a/relu_3x3 -> inception_3a/3x3/bn (in-place)
I0304 23:08:29.671583  4326 net.cpp:120] Setting up inception_3a/relu_3x3
I0304 23:08:29.671609  4328 net.cpp:90] Creating Layer inception_3a/3x3/bn
I0304 23:08:29.671618  4328 net.cpp:410] inception_3a/3x3/bn <- inception_3a/3x3
I0304 23:08:29.671634  4328 net.cpp:368] inception_3a/3x3/bn -> inception_3a/3x3/bn
I0304 23:08:29.671648  4328 net.cpp:120] Setting up inception_3a/3x3/bn
I0304 23:08:29.671681  4328 bn_data_layer.cpp:60] scale: 1 1 1
I0304 23:08:29.671700  4328 bn_data_layer.cpp:71] shift: 0 0 0
I0304 23:08:29.671712  4328 bn_data_layer.cpp:80] mean: 0 0 0
I0304 23:08:29.671728  4328 bn_data_layer.cpp:89] variance: 0 0 0
I0304 23:08:29.671741  4328 net.cpp:127] Top shape: 72 64 28 28 (3612672)
I0304 23:08:29.671757  4328 layer_factory.hpp:74] Creating layer inception_3a/relu_3x3
I0304 23:08:29.671768  4328 net.cpp:90] Creating Layer inception_3a/relu_3x3
I0304 23:08:29.671800  4328 net.cpp:410] inception_3a/relu_3x3 <- inception_3a/3x3/bn
I0304 23:08:29.671814  4328 net.cpp:357] inception_3a/relu_3x3 -> inception_3a/3x3/bn (in-place)
I0304 23:08:29.671829  4328 net.cpp:120] Setting up inception_3a/relu_3x3
I0304 23:08:29.671921  4327 net.cpp:127] Top shape: 72 64 28 28 (3612672)
I0304 23:08:29.671934  4327 layer_factory.hpp:74] Creating layer inception_3a/double3x3_reduce
I0304 23:08:29.671946  4327 net.cpp:90] Creating Layer inception_3a/double3x3_reduce
I0304 23:08:29.671952  4327 net.cpp:410] inception_3a/double3x3_reduce <- pool2/3x3_s2_pool2/3x3_s2_0_split_2
I0304 23:08:29.671959  4327 net.cpp:368] inception_3a/double3x3_reduce -> inception_3a/double3x3_reduce
I0304 23:08:29.671968  4327 net.cpp:120] Setting up inception_3a/double3x3_reduce
I0304 23:08:29.672029  4326 net.cpp:127] Top shape: 72 64 28 28 (3612672)
I0304 23:08:29.672045  4326 layer_factory.hpp:74] Creating layer inception_3a/double3x3_reduce
I0304 23:08:29.672057  4326 net.cpp:90] Creating Layer inception_3a/double3x3_reduce
I0304 23:08:29.672065  4326 net.cpp:410] inception_3a/double3x3_reduce <- pool2/3x3_s2_pool2/3x3_s2_0_split_2
I0304 23:08:29.672075  4326 net.cpp:368] inception_3a/double3x3_reduce -> inception_3a/double3x3_reduce
I0304 23:08:29.672086  4326 net.cpp:120] Setting up inception_3a/double3x3_reduce
I0304 23:08:29.672101  4325 net.cpp:127] Top shape: 72 64 28 28 (3612672)
I0304 23:08:29.672116  4325 layer_factory.hpp:74] Creating layer inception_3a/double3x3_reduce
I0304 23:08:29.672128  4325 net.cpp:90] Creating Layer inception_3a/double3x3_reduce
I0304 23:08:29.672137  4325 net.cpp:410] inception_3a/double3x3_reduce <- pool2/3x3_s2_pool2/3x3_s2_0_split_2
I0304 23:08:29.672150  4325 net.cpp:368] inception_3a/double3x3_reduce -> inception_3a/double3x3_reduce
I0304 23:08:29.672163  4325 net.cpp:120] Setting up inception_3a/double3x3_reduce
I0304 23:08:29.672237  4328 net.cpp:127] Top shape: 72 64 28 28 (3612672)
I0304 23:08:29.672255  4328 layer_factory.hpp:74] Creating layer inception_3a/double3x3_reduce
I0304 23:08:29.672272  4328 net.cpp:90] Creating Layer inception_3a/double3x3_reduce
I0304 23:08:29.672281  4328 net.cpp:410] inception_3a/double3x3_reduce <- pool2/3x3_s2_pool2/3x3_s2_0_split_2
I0304 23:08:29.672296  4328 net.cpp:368] inception_3a/double3x3_reduce -> inception_3a/double3x3_reduce
I0304 23:08:29.672309  4328 net.cpp:120] Setting up inception_3a/double3x3_reduce
I0304 23:08:29.673308  4327 cudnn_conv_data_layer.cpp:184] Reallocating workspace storage: 20664
I0304 23:08:29.673333  4327 net.cpp:127] Top shape: 72 64 28 28 (3612672)
I0304 23:08:29.673344  4327 layer_factory.hpp:74] Creating layer inception_3a/double3x3_reduce/bn
I0304 23:08:29.673355  4327 net.cpp:90] Creating Layer inception_3a/double3x3_reduce/bn
I0304 23:08:29.673362  4327 net.cpp:410] inception_3a/double3x3_reduce/bn <- inception_3a/double3x3_reduce
I0304 23:08:29.673370  4327 net.cpp:368] inception_3a/double3x3_reduce/bn -> inception_3a/double3x3_reduce/bn
I0304 23:08:29.673379  4327 net.cpp:120] Setting up inception_3a/double3x3_reduce/bn
I0304 23:08:29.673473  4326 cudnn_conv_data_layer.cpp:184] Reallocating workspace storage: 20664
I0304 23:08:29.673503  4326 net.cpp:127] Top shape: 72 64 28 28 (3612672)
I0304 23:08:29.673514  4326 layer_factory.hpp:74] Creating layer inception_3a/double3x3_reduce/bn
I0304 23:08:29.673527  4326 net.cpp:90] Creating Layer inception_3a/double3x3_reduce/bn
I0304 23:08:29.673535  4326 net.cpp:410] inception_3a/double3x3_reduce/bn <- inception_3a/double3x3_reduce
I0304 23:08:29.673548  4326 net.cpp:368] inception_3a/double3x3_reduce/bn -> inception_3a/double3x3_reduce/bn
I0304 23:08:29.673558  4326 net.cpp:120] Setting up inception_3a/double3x3_reduce/bn
I0304 23:08:29.673638  4325 cudnn_conv_data_layer.cpp:184] Reallocating workspace storage: 20664
I0304 23:08:29.673671  4325 net.cpp:127] Top shape: 72 64 28 28 (3612672)
I0304 23:08:29.673694  4325 layer_factory.hpp:74] Creating layer inception_3a/double3x3_reduce/bn
I0304 23:08:29.673712  4325 net.cpp:90] Creating Layer inception_3a/double3x3_reduce/bn
I0304 23:08:29.673724  4325 net.cpp:410] inception_3a/double3x3_reduce/bn <- inception_3a/double3x3_reduce
I0304 23:08:29.673738  4325 net.cpp:368] inception_3a/double3x3_reduce/bn -> inception_3a/double3x3_reduce/bn
I0304 23:08:29.673750  4325 net.cpp:120] Setting up inception_3a/double3x3_reduce/bn
I0304 23:08:29.673779  4325 bn_data_layer.cpp:60] scale: 1 1 1
I0304 23:08:29.673799  4325 bn_data_layer.cpp:71] shift: 0 0 0
I0304 23:08:29.673779  4326 bn_data_layer.cpp:60] scale: 1 1 1
I0304 23:08:29.673800  4326 bn_data_layer.cpp:71] shift: 0 0 0
I0304 23:08:29.673780  4327 bn_data_layer.cpp:60] scale: 1 1 1
I0304 23:08:29.673801  4327 bn_data_layer.cpp:71] shift: 0 0 0
I0304 23:08:29.673812  4325 bn_data_layer.cpp:80] mean: 0 0 0
I0304 23:08:29.673813  4326 bn_data_layer.cpp:80] mean: 0 0 0
I0304 23:08:29.673815  4327 bn_data_layer.cpp:80] mean: 0 0 0
I0304 23:08:29.673826  4327 bn_data_layer.cpp:89] variance: 0 0 0
I0304 23:08:29.673835  4327 net.cpp:127] Top shape: 72 64 28 28 (3612672)
I0304 23:08:29.673789  4328 cudnn_conv_data_layer.cpp:184] Reallocating workspace storage: 20664
I0304 23:08:29.673823  4328 net.cpp:127] Top shape: 72 64 28 28 (3612672)
I0304 23:08:29.673835  4328 layer_factory.hpp:74] Creating layer inception_3a/double3x3_reduce/bn
I0304 23:08:29.673827  4326 bn_data_layer.cpp:89] variance: 0 0 0
I0304 23:08:29.673836  4326 net.cpp:127] Top shape: 72 64 28 28 (3612672)
I0304 23:08:29.673827  4325 bn_data_layer.cpp:89] variance: 0 0 0
I0304 23:08:29.673840  4325 net.cpp:127] Top shape: 72 64 28 28 (3612672)
I0304 23:08:29.673847  4327 layer_factory.hpp:74] Creating layer inception_3a/relu_double3x3_reduce
I0304 23:08:29.673857  4327 net.cpp:90] Creating Layer inception_3a/relu_double3x3_reduce
I0304 23:08:29.673862  4327 net.cpp:410] inception_3a/relu_double3x3_reduce <- inception_3a/double3x3_reduce/bn
I0304 23:08:29.673848  4328 net.cpp:90] Creating Layer inception_3a/double3x3_reduce/bn
…
I0304 23:08:29.673883  4328 net.cpp:120] Setting up inception_3a/double3x3_reduce/bn
I0304 23:08:29.673885  4326 net.cpp:120] Setting up inception_3a/relu_double3x3_reduce
I0304 23:08:29.673887  4325 net.cpp:357] inception_3a/relu_double3x3_reduce -> inception_3a/double3x3_reduce/bn (in-place)
I0304 23:08:29.673897  4325 net.cpp:120] Setting up inception_3a/relu_double3x3_reduce
I0304 23:08:29.673920  4328 bn_data_layer.cpp:60] scale: 1 1 1
I0304 23:08:29.673946  4328 bn_data_layer.cpp:71] shift: 0 0 0
I0304 23:08:29.673959  4328 bn_data_layer.cpp:80] mean: 0 0 0
I0304 23:08:29.673971  4328 bn_data_layer.cpp:89] variance: 0 0 0
I0304 23:08:29.673984  4328 net.cpp:127] Top shape: 72 64 28 28 (3612672)
I0304 23:08:29.674003  4328 layer_factory.hpp:74] Creating layer inception_3a/relu_double3x3_reduce
I0304 23:08:29.674022  4328 net.cpp:90] Creating Layer inception_3a/relu_double3x3_reduce
I0304 23:08:29.674029  4328 net.cpp:410] inception_3a/relu_double3x3_reduce <- inception_3a/double3x3_reduce/bn
I0304 23:08:29.674041  4328 net.cpp:357] inception_3a/relu_double3x3_reduce -> inception_3a/double3x3_reduce/bn (in-place)
I0304 23:08:29.674051  4328 net.cpp:120] Setting up inception_3a/relu_double3x3_reduce
I0304 23:08:29.674273  4327 net.cpp:127] Top shape: 72 64 28 28 (3612672)
I0304 23:08:29.674286  4327 layer_factory.hpp:74] Creating layer inception_3a/double3x3a
I0304 23:08:29.674298  4327 net.cpp:90] Creating Layer inception_3a/double3x3a
I0304 23:08:29.674304  4327 net.cpp:410] inception_3a/double3x3a <- inception_3a/double3x3_reduce/bn
I0304 23:08:29.674324  4327 net.cpp:368] inception_3a/double3x3a -> inception_3a/double3x3a
I0304 23:08:29.674332  4327 net.cpp:120] Setting up inception_3a/double3x3a
I0304 23:08:29.674370  4326 net.cpp:127] Top shape: 72 64 28 28 (3612672)
I0304 23:08:29.674386  4326 layer_factory.hpp:74] Creating layer inception_3a/double3x3a
I0304 23:08:29.674397  4326 net.cpp:90] Creating Layer inception_3a/double3x3a
I0304 23:08:29.674403  4326 net.cpp:410] inception_3a/double3x3a <- inception_3a/double3x3_reduce/bn
I0304 23:08:29.674414  4326 net.cpp:368] inception_3a/double3x3a -> inception_3a/double3x3a
I0304 23:08:29.674425  4326 net.cpp:120] Setting up inception_3a/double3x3a
I0304 23:08:29.674451  4325 net.cpp:127] Top shape: 72 64 28 28 (3612672)
I0304 23:08:29.674470  4325 layer_factory.hpp:74] Creating layer inception_3a/double3x3a
I0304 23:08:29.674486  4325 net.cpp:90] Creating Layer inception_3a/double3x3a
I0304 23:08:29.674494  4325 net.cpp:410] inception_3a/double3x3a <- inception_3a/double3x3_reduce/bn
I0304 23:08:29.674506  4325 net.cpp:368] inception_3a/double3x3a -> inception_3a/double3x3a
I0304 23:08:29.674517  4325 net.cpp:120] Setting up inception_3a/double3x3a
I0304 23:08:29.674583  4328 net.cpp:127] Top shape: 72 64 28 28 (3612672)
I0304 23:08:29.674618  4328 layer_factory.hpp:74] Creating layer inception_3a/double3x3a
I0304 23:08:29.674635  4328 net.cpp:90] Creating Layer inception_3a/double3x3a
I0304 23:08:29.674643  4328 net.cpp:410] inception_3a/double3x3a <- inception_3a/double3x3_reduce/bn
I0304 23:08:29.674655  4328 net.cpp:368] inception_3a/double3x3a -> inception_3a/double3x3a
I0304 23:08:29.674669  4328 net.cpp:120] Setting up inception_3a/double3x3a
I0304 23:08:29.676425  4327 cudnn_conv_data_layer.cpp:184] Reallocating workspace storage: 20664
I0304 23:08:29.676452  4327 net.cpp:127] Top shape: 72 96 28 28 (5419008)
I0304 23:08:29.676461  4327 layer_factory.hpp:74] Creating layer inception_3a/double3x3a/bn
I0304 23:08:29.676472  4327 net.cpp:90] Creating Layer inception_3a/double3x3a/bn
I0304 23:08:29.676478  4327 net.cpp:410] inception_3a/double3x3a/bn <- inception_3a/double3x3a
I0304 23:08:29.676487  4327 net.cpp:368] inception_3a/double3x3a/bn -> inception_3a/double3x3a/bn
I0304 23:08:29.676496  4327 net.cpp:120] Setting up inception_3a/double3x3a/bn
I0304 23:08:29.676652  4326 cudnn_conv_data_layer.cpp:184] Reallocating workspace storage: 20664
I0304 23:08:29.676683  4326 net.cpp:127] Top shape: 72 96 28 28 (5419008)
I0304 23:08:29.676692  4326 layer_factory.hpp:74] Creating layer inception_3a/double3x3a/bn
I0304 23:08:29.676708  4326 net.cpp:90] Creating Layer inception_3a/double3x3a/bn
I0304 23:08:29.676714  4326 net.cpp:410] inception_3a/double3x3a/bn <- inception_3a/double3x3a
I0304 23:08:29.676725  4326 net.cpp:368] inception_3a/double3x3a/bn -> inception_3a/double3x3a/bn
I0304 23:08:29.676736  4326 net.cpp:120] Setting up inception_3a/double3x3a/bn
I0304 23:08:29.676800  4325 cudnn_conv_data_layer.cpp:184] Reallocating workspace storage: 20664
I0304 23:08:29.676834  4325 net.cpp:127] Top shape: 72 96 28 28 (5419008)
I0304 23:08:29.676865  4325 layer_factory.hpp:74] Creating layer inception_3a/double3x3a/bn
I0304 23:08:29.676883  4325 net.cpp:90] Creating Layer inception_3a/double3x3a/bn
I0304 23:08:29.676892  4325 net.cpp:410] inception_3a/double3x3a/bn <- inception_3a/double3x3a
I0304 23:08:29.676906  4325 net.cpp:368] inception_3a/double3x3a/bn -> inception_3a/double3x3a/bn
I0304 23:08:29.676918  4325 net.cpp:120] Setting up inception_3a/double3x3a/bn
I0304 23:08:29.676908  4328 cudnn_conv_data_layer.cpp:184] Reallocating workspace storage: 20664
I0304 23:08:29.676944  4328 net.cpp:127] Top shape: 72 96 28 28 (5419008)
I0304 23:08:29.676961  4328 layer_factory.hpp:74] Creating layer inception_3a/double3x3a/bn
I0304 23:08:29.676949  4327 bn_data_layer.cpp:60] scale: 1 1 1
I0304 23:08:29.676949  4326 bn_data_layer.cpp:60] scale: 1 1 1
I0304 23:08:29.676950  4325 bn_data_layer.cpp:60] scale: 1 1 1
I0304 23:08:29.676972  4325 bn_data_layer.cpp:71] shift: 0 0 0
I0304 23:08:29.676970  4327 bn_data_layer.cpp:71] shift: 0 0 0
I0304 23:08:29.676970  4326 bn_data_layer.cpp:71] shift: 0 0 0
I0304 23:08:29.676990  4326 bn_data_layer.cpp:80] mean: 0 0 0
I0304 23:08:29.676988  4325 bn_data_layer.cpp:80] mean: 0 0 0
I0304 23:08:29.676977  4328 net.cpp:90] Creating Layer inception_3a/double3x3a/bn
I0304 23:08:29.676986  4328 net.cpp:410] inception_3a/double3x3a/bn <- inception_3a/double3x3a
I0304 23:08:29.677000  4328 net.cpp:368] inception_3a/double3x3a/bn -> inception_3a/double3x3a/bn
I0304 23:08:29.676990  4327 bn_data_layer.cpp:80] mean: 0 0 0
I0304 23:08:29.677002  4327 bn_data_layer.cpp:89] variance: 0 0 0
I0304 23:08:29.677001  4325 bn_data_layer.cpp:89] variance: 0 0 0
I0304 23:08:29.677001  4326 bn_data_layer.cpp:89] variance: 0 0 0
I0304 23:08:29.677021  4326 net.cpp:127] Top shape: 72 96 28 28 (5419008)
I0304 23:08:29.677022  4327 net.cpp:127] Top shape: 72 96 28 28 (5419008)
I0304 23:08:29.677014  4328 net.cpp:120] Setting up inception_3a/double3x3a/bn
I0304 23:08:29.677026  4325 net.cpp:127] Top shape: 72 96 28 28 (5419008)
I0304 23:08:29.677039  4325 layer_factory.hpp:74] Creating layer inception_3a/relu_double3x3a
I0304 23:08:29.677049  4325 net.cpp:90] Creating Layer inception_3a/relu_double3x3a
I0304 23:08:29.677031  4326 layer_factory.hpp:74] Creating layer inception_3a/relu_double3x3a
I0304 23:08:29.677039  4326 net.cpp:90] Creating Layer inception_3a/relu_double3x3a
I0304 23:08:29.677032  4327 layer_factory.hpp:74] Creating layer inception_3a/relu_double3x3a
…
I0304 23:08:29.677067  4326 net.cpp:357] inception_3a/relu_double3x3a -> inception_3a/double3x3a/bn (in-place)
I0304 23:08:29.677076  4326 net.cpp:120] Setting up inception_3a/relu_double3x3a
I0304 23:08:29.677064  4328 bn_data_layer.cpp:71] shift: 0 0 0
I0304 23:08:29.677076  4328 bn_data_layer.cpp:80] mean: 0 0 0
I0304 23:08:29.677079  4325 net.cpp:357] inception_3a/relu_double3x3a -> inception_3a/double3x3a/bn (in-place)
I0304 23:08:29.677090  4325 net.cpp:120] Setting up inception_3a/relu_double3x3a
I0304 23:08:29.677088  4328 bn_data_layer.cpp:89] variance: 0 0 0
I0304 23:08:29.677100  4328 net.cpp:127] Top shape: 72 96 28 28 (5419008)
I0304 23:08:29.677121  4328 layer_factory.hpp:74] Creating layer inception_3a/relu_double3x3a
I0304 23:08:29.677135  4328 net.cpp:90] Creating Layer inception_3a/relu_double3x3a
I0304 23:08:29.677142  4328 net.cpp:410] inception_3a/relu_double3x3a <- inception_3a/double3x3a/bn
I0304 23:08:29.677170  4328 net.cpp:357] inception_3a/relu_double3x3a -> inception_3a/double3x3a/bn (in-place)
I0304 23:08:29.677182  4328 net.cpp:120] Setting up inception_3a/relu_double3x3a
I0304 23:08:29.677260  4327 net.cpp:127] Top shape: 72 96 28 28 (5419008)
I0304 23:08:29.677273  4327 layer_factory.hpp:74] Creating layer inception_3a/double3x3b
I0304 23:08:29.677278  4326 net.cpp:127] Top shape: 72 96 28 28 (5419008)
I0304 23:08:29.677284  4327 net.cpp:90] Creating Layer inception_3a/double3x3b
I0304 23:08:29.677289  4327 net.cpp:410] inception_3a/double3x3b <- inception_3a/double3x3a/bn
I0304 23:08:29.677289  4326 layer_factory.hpp:74] Creating layer inception_3a/double3x3b
I0304 23:08:29.677301  4326 net.cpp:90] Creating Layer inception_3a/double3x3b
I0304 23:08:29.677296  4327 net.cpp:368] inception_3a/double3x3b -> inception_3a/double3x3b
I0304 23:08:29.677304  4327 net.cpp:120] Setting up inception_3a/double3x3b
I0304 23:08:29.677309  4326 net.cpp:410] inception_3a/double3x3b <- inception_3a/double3x3a/bn
I0304 23:08:29.677316  4326 net.cpp:368] inception_3a/double3x3b -> inception_3a/double3x3b
I0304 23:08:29.677327  4326 net.cpp:120] Setting up inception_3a/double3x3b
I0304 23:08:29.677330  4325 net.cpp:127] Top shape: 72 96 28 28 (5419008)
I0304 23:08:29.677342  4325 layer_factory.hpp:74] Creating layer inception_3a/double3x3b
I0304 23:08:29.677356  4325 net.cpp:90] Creating Layer inception_3a/double3x3b
I0304 23:08:29.677364  4325 net.cpp:410] inception_3a/double3x3b <- inception_3a/double3x3a/bn
I0304 23:08:29.677376  4325 net.cpp:368] inception_3a/double3x3b -> inception_3a/double3x3b
I0304 23:08:29.677386  4325 net.cpp:120] Setting up inception_3a/double3x3b
I0304 23:08:29.677429  4328 net.cpp:127] Top shape: 72 96 28 28 (5419008)
I0304 23:08:29.677445  4328 layer_factory.hpp:74] Creating layer inception_3a/double3x3b
I0304 23:08:29.677460  4328 net.cpp:90] Creating Layer inception_3a/double3x3b
I0304 23:08:29.677469  4328 net.cpp:410] inception_3a/double3x3b <- inception_3a/double3x3a/bn
I0304 23:08:29.677481  4328 net.cpp:368] inception_3a/double3x3b -> inception_3a/double3x3b
I0304 23:08:29.677494  4328 net.cpp:120] Setting up inception_3a/double3x3b
I0304 23:08:29.680371  4327 cudnn_conv_data_layer.cpp:184] Reallocating workspace storage: 20664
I0304 23:08:29.680397  4327 net.cpp:127] Top shape: 72 96 28 28 (5419008)
I0304 23:08:29.680405  4327 layer_factory.hpp:74] Creating layer inception_3a/double3x3b/bn
I0304 23:08:29.680429  4327 net.cpp:90] Creating Layer inception_3a/double3x3b/bn
I0304 23:08:29.680440  4327 net.cpp:410] inception_3a/double3x3b/bn <- inception_3a/double3x3b
I0304 23:08:29.680449  4327 net.cpp:368] inception_3a/double3x3b/bn -> inception_3a/double3x3b/bn
I0304 23:08:29.680459  4327 net.cpp:120] Setting up inception_3a/double3x3b/bn
I0304 23:08:29.680588  4326 cudnn_conv_data_layer.cpp:184] Reallocating workspace storage: 20664
I0304 23:08:29.680641  4326 net.cpp:127] Top shape: 72 96 28 28 (5419008)
I0304 23:08:29.680652  4326 layer_factory.hpp:74] Creating layer inception_3a/double3x3b/bn
I0304 23:08:29.680667  4326 net.cpp:90] Creating Layer inception_3a/double3x3b/bn
I0304 23:08:29.680673  4326 net.cpp:410] inception_3a/double3x3b/bn <- inception_3a/double3x3b
I0304 23:08:29.680685  4326 net.cpp:368] inception_3a/double3x3b/bn -> inception_3a/double3x3b/bn
I0304 23:08:29.680696  4326 net.cpp:120] Setting up inception_3a/double3x3b/bn
I0304 23:08:29.680795  4325 cudnn_conv_data_layer.cpp:184] Reallocating workspace storage: 20664
I0304 23:08:29.680831  4325 net.cpp:127] Top shape: 72 96 28 28 (5419008)
I0304 23:08:29.680866  4325 layer_factory.hpp:74] Creating layer inception_3a/double3x3b/bn
I0304 23:08:29.680878  4328 cudnn_conv_data_layer.cpp:184] Reallocating workspace storage: 20664
I0304 23:08:29.680879  4325 net.cpp:90] Creating Layer inception_3a/double3x3b/bn
I0304 23:08:29.680894  4325 net.cpp:410] inception_3a/double3x3b/bn <- inception_3a/double3x3b
I0304 23:08:29.680909  4325 net.cpp:368] inception_3a/double3x3b/bn -> inception_3a/double3x3b/bn
I0304 23:08:29.680910  4328 net.cpp:127] Top shape: 72 96 28 28 (5419008)
I0304 23:08:29.680924  4325 net.cpp:120] Setting up inception_3a/double3x3b/bn
I0304 23:08:29.680922  4328 layer_factory.hpp:74] Creating layer inception_3a/double3x3b/bn
I0304 23:08:29.680943  4328 net.cpp:90] Creating Layer inception_3a/double3x3b/bn
I0304 23:08:29.680951  4328 net.cpp:410] inception_3a/double3x3b/bn <- inception_3a/double3x3b
I0304 23:08:29.680963  4326 bn_data_layer.cpp:60] scale: 1 1 1
I0304 23:08:29.680965  4328 net.cpp:368] inception_3a/double3x3b/bn -> inception_3a/double3x3b/bn
I0304 23:08:29.680960  4325 bn_data_layer.cpp:60] scale: 1 1 1
I0304 23:08:29.680960  4327 bn_data_layer.cpp:60] scale: 1 1 1
I0304 23:08:29.680984  4326 bn_data_layer.cpp:71] shift: 0 0 0
I0304 23:08:29.680984  4327 bn_data_layer.cpp:71] shift: 0 0 0
I0304 23:08:29.680979  4328 net.cpp:120] Setting up inception_3a/double3x3b/bn
I0304 23:08:29.680984  4325 bn_data_layer.cpp:71] shift: 0 0 0
I0304 23:08:29.681010  4325 bn_data_layer.cpp:80] mean: 0 0 0
I0304 23:08:29.681017  4326 bn_data_layer.cpp:80] mean: 0 0 0
I0304 23:08:29.681020  4327 bn_data_layer.cpp:80] mean: 0 0 0
I0304 23:08:29.681018  4328 bn_data_layer.cpp:60] scale: 1 1 1
I0304 23:08:29.681028  4326 bn_data_layer.cpp:89] variance: 0 0 0
I0304 23:08:29.681030  4327 bn_data_layer.cpp:89] variance: 0 0 0
I0304 23:08:29.681028  4325 bn_data_layer.cpp:89] variance: 0 0 0
I0304 23:08:29.681038  4327 net.cpp:127] Top shape: 72 96 28 28 (5419008)
I0304 23:08:29.681041  4325 net.cpp:127] Top shape: 72 96 28 28 (5419008)
I0304 23:08:29.681038  4326 net.cpp:127] Top shape: 72 96 28 28 (5419008)
I0304 23:08:29.681041  4328 bn_data_layer.cpp:71] shift: 0 0 0
I0304 23:08:29.681051  4326 layer_factory.hpp:74] Creating layer inception_3a/relu_double3x3b
I0304 23:08:29.681056  4325 layer_factory.hpp:74] Creating layer inception_3a/relu_double3x3b
I0304 23:08:29.681051  4327 layer_factory.hpp:74] Creating layer inception_3a/relu_double3x3b
I0304 23:08:29.681061  4327 net.cpp:90] Creating Layer inception_3a/relu_double3x3b
…
I0304 23:08:29.681072  4327 net.cpp:357] inception_3a/relu_double3x3b -> inception_3a/double3x3b/bn (in-place)
I0304 23:08:29.681080  4327 net.cpp:120] Setting up inception_3a/relu_double3x3b
I0304 23:08:29.681087  4325 net.cpp:357] inception_3a/relu_double3x3b -> inception_3a/double3x3b/bn (in-place)
I0304 23:08:29.681083  4326 net.cpp:357] inception_3a/relu_double3x3b -> inception_3a/double3x3b/bn (in-place)
I0304 23:08:29.681092  4326 net.cpp:120] Setting up inception_3a/relu_double3x3b
I0304 23:08:29.681097  4325 net.cpp:120] Setting up inception_3a/relu_double3x3b
I0304 23:08:29.681107  4328 net.cpp:127] Top shape: 72 96 28 28 (5419008)
I0304 23:08:29.681128  4328 layer_factory.hpp:74] Creating layer inception_3a/relu_double3x3b
I0304 23:08:29.681149  4328 net.cpp:90] Creating Layer inception_3a/relu_double3x3b
I0304 23:08:29.681157  4328 net.cpp:410] inception_3a/relu_double3x3b <- inception_3a/double3x3b/bn
I0304 23:08:29.681172  4328 net.cpp:357] inception_3a/relu_double3x3b -> inception_3a/double3x3b/bn (in-place)
I0304 23:08:29.681185  4328 net.cpp:120] Setting up inception_3a/relu_double3x3b
I0304 23:08:29.681247  4327 net.cpp:127] Top shape: 72 96 28 28 (5419008)
I0304 23:08:29.681258  4327 layer_factory.hpp:74] Creating layer inception_3a/pool
I0304 23:08:29.681265  4327 layer_factory.cpp:85] CUDNN does not support padding or multiple tops. Using Caffe's own pooling layer.
I0304 23:08:29.681273  4327 net.cpp:90] Creating Layer inception_3a/pool
I0304 23:08:29.681278  4327 net.cpp:410] inception_3a/pool <- pool2/3x3_s2_pool2/3x3_s2_0_split_3
I0304 23:08:29.681287  4327 net.cpp:368] inception_3a/pool -> inception_3a/pool
I0304 23:08:29.681293  4327 net.cpp:120] Setting up inception_3a/pool
I0304 23:08:29.681291  4326 net.cpp:127] Top shape: 72 96 28 28 (5419008)
I0304 23:08:29.681300  4326 layer_factory.hpp:74] Creating layer inception_3a/pool
I0304 23:08:29.681301  4327 net.cpp:127] Top shape: 72 192 28 28 (10838016)
I0304 23:08:29.681306  4327 layer_factory.hpp:74] Creating layer inception_3a/pool_proj
I0304 23:08:29.681308  4326 layer_factory.cpp:85] CUDNN does not support padding or multiple tops. Using Caffe's own pooling layer.
I0304 23:08:29.681316  4327 net.cpp:90] Creating Layer inception_3a/pool_proj
I0304 23:08:29.681316  4326 net.cpp:90] Creating Layer inception_3a/pool
I0304 23:08:29.681321  4327 net.cpp:410] inception_3a/pool_proj <- inception_3a/pool
I0304 23:08:29.681324  4326 net.cpp:410] inception_3a/pool <- pool2/3x3_s2_pool2/3x3_s2_0_split_3
I0304 23:08:29.681324  4325 net.cpp:127] Top shape: 72 96 28 28 (5419008)
I0304 23:08:29.681334  4325 layer_factory.hpp:74] Creating layer inception_3a/pool
I0304 23:08:29.681329  4327 net.cpp:368] inception_3a/pool_proj -> inception_3a/pool_proj
I0304 23:08:29.681335  4327 net.cpp:120] Setting up inception_3a/pool_proj
I0304 23:08:29.681334  4326 net.cpp:368] inception_3a/pool -> inception_3a/pool
I0304 23:08:29.681342  4326 net.cpp:120] Setting up inception_3a/pool
I0304 23:08:29.681341  4325 layer_factory.cpp:85] CUDNN does not support padding or multiple tops. Using Caffe's own pooling layer.
I0304 23:08:29.681352  4326 net.cpp:127] Top shape: 72 192 28 28 (10838016)
I0304 23:08:29.681354  4325 net.cpp:90] Creating Layer inception_3a/pool
I0304 23:08:29.681357  4326 layer_factory.hpp:74] Creating layer inception_3a/pool_proj
I0304 23:08:29.681360  4325 net.cpp:410] inception_3a/pool <- pool2/3x3_s2_pool2/3x3_s2_0_split_3
I0304 23:08:29.681370  4326 net.cpp:90] Creating Layer inception_3a/pool_proj
I0304 23:08:29.681375  4326 net.cpp:410] inception_3a/pool_proj <- inception_3a/pool
I0304 23:08:29.681370  4325 net.cpp:368] inception_3a/pool -> inception_3a/pool
I0304 23:08:29.681381  4325 net.cpp:120] Setting up inception_3a/pool
I0304 23:08:29.681382  4326 net.cpp:368] inception_3a/pool_proj -> inception_3a/pool_proj
I0304 23:08:29.681391  4326 net.cpp:120] Setting up inception_3a/pool_proj
I0304 23:08:29.681392  4325 net.cpp:127] Top shape: 72 192 28 28 (10838016)
I0304 23:08:29.681399  4325 layer_factory.hpp:74] Creating layer inception_3a/pool_proj
I0304 23:08:29.681412  4325 net.cpp:90] Creating Layer inception_3a/pool_proj
I0304 23:08:29.681427  4325 net.cpp:410] inception_3a/pool_proj <- inception_3a/pool
I0304 23:08:29.681437  4325 net.cpp:368] inception_3a/pool_proj -> inception_3a/pool_proj
I0304 23:08:29.681447  4325 net.cpp:120] Setting up inception_3a/pool_proj
I0304 23:08:29.681457  4328 net.cpp:127] Top shape: 72 96 28 28 (5419008)
I0304 23:08:29.681474  4328 layer_factory.hpp:74] Creating layer inception_3a/pool
I0304 23:08:29.681484  4328 layer_factory.cpp:85] CUDNN does not support padding or multiple tops. Using Caffe's own pooling layer.
I0304 23:08:29.681494  4328 net.cpp:90] Creating Layer inception_3a/pool
I0304 23:08:29.681504  4328 net.cpp:410] inception_3a/pool <- pool2/3x3_s2_pool2/3x3_s2_0_split_3
I0304 23:08:29.681514  4328 net.cpp:368] inception_3a/pool -> inception_3a/pool
I0304 23:08:29.681526  4328 net.cpp:120] Setting up inception_3a/pool
I0304 23:08:29.681540  4328 net.cpp:127] Top shape: 72 192 28 28 (10838016)
I0304 23:08:29.681550  4328 layer_factory.hpp:74] Creating layer inception_3a/pool_proj
I0304 23:08:29.681566  4328 net.cpp:90] Creating Layer inception_3a/pool_proj
I0304 23:08:29.681574  4328 net.cpp:410] inception_3a/pool_proj <- inception_3a/pool
I0304 23:08:29.681588  4328 net.cpp:368] inception_3a/pool_proj -> inception_3a/pool_proj
I0304 23:08:29.681602  4328 net.cpp:120] Setting up inception_3a/pool_proj
I0304 23:08:29.682374  4327 cudnn_conv_data_layer.cpp:184] Reallocating workspace storage: 20664
I0304 23:08:29.682401  4327 net.cpp:127] Top shape: 72 32 28 28 (1806336)
I0304 23:08:29.682410  4327 layer_factory.hpp:74] Creating layer inception_3a/pool_proj/bn
I0304 23:08:29.682435  4327 net.cpp:90] Creating Layer inception_3a/pool_proj/bn
I0304 23:08:29.682440  4327 net.cpp:410] inception_3a/pool_proj/bn <- inception_3a/pool_proj
I0304 23:08:29.682448  4327 net.cpp:368] inception_3a/pool_proj/bn -> inception_3a/pool_proj/bn
I0304 23:08:29.682456  4327 net.cpp:120] Setting up inception_3a/pool_proj/bn
I0304 23:08:29.682628  4326 cudnn_conv_data_layer.cpp:184] Reallocating workspace storage: 20664
I0304 23:08:29.682662  4326 net.cpp:127] Top shape: 72 32 28 28 (1806336)
I0304 23:08:29.682672  4326 layer_factory.hpp:74] Creating layer inception_3a/pool_proj/bn
I0304 23:08:29.682684  4326 net.cpp:90] Creating Layer inception_3a/pool_proj/bn
I0304 23:08:29.682692  4326 net.cpp:410] inception_3a/pool_proj/bn <- inception_3a/pool_proj
I0304 23:08:29.682703  4326 net.cpp:368] inception_3a/pool_proj/bn -> inception_3a/pool_proj/bn
I0304 23:08:29.682713  4326 net.cpp:120] Setting up inception_3a/pool_proj/bn
I0304 23:08:29.682826  4325 cudnn_conv_data_layer.cpp:184] Reallocating workspace storage: 20664
I0304 23:08:29.682864  4325 net.cpp:127] Top shape: 72 32 28 28 (1806336)
I0304 23:08:29.682890  4325 layer_factory.hpp:74] Creating layer inception_3a/pool_proj/bn
I0304 23:08:29.682906  4325 net.cpp:90] Creating Layer inception_3a/pool_proj/bn
I0304 23:08:29.682914  4325 net.cpp:410] inception_3a/pool_proj/bn <- inception_3a/pool_proj
I0304 23:08:29.682926  4325 net.cpp:368] inception_3a/pool_proj/bn -> inception_3a/pool_proj/bn
I0304 23:08:29.682940  4325 net.cpp:120] Setting up inception_3a/pool_proj/bn
I0304 23:08:29.682968  4327 bn_data_layer.cpp:60] scale: 1 1 1
I0304 23:08:29.682966  4325 bn_data_layer.cpp:60] scale: 1 1 1
I0304 23:08:29.682970  4326 bn_data_layer.cpp:60] scale: 1 1 1
I0304 23:08:29.682988  4327 bn_data_layer.cpp:71] shift: 0 0 0
I0304 23:08:29.682988  4326 bn_data_layer.cpp:71] shift: 0 0 0
I0304 23:08:29.682986  4325 bn_data_layer.cpp:71] shift: 0 0 0
I0304 23:08:29.683001  4327 bn_data_layer.cpp:80] mean: 0 0 0
I0304 23:08:29.682999  4325 bn_data_layer.cpp:80] mean: 0 0 0
I0304 23:08:29.683001  4326 bn_data_layer.cpp:80] mean: 0 0 0
I0304 23:08:29.683012  4327 bn_data_layer.cpp:89] variance: 0 0 0
I0304 23:08:29.683012  4326 bn_data_layer.cpp:89] variance: 0 0 0
I0304 23:08:29.683012  4325 bn_data_layer.cpp:89] variance: 0 0 0
I0304 23:08:29.683004  4328 cudnn_conv_data_layer.cpp:184] Reallocating workspace storage: 20664
I0304 23:08:29.683020  4327 net.cpp:127] Top shape: 72 32 28 28 (1806336)
I0304 23:08:29.683022  4326 net.cpp:127] Top shape: 72 32 28 28 (1806336)
I0304 23:08:29.683022  4325 net.cpp:127] Top shape: 72 32 28 28 (1806336)
I0304 23:08:29.683040  4328 net.cpp:127] Top shape: 72 32 28 28 (1806336)
I0304 23:08:29.683045  4327 layer_factory.hpp:74] Creating layer inception_3a/relu_pool_proj
I0304 23:08:29.683053  4327 net.cpp:90] Creating Layer inception_3a/relu_pool_proj
I0304 23:08:29.683048  4326 layer_factory.hpp:74] Creating layer inception_3a/relu_pool_proj
I0304 23:08:29.683055  4328 layer_factory.hpp:74] Creating layer inception_3a/pool_proj/bn
I0304 23:08:29.683053  4325 layer_factory.hpp:74] Creating layer inception_3a/relu_pool_proj
…
I0304 23:08:29.683082  4325 net.cpp:357] inception_3a/relu_pool_proj -> inception_3a/pool_proj/bn (in-place)
I0304 23:08:29.683092  4325 net.cpp:120] Setting up inception_3a/relu_pool_proj
I0304 23:08:29.683109  4328 net.cpp:368] inception_3a/pool_proj/bn -> inception_3a/pool_proj/bn
I0304 23:08:29.683132  4328 net.cpp:120] Setting up inception_3a/pool_proj/bn
I0304 23:08:29.683164  4328 bn_data_layer.cpp:60] scale: 1 1 1
I0304 23:08:29.683184  4328 bn_data_layer.cpp:71] shift: 0 0 0
I0304 23:08:29.683198  4328 bn_data_layer.cpp:80] mean: 0 0 0
I0304 23:08:29.683212  4328 bn_data_layer.cpp:89] variance: 0 0 0
I0304 23:08:29.683228  4328 net.cpp:127] Top shape: 72 32 28 28 (1806336)
I0304 23:08:29.683260  4328 layer_factory.hpp:74] Creating layer inception_3a/relu_pool_proj
I0304 23:08:29.683272  4328 net.cpp:90] Creating Layer inception_3a/relu_pool_proj
I0304 23:08:29.683280  4328 net.cpp:410] inception_3a/relu_pool_proj <- inception_3a/pool_proj/bn
I0304 23:08:29.683290  4328 net.cpp:357] inception_3a/relu_pool_proj -> inception_3a/pool_proj/bn (in-place)
I0304 23:08:29.683301  4328 net.cpp:120] Setting up inception_3a/relu_pool_proj
I0304 23:08:29.683466  4327 net.cpp:127] Top shape: 72 32 28 28 (1806336)
I0304 23:08:29.683480  4327 layer_factory.hpp:74] Creating layer inception_3a/output
I0304 23:08:29.683493  4327 net.cpp:90] Creating Layer inception_3a/output
I0304 23:08:29.683500  4327 net.cpp:410] inception_3a/output <- inception_3a/1x1/bn
I0304 23:08:29.683506  4327 net.cpp:410] inception_3a/output <- inception_3a/3x3/bn
I0304 23:08:29.683512  4327 net.cpp:410] inception_3a/output <- inception_3a/double3x3b/bn
I0304 23:08:29.683518  4327 net.cpp:410] inception_3a/output <- inception_3a/pool_proj/bn
I0304 23:08:29.683524  4327 net.cpp:368] inception_3a/output -> inception_3a/output
I0304 23:08:29.683534  4327 net.cpp:120] Setting up inception_3a/output
I0304 23:08:29.683542  4326 net.cpp:127] Top shape: 72 32 28 28 (1806336)
I0304 23:08:29.683559  4326 layer_factory.hpp:74] Creating layer inception_3a/output
I0304 23:08:29.683575  4326 net.cpp:90] Creating Layer inception_3a/output
I0304 23:08:29.683583  4326 net.cpp:410] inception_3a/output <- inception_3a/1x1/bn
I0304 23:08:29.683590  4326 net.cpp:410] inception_3a/output <- inception_3a/3x3/bn
I0304 23:08:29.683596  4326 net.cpp:410] inception_3a/output <- inception_3a/double3x3b/bn
I0304 23:08:29.683604  4326 net.cpp:410] inception_3a/output <- inception_3a/pool_proj/bn
I0304 23:08:29.683550  4327 net.cpp:127] Top shape: 72 256 28 28 (14450688)
I0304 23:08:29.683559  4327 layer_factory.hpp:74] Creating layer inception_3a/output_inception_3a/output_0_split
I0304 23:08:29.683568  4327 net.cpp:90] Creating Layer inception_3a/output_inception_3a/output_0_split
I0304 23:08:29.683573  4327 net.cpp:410] inception_3a/output_inception_3a/output_0_split <- inception_3a/output
I0304 23:08:29.683581  4327 net.cpp:368] inception_3a/output_inception_3a/output_0_split -> inception_3a/output_inception_3a/output_0_split_0
I0304 23:08:29.683589  4327 net.cpp:368] inception_3a/output_inception_3a/output_0_split -> inception_3a/output_inception_3a/output_0_split_1
I0304 23:08:29.683598  4327 net.cpp:368] inception_3a/output_inception_3a/output_0_split -> inception_3a/output_inception_3a/output_0_split_2
I0304 23:08:29.683604  4327 net.cpp:368] inception_3a/output_inception_3a/output_0_split -> inception_3a/output_inception_3a/output_0_split_3
I0304 23:08:29.683611  4327 net.cpp:120] Setting up inception_3a/output_inception_3a/output_0_split
I0304 23:08:29.683619  4327 net.cpp:127] Top shape: 72 256 28 28 (14450688)
I0304 23:08:29.683624  4327 net.cpp:127] Top shape: 72 256 28 28 (14450688)
I0304 23:08:29.683629  4327 net.cpp:127] Top shape: 72 256 28 28 (14450688)
I0304 23:08:29.683634  4327 net.cpp:127] Top shape: 72 256 28 28 (14450688)
I0304 23:08:29.683639  4327 layer_factory.hpp:74] Creating layer inception_3b/1x1
I0304 23:08:29.683610  4326 net.cpp:368] inception_3a/output -> inception_3a/output
I0304 23:08:29.683624  4326 net.cpp:120] Setting up inception_3a/output
I0304 23:08:29.683642  4326 net.cpp:127] Top shape: 72 256 28 28 (14450688)
I0304 23:08:29.683648  4326 layer_factory.hpp:74] Creating layer inception_3a/output_inception_3a/output_0_split
I0304 23:08:29.683630  4325 net.cpp:127] Top shape: 72 32 28 28 (1806336)
I0304 23:08:29.683645  4325 layer_factory.hpp:74] Creating layer inception_3a/output
I0304 23:08:29.683650  4327 net.cpp:90] Creating Layer inception_3b/1x1
I0304 23:08:29.683655  4327 net.cpp:410] inception_3b/1x1 <- inception_3a/output_inception_3a/output_0_split_0
I0304 23:08:29.683661  4327 net.cpp:368] inception_3b/1x1 -> inception_3b/1x1
I0304 23:08:29.683662  4325 net.cpp:90] Creating Layer inception_3a/output
…
I0304 23:08:29.683689  4326 net.cpp:368] inception_3a/output_inception_3a/output_0_split -> inception_3a/output_inception_3a/output_0_split_2
I0304 23:08:29.683697  4326 net.cpp:368] inception_3a/output_inception_3a/output_0_split -> inception_3a/output_inception_3a/output_0_split_3
I0304 23:08:29.683704  4326 net.cpp:120] Setting up inception_3a/output_inception_3a/output_0_split
I0304 23:08:29.683687  4325 net.cpp:410] inception_3a/output <- inception_3a/double3x3b/bn
I0304 23:08:29.683696  4325 net.cpp:410] inception_3a/output <- inception_3a/pool_proj/bn
I0304 23:08:29.683708  4325 net.cpp:368] inception_3a/output -> inception_3a/output
I0304 23:08:29.683713  4326 net.cpp:127] Top shape: 72 256 28 28 (14450688)
I0304 23:08:29.683719  4326 net.cpp:127] Top shape: 72 256 28 28 (14450688)
I0304 23:08:29.683725  4326 net.cpp:127] Top shape: 72 256 28 28 (14450688)
I0304 23:08:29.683732  4326 net.cpp:127] Top shape: 72 256 28 28 (14450688)
I0304 23:08:29.683737  4326 layer_factory.hpp:74] Creating layer inception_3b/1x1
I0304 23:08:29.683720  4325 net.cpp:120] Setting up inception_3a/output
I0304 23:08:29.683742  4325 net.cpp:127] Top shape: 72 256 28 28 (14450688)
…
I0304 23:08:30.651334  4326 layer_factory.hpp:74] Creating layer inception_5b/relu_3x3_reduce
I0304 23:08:30.651351  4328 net.cpp:90] Creating Layer inception_5b/relu_3x3_reduce
I0304 23:08:30.651360  4328 net.cpp:410] inception_5b/relu_3x3_reduce <- inception_5b/3x3_reduce/bn
I0304 23:08:30.651351  4326 net.cpp:90] Creating Layer inception_5b/relu_3x3_reduce
I0304 23:08:30.651360  4326 net.cpp:410] inception_5b/relu_3x3_reduce <- inception_5b/3x3_reduce/bn
I0304 23:08:30.651371  4328 net.cpp:357] inception_5b/relu_3x3_reduce -> inception_5b/3x3_reduce/bn (in-place)
I0304 23:08:30.651371  4326 net.cpp:357] inception_5b/relu_3x3_reduce -> inception_5b/3x3_reduce/bn (in-place)
I0304 23:08:30.651384  4326 net.cpp:120] Setting up inception_5b/relu_3x3_reduce
I0304 23:08:30.651384  4328 net.cpp:120] Setting up inception_5b/relu_3x3_reduce
I0304 23:08:30.651746  4326 net.cpp:127] Top shape: 24 192 7 7 (225792)
I0304 23:08:30.651762  4326 layer_factory.hpp:74] Creating layer inception_5b/3x3
I0304 23:08:30.651792  4326 net.cpp:90] Creating Layer inception_5b/3x3
I0304 23:08:30.651803  4326 net.cpp:410] inception_5b/3x3 <- inception_5b/3x3_reduce/bn
I0304 23:08:30.651746  4328 net.cpp:127] Top shape: 24 192 7 7 (225792)
I0304 23:08:30.651762  4328 layer_factory.hpp:74] Creating layer inception_5b/3x3
I0304 23:08:30.651793  4328 net.cpp:90] Creating Layer inception_5b/3x3
I0304 23:08:30.651803  4328 net.cpp:410] inception_5b/3x3 <- inception_5b/3x3_reduce/bn
I0304 23:08:30.651823  4328 net.cpp:368] inception_5b/3x3 -> inception_5b/3x3
I0304 23:08:30.651815  4326 net.cpp:368] inception_5b/3x3 -> inception_5b/3x3
I0304 23:08:30.651830  4326 net.cpp:120] Setting up inception_5b/3x3
I0304 23:08:30.651836  4328 net.cpp:120] Setting up inception_5b/3x3
I0304 23:08:30.658771  4327 cudnn_conv_data_layer.cpp:184] Reallocating workspace storage: 7788
I0304 23:08:30.658843  4327 net.cpp:127] Top shape: 24 320 7 7 (376320)
I0304 23:08:30.658851  4327 layer_factory.hpp:74] Creating layer inception_5b/3x3/bn
I0304 23:08:30.658862  4327 net.cpp:90] Creating Layer inception_5b/3x3/bn
I0304 23:08:30.658879  4327 net.cpp:410] inception_5b/3x3/bn <- inception_5b/3x3
I0304 23:08:30.658886  4327 net.cpp:368] inception_5b/3x3/bn -> inception_5b/3x3/bn
I0304 23:08:30.658895  4327 net.cpp:120] Setting up inception_5b/3x3/bn
I0304 23:08:30.658861  4325 cudnn_conv_data_layer.cpp:184] Reallocating workspace storage: 7788
I0304 23:08:30.658932  4325 net.cpp:127] Top shape: 24 320 7 7 (376320)
I0304 23:08:30.658957  4325 layer_factory.hpp:74] Creating layer inception_5b/3x3/bn
I0304 23:08:30.658973  4325 net.cpp:90] Creating Layer inception_5b/3x3/bn
I0304 23:08:30.658979  4325 net.cpp:410] inception_5b/3x3/bn <- inception_5b/3x3
I0304 23:08:30.658988  4325 net.cpp:368] inception_5b/3x3/bn -> inception_5b/3x3/bn
I0304 23:08:30.658998  4325 net.cpp:120] Setting up inception_5b/3x3/bn
I0304 23:08:30.659021  4327 bn_data_layer.cpp:60] scale: 1 1 1
I0304 23:08:30.659024  4325 bn_data_layer.cpp:60] scale: 1 1 1
I0304 23:08:30.659039  4325 bn_data_layer.cpp:71] shift: 0 0 0
I0304 23:08:30.659039  4327 bn_data_layer.cpp:71] shift: 0 0 0
I0304 23:08:30.659059  4327 bn_data_layer.cpp:80] mean: 0 0 0
I0304 23:08:30.659060  4325 bn_data_layer.cpp:80] mean: 0 0 0
I0304 23:08:30.659080  4325 bn_data_layer.cpp:89] variance: 0 0 0
I0304 23:08:30.659080  4327 bn_data_layer.cpp:89] variance: 0 0 0
I0304 23:08:30.659088  4327 net.cpp:127] Top shape: 24 320 7 7 (376320)
I0304 23:08:30.659111  4327 layer_factory.hpp:74] Creating layer inception_5b/relu_3x3
I0304 23:08:30.659090  4325 net.cpp:127] Top shape: 24 320 7 7 (376320)
I0304 23:08:30.659114  4325 layer_factory.hpp:74] Creating layer inception_5b/relu_3x3
I0304 23:08:30.659123  4325 net.cpp:90] Creating Layer inception_5b/relu_3x3
I0304 23:08:30.659121  4327 net.cpp:90] Creating Layer inception_5b/relu_3x3
I0304 23:08:30.659126  4327 net.cpp:410] inception_5b/relu_3x3 <- inception_5b/3x3/bn
I0304 23:08:30.659132  4327 net.cpp:357] inception_5b/relu_3x3 -> inception_5b/3x3/bn (in-place)
I0304 23:08:30.659138  4327 net.cpp:120] Setting up inception_5b/relu_3x3
I0304 23:08:30.659129  4325 net.cpp:410] inception_5b/relu_3x3 <- inception_5b/3x3/bn
I0304 23:08:30.659142  4325 net.cpp:357] inception_5b/relu_3x3 -> inception_5b/3x3/bn (in-place)
I0304 23:08:30.659150  4325 net.cpp:120] Setting up inception_5b/relu_3x3
I0304 23:08:30.659224  4326 cudnn_conv_data_layer.cpp:184] Reallocating workspace storage: 7788
I0304 23:08:30.659313  4326 net.cpp:127] Top shape: 24 320 7 7 (376320)
I0304 23:08:30.659332  4326 layer_factory.hpp:74] Creating layer inception_5b/3x3/bn
I0304 23:08:30.659358  4327 net.cpp:127] Top shape: 24 320 7 7 (376320)
I0304 23:08:30.659368  4327 layer_factory.hpp:74] Creating layer inception_5b/double3x3_reduce
I0304 23:08:30.659376  4327 net.cpp:90] Creating Layer inception_5b/double3x3_reduce
I0304 23:08:30.659382  4327 net.cpp:410] inception_5b/double3x3_reduce <- inception_5a/output_inception_5a/output_0_split_2
I0304 23:08:30.659369  4328 cudnn_conv_data_layer.cpp:184] Reallocating workspace storage: 7788
I0304 23:08:30.659368  4326 net.cpp:90] Creating Layer inception_5b/3x3/bn
I0304 23:08:30.659380  4326 net.cpp:410] inception_5b/3x3/bn <- inception_5b/3x3
I0304 23:08:30.659391  4327 net.cpp:368] inception_5b/double3x3_reduce -> inception_5b/double3x3_reduce
I0304 23:08:30.659400  4327 net.cpp:120] Setting up inception_5b/double3x3_reduce
I0304 23:08:30.659399  4326 net.cpp:368] inception_5b/3x3/bn -> inception_5b/3x3/bn
I0304 23:08:30.659401  4325 net.cpp:127] Top shape: 24 320 7 7 (376320)
I0304 23:08:30.659414  4325 layer_factory.hpp:74] Creating layer inception_5b/double3x3_reduce
I0304 23:08:30.659415  4326 net.cpp:120] Setting up inception_5b/3x3/bn
I0304 23:08:30.659425  4325 net.cpp:90] Creating Layer inception_5b/double3x3_reduce
I0304 23:08:30.659431  4325 net.cpp:410] inception_5b/double3x3_reduce <- inception_5a/output_inception_5a/output_0_split_2
I0304 23:08:30.659440  4325 net.cpp:368] inception_5b/double3x3_reduce -> inception_5b/double3x3_reduce
I0304 23:08:30.659449  4325 net.cpp:120] Setting up inception_5b/double3x3_reduce
I0304 23:08:30.659440  4328 net.cpp:127] Top shape: 24 320 7 7 (376320)
I0304 23:08:30.659453  4326 bn_data_layer.cpp:60] scale: 1 1 1
I0304 23:08:30.659459  4328 layer_factory.hpp:74] Creating layer inception_5b/3x3/bn
I0304 23:08:30.659485  4326 bn_data_layer.cpp:71] shift: 0 0 0
I0304 23:08:30.659483  4328 net.cpp:90] Creating Layer inception_5b/3x3/bn
I0304 23:08:30.659499  4328 net.cpp:410] inception_5b/3x3/bn <- inception_5b/3x3
I0304 23:08:30.659508  4326 bn_data_layer.cpp:80] mean: 0 0 0
I0304 23:08:30.659519  4328 net.cpp:368] inception_5b/3x3/bn -> inception_5b/3x3/bn
I0304 23:08:30.659531  4326 bn_data_layer.cpp:89] variance: 0 0 0
I0304 23:08:30.659538  4328 net.cpp:120] Setting up inception_5b/3x3/bn
I0304 23:08:30.659549  4326 net.cpp:127] Top shape: 24 320 7 7 (376320)
I0304 23:08:30.659572  4328 bn_data_layer.cpp:60] scale: 1 1 1
I0304 23:08:30.659587  4326 layer_factory.hpp:74] Creating layer inception_5b/relu_3x3
I0304 23:08:30.659601  4326 net.cpp:90] Creating Layer inception_5b/relu_3x3
I0304 23:08:30.659598  4328 bn_data_layer.cpp:71] shift: 0 0 0
I0304 23:08:30.659611  4326 net.cpp:410] inception_5b/relu_3x3 <- inception_5b/3x3/bn
I0304 23:08:30.659620  4328 bn_data_layer.cpp:80] mean: 0 0 0
I0304 23:08:30.659632  4326 net.cpp:357] inception_5b/relu_3x3 -> inception_5b/3x3/bn (in-place)
I0304 23:08:30.659638  4328 bn_data_layer.cpp:89] variance: 0 0 0
I0304 23:08:30.659647  4326 net.cpp:120] Setting up inception_5b/relu_3x3
I0304 23:08:30.659653  4328 net.cpp:127] Top shape: 24 320 7 7 (376320)
I0304 23:08:30.659696  4328 layer_factory.hpp:74] Creating layer inception_5b/relu_3x3
I0304 23:08:30.659729  4328 net.cpp:90] Creating Layer inception_5b/relu_3x3
I0304 23:08:30.659739  4328 net.cpp:410] inception_5b/relu_3x3 <- inception_5b/3x3/bn
I0304 23:08:30.659755  4328 net.cpp:357] inception_5b/relu_3x3 -> inception_5b/3x3/bn (in-place)
I0304 23:08:30.659768  4328 net.cpp:120] Setting up inception_5b/relu_3x3
I0304 23:08:30.660023  4326 net.cpp:127] Top shape: 24 320 7 7 (376320)
I0304 23:08:30.660053  4326 layer_factory.hpp:74] Creating layer inception_5b/double3x3_reduce
I0304 23:08:30.660069  4326 net.cpp:90] Creating Layer inception_5b/double3x3_reduce
I0304 23:08:30.660079  4326 net.cpp:410] inception_5b/double3x3_reduce <- inception_5a/output_inception_5a/output_0_split_2
I0304 23:08:30.660091  4326 net.cpp:368] inception_5b/double3x3_reduce -> inception_5b/double3x3_reduce
I0304 23:08:30.660106  4326 net.cpp:120] Setting up inception_5b/double3x3_reduce
I0304 23:08:30.660132  4328 net.cpp:127] Top shape: 24 320 7 7 (376320)
I0304 23:08:30.660151  4328 layer_factory.hpp:74] Creating layer inception_5b/double3x3_reduce
I0304 23:08:30.660168  4328 net.cpp:90] Creating Layer inception_5b/double3x3_reduce
I0304 23:08:30.660177  4328 net.cpp:410] inception_5b/double3x3_reduce <- inception_5a/output_inception_5a/output_0_split_2
I0304 23:08:30.660190  4328 net.cpp:368] inception_5b/double3x3_reduce -> inception_5b/double3x3_reduce
I0304 23:08:30.660204  4328 net.cpp:120] Setting up inception_5b/double3x3_reduce
I0304 23:08:30.663079  4327 cudnn_conv_data_layer.cpp:184] Reallocating workspace storage: 14450688
I0304 23:08:30.663111  4325 cudnn_conv_data_layer.cpp:184] Reallocating workspace storage: 14450688
I0304 23:08:30.663326  4327 net.cpp:127] Top shape: 24 192 7 7 (225792)
I0304 23:08:30.663341  4327 layer_factory.hpp:74] Creating layer inception_5b/double3x3_reduce/bn
I0304 23:08:30.663354  4327 net.cpp:90] Creating Layer inception_5b/double3x3_reduce/bn
I0304 23:08:30.663360  4327 net.cpp:410] inception_5b/double3x3_reduce/bn <- inception_5b/double3x3_reduce
I0304 23:08:30.663368  4327 net.cpp:368] inception_5b/double3x3_reduce/bn -> inception_5b/double3x3_reduce/bn
I0304 23:08:30.663378  4327 net.cpp:120] Setting up inception_5b/double3x3_reduce/bn
I0304 23:08:30.663396  4325 net.cpp:127] Top shape: 24 192 7 7 (225792)
I0304 23:08:30.663410  4325 layer_factory.hpp:74] Creating layer inception_5b/double3x3_reduce/bn
I0304 23:08:30.663424  4325 net.cpp:90] Creating Layer inception_5b/double3x3_reduce/bn
I0304 23:08:30.663430  4325 net.cpp:410] inception_5b/double3x3_reduce/bn <- inception_5b/double3x3_reduce
I0304 23:08:30.663441  4325 net.cpp:368] inception_5b/double3x3_reduce/bn -> inception_5b/double3x3_reduce/bn
I0304 23:08:30.663452  4325 net.cpp:120] Setting up inception_5b/double3x3_reduce/bn
I0304 23:08:30.663475  4325 bn_data_layer.cpp:60] scale: 1 1 1
I0304 23:08:30.663480  4327 bn_data_layer.cpp:60] scale: 1 1 1
I0304 23:08:30.663494  4327 bn_data_layer.cpp:71] shift: 0 0 0
I0304 23:08:30.663492  4325 bn_data_layer.cpp:71] shift: 0 0 0
I0304 23:08:30.663502  4325 bn_data_layer.cpp:80] mean: 0 0 0
I0304 23:08:30.663503  4327 bn_data_layer.cpp:80] mean: 0 0 0
I0304 23:08:30.663512  4325 bn_data_layer.cpp:89] variance: 0 0 0
I0304 23:08:30.663522  4325 net.cpp:127] Top shape: 24 192 7 7 (225792)
I0304 23:08:30.663514  4327 bn_data_layer.cpp:89] variance: 0 0 0
I0304 23:08:30.663523  4327 net.cpp:127] Top shape: 24 192 7 7 (225792)
I0304 23:08:30.663532  4327 layer_factory.hpp:74] Creating layer inception_5b/relu_double3x3_reduce
I0304 23:08:30.663534  4325 layer_factory.hpp:74] Creating layer inception_5b/relu_double3x3_reduce
I0304 23:08:30.663542  4325 net.cpp:90] Creating Layer inception_5b/relu_double3x3_reduce
I0304 23:08:30.663539  4327 net.cpp:90] Creating Layer inception_5b/relu_double3x3_reduce
I0304 23:08:30.663544  4327 net.cpp:410] inception_5b/relu_double3x3_reduce <- inception_5b/double3x3_reduce/bn
I0304 23:08:30.663552  4327 net.cpp:357] inception_5b/relu_double3x3_reduce -> inception_5b/double3x3_reduce/bn (in-place)
I0304 23:08:30.663559  4327 net.cpp:120] Setting up inception_5b/relu_double3x3_reduce
I0304 23:08:30.663547  4325 net.cpp:410] inception_5b/relu_double3x3_reduce <- inception_5b/double3x3_reduce/bn
I0304 23:08:30.663557  4325 net.cpp:357] inception_5b/relu_double3x3_reduce -> inception_5b/double3x3_reduce/bn (in-place)
I0304 23:08:30.663564  4325 net.cpp:120] Setting up inception_5b/relu_double3x3_reduce
I0304 23:08:30.663643  4328 cudnn_conv_data_layer.cpp:184] Reallocating workspace storage: 14450688
I0304 23:08:30.663702  4326 cudnn_conv_data_layer.cpp:184] Reallocating workspace storage: 14450688
I0304 23:08:30.664036  4327 net.cpp:127] Top shape: 24 192 7 7 (225792)
I0304 23:08:30.664049  4327 layer_factory.hpp:74] Creating layer inception_5b/double3x3a
I0304 23:08:30.664072  4327 net.cpp:90] Creating Layer inception_5b/double3x3a
I0304 23:08:30.664077  4327 net.cpp:410] inception_5b/double3x3a <- inception_5b/double3x3_reduce/bn
I0304 23:08:30.664085  4327 net.cpp:368] inception_5b/double3x3a -> inception_5b/double3x3a
I0304 23:08:30.664094  4327 net.cpp:120] Setting up inception_5b/double3x3a
I0304 23:08:30.664077  4328 net.cpp:127] Top shape: 24 192 7 7 (225792)
I0304 23:08:30.664098  4328 layer_factory.hpp:74] Creating layer inception_5b/double3x3_reduce/bn
I0304 23:08:30.664118  4328 net.cpp:90] Creating Layer inception_5b/double3x3_reduce/bn
I0304 23:08:30.664129  4328 net.cpp:410] inception_5b/double3x3_reduce/bn <- inception_5b/double3x3_reduce
I0304 23:08:30.664144  4328 net.cpp:368] inception_5b/double3x3_reduce/bn -> inception_5b/double3x3_reduce/bn
I0304 23:08:30.664149  4325 net.cpp:127] Top shape: 24 192 7 7 (225792)
I0304 23:08:30.664161  4325 layer_factory.hpp:74] Creating layer inception_5b/double3x3a
I0304 23:08:30.664173  4325 net.cpp:90] Creating Layer inception_5b/double3x3a
I0304 23:08:30.664180  4325 net.cpp:410] inception_5b/double3x3a <- inception_5b/double3x3_reduce/bn
I0304 23:08:30.664160  4328 net.cpp:120] Setting up inception_5b/double3x3_reduce/bn
I0304 23:08:30.664175  4326 net.cpp:127] Top shape: 24 192 7 7 (225792)
I0304 23:08:30.664192  4326 layer_factory.hpp:74] Creating layer inception_5b/double3x3_reduce/bn
I0304 23:08:30.664189  4325 net.cpp:368] inception_5b/double3x3a -> inception_5b/double3x3a
I0304 23:08:30.664201  4325 net.cpp:120] Setting up inception_5b/double3x3a
I0304 23:08:30.664222  4326 net.cpp:90] Creating Layer inception_5b/double3x3_reduce/bn
I0304 23:08:30.664232  4326 net.cpp:410] inception_5b/double3x3_reduce/bn <- inception_5b/double3x3_reduce
I0304 23:08:30.664247  4326 net.cpp:368] inception_5b/double3x3_reduce/bn -> inception_5b/double3x3_reduce/bn
I0304 23:08:30.664260  4326 net.cpp:120] Setting up inception_5b/double3x3_reduce/bn
I0304 23:08:30.664290  4326 bn_data_layer.cpp:60] scale: 1 1 1
I0304 23:08:30.664294  4328 bn_data_layer.cpp:60] scale: 1 1 1
I0304 23:08:30.664315  4328 bn_data_layer.cpp:71] shift: 0 0 0
I0304 23:08:30.664312  4326 bn_data_layer.cpp:71] shift: 0 0 0
I0304 23:08:30.664335  4326 bn_data_layer.cpp:80] mean: 0 0 0
I0304 23:08:30.664355  4326 bn_data_layer.cpp:89] variance: 0 0 0
I0304 23:08:30.664335  4328 bn_data_layer.cpp:80] mean: 0 0 0
I0304 23:08:30.664355  4328 bn_data_layer.cpp:89] variance: 0 0 0
I0304 23:08:30.664369  4326 net.cpp:127] Top shape: 24 192 7 7 (225792)
I0304 23:08:30.664369  4328 net.cpp:127] Top shape: 24 192 7 7 (225792)
I0304 23:08:30.664387  4326 layer_factory.hpp:74] Creating layer inception_5b/relu_double3x3_reduce
I0304 23:08:30.664387  4328 layer_factory.hpp:74] Creating layer inception_5b/relu_double3x3_reduce
I0304 23:08:30.664403  4328 net.cpp:90] Creating Layer inception_5b/relu_double3x3_reduce
I0304 23:08:30.664403  4326 net.cpp:90] Creating Layer inception_5b/relu_double3x3_reduce
I0304 23:08:30.664413  4326 net.cpp:410] inception_5b/relu_double3x3_reduce <- inception_5b/double3x3_reduce/bn
I0304 23:08:30.664414  4328 net.cpp:410] inception_5b/relu_double3x3_reduce <- inception_5b/double3x3_reduce/bn
I0304 23:08:30.664425  4328 net.cpp:357] inception_5b/relu_double3x3_reduce -> inception_5b/double3x3_reduce/bn (in-place)
I0304 23:08:30.664425  4326 net.cpp:357] inception_5b/relu_double3x3_reduce -> inception_5b/double3x3_reduce/bn (in-place)
I0304 23:08:30.664440  4326 net.cpp:120] Setting up inception_5b/relu_double3x3_reduce
I0304 23:08:30.664438  4328 net.cpp:120] Setting up inception_5b/relu_double3x3_reduce
I0304 23:08:30.665015  4326 net.cpp:127] Top shape: 24 192 7 7 (225792)
I0304 23:08:30.665036  4326 layer_factory.hpp:74] Creating layer inception_5b/double3x3a
I0304 23:08:30.665053  4326 net.cpp:90] Creating Layer inception_5b/double3x3a
I0304 23:08:30.665065  4326 net.cpp:410] inception_5b/double3x3a <- inception_5b/double3x3_reduce/bn
I0304 23:08:30.665079  4326 net.cpp:368] inception_5b/double3x3a -> inception_5b/double3x3a
I0304 23:08:30.665076  4328 net.cpp:127] Top shape: 24 192 7 7 (225792)
I0304 23:08:30.665092  4328 layer_factory.hpp:74] Creating layer inception_5b/double3x3a
I0304 23:08:30.665094  4326 net.cpp:120] Setting up inception_5b/double3x3a
I0304 23:08:30.665110  4328 net.cpp:90] Creating Layer inception_5b/double3x3a
I0304 23:08:30.665122  4328 net.cpp:410] inception_5b/double3x3a <- inception_5b/double3x3_reduce/bn
I0304 23:08:30.665149  4328 net.cpp:368] inception_5b/double3x3a -> inception_5b/double3x3a
I0304 23:08:30.665166  4328 net.cpp:120] Setting up inception_5b/double3x3a
I0304 23:08:30.669973  4327 cudnn_conv_data_layer.cpp:184] Reallocating workspace storage: 7788
I0304 23:08:30.670035  4327 net.cpp:127] Top shape: 24 224 7 7 (263424)
I0304 23:08:30.670044  4327 layer_factory.hpp:74] Creating layer inception_5b/double3x3a/bn
I0304 23:08:30.670066  4327 net.cpp:90] Creating Layer inception_5b/double3x3a/bn
I0304 23:08:30.670073  4327 net.cpp:410] inception_5b/double3x3a/bn <- inception_5b/double3x3a
I0304 23:08:30.670083  4327 net.cpp:368] inception_5b/double3x3a/bn -> inception_5b/double3x3a/bn
I0304 23:08:30.670104  4327 net.cpp:120] Setting up inception_5b/double3x3a/bn
I0304 23:08:30.670117  4325 cudnn_conv_data_layer.cpp:184] Reallocating workspace storage: 7788
I0304 23:08:30.670184  4325 net.cpp:127] Top shape: 24 224 7 7 (263424)
I0304 23:08:30.670202  4325 layer_factory.hpp:74] Creating layer inception_5b/double3x3a/bn
I0304 23:08:30.670213  4325 net.cpp:90] Creating Layer inception_5b/double3x3a/bn
I0304 23:08:30.670220  4325 net.cpp:410] inception_5b/double3x3a/bn <- inception_5b/double3x3a
I0304 23:08:30.670234  4325 net.cpp:368] inception_5b/double3x3a/bn -> inception_5b/double3x3a/bn
I0304 23:08:30.670245  4325 net.cpp:120] Setting up inception_5b/double3x3a/bn
I0304 23:08:30.670267  4325 bn_data_layer.cpp:60] scale: 1 1 1
I0304 23:08:30.670269  4327 bn_data_layer.cpp:60] scale: 1 1 1
I0304 23:08:30.670294  4325 bn_data_layer.cpp:71] shift: 0 0 0
I0304 23:08:30.670295  4327 bn_data_layer.cpp:71] shift: 0 0 0
I0304 23:08:30.670305  4327 bn_data_layer.cpp:80] mean: 0 0 0
I0304 23:08:30.670317  4327 bn_data_layer.cpp:89] variance: 0 0 0
I0304 23:08:30.670325  4327 net.cpp:127] Top shape: 24 224 7 7 (263424)
I0304 23:08:30.670305  4325 bn_data_layer.cpp:80] mean: 0 0 0
I0304 23:08:30.670317  4325 bn_data_layer.cpp:89] variance: 0 0 0
I0304 23:08:30.670326  4325 net.cpp:127] Top shape: 24 224 7 7 (263424)
I0304 23:08:30.670336  4325 layer_factory.hpp:74] Creating layer inception_5b/relu_double3x3a
I0304 23:08:30.670334  4327 layer_factory.hpp:74] Creating layer inception_5b/relu_double3x3a
I0304 23:08:30.670343  4327 net.cpp:90] Creating Layer inception_5b/relu_double3x3a
I0304 23:08:30.670361  4327 net.cpp:410] inception_5b/relu_double3x3a <- inception_5b/double3x3a/bn
I0304 23:08:30.670369  4327 net.cpp:357] inception_5b/relu_double3x3a -> inception_5b/double3x3a/bn (in-place)
I0304 23:08:30.670377  4327 net.cpp:120] Setting up inception_5b/relu_double3x3a
I0304 23:08:30.670344  4325 net.cpp:90] Creating Layer inception_5b/relu_double3x3a
I0304 23:08:30.670366  4325 net.cpp:410] inception_5b/relu_double3x3a <- inception_5b/double3x3a/bn
I0304 23:08:30.670377  4325 net.cpp:357] inception_5b/relu_double3x3a -> inception_5b/double3x3a/bn (in-place)
I0304 23:08:30.670385  4325 net.cpp:120] Setting up inception_5b/relu_double3x3a
I0304 23:08:30.670593  4327 net.cpp:127] Top shape: 24 224 7 7 (263424)
I0304 23:08:30.670603  4327 layer_factory.hpp:74] Creating layer inception_5b/double3x3b
I0304 23:08:30.670611  4327 net.cpp:90] Creating Layer inception_5b/double3x3b
I0304 23:08:30.670617  4327 net.cpp:410] inception_5b/double3x3b <- inception_5b/double3x3a/bn
I0304 23:08:30.670626  4327 net.cpp:368] inception_5b/double3x3b -> inception_5b/double3x3b
I0304 23:08:30.670634  4327 net.cpp:120] Setting up inception_5b/double3x3b
I0304 23:08:30.670642  4325 net.cpp:127] Top shape: 24 224 7 7 (263424)
I0304 23:08:30.670656  4325 layer_factory.hpp:74] Creating layer inception_5b/double3x3b
I0304 23:08:30.670667  4325 net.cpp:90] Creating Layer inception_5b/double3x3b
I0304 23:08:30.670675  4325 net.cpp:410] inception_5b/double3x3b <- inception_5b/double3x3a/bn
I0304 23:08:30.670685  4325 net.cpp:368] inception_5b/double3x3b -> inception_5b/double3x3b
I0304 23:08:30.670693  4325 net.cpp:120] Setting up inception_5b/double3x3b
I0304 23:08:30.670723  4326 cudnn_conv_data_layer.cpp:184] Reallocating workspace storage: 7788
I0304 23:08:30.670805  4326 net.cpp:127] Top shape: 24 224 7 7 (263424)
I0304 23:08:30.670824  4326 layer_factory.hpp:74] Creating layer inception_5b/double3x3a/bn
I0304 23:08:30.670840  4326 net.cpp:90] Creating Layer inception_5b/double3x3a/bn
I0304 23:08:30.670860  4326 net.cpp:410] inception_5b/double3x3a/bn <- inception_5b/double3x3a
I0304 23:08:30.670788  4328 cudnn_conv_data_layer.cpp:184] Reallocating workspace storage: 7788
I0304 23:08:30.670882  4326 net.cpp:368] inception_5b/double3x3a/bn -> inception_5b/double3x3a/bn
I0304 23:08:30.670903  4326 net.cpp:120] Setting up inception_5b/double3x3a/bn
I0304 23:08:30.670888  4328 net.cpp:127] Top shape: 24 224 7 7 (263424)
I0304 23:08:30.670908  4328 layer_factory.hpp:74] Creating layer inception_5b/double3x3a/bn
I0304 23:08:30.670927  4328 net.cpp:90] Creating Layer inception_5b/double3x3a/bn
I0304 23:08:30.670938  4328 net.cpp:410] inception_5b/double3x3a/bn <- inception_5b/double3x3a
I0304 23:08:30.670939  4326 bn_data_layer.cpp:60] scale: 1 1 1
I0304 23:08:30.670959  4328 net.cpp:368] inception_5b/double3x3a/bn -> inception_5b/double3x3a/bn
I0304 23:08:30.670964  4326 bn_data_layer.cpp:71] shift: 0 0 0
I0304 23:08:30.670979  4328 net.cpp:120] Setting up inception_5b/double3x3a/bn
I0304 23:08:30.670989  4326 bn_data_layer.cpp:80] mean: 0 0 0
I0304 23:08:30.671013  4326 bn_data_layer.cpp:89] variance: 0 0 0
I0304 23:08:30.671013  4328 bn_data_layer.cpp:60] scale: 1 1 1
I0304 23:08:30.671036  4328 bn_data_layer.cpp:71] shift: 0 0 0
I0304 23:08:30.671032  4326 net.cpp:127] Top shape: 24 224 7 7 (263424)
I0304 23:08:30.671056  4328 bn_data_layer.cpp:80] mean: 0 0 0
I0304 23:08:30.671052  4326 layer_factory.hpp:74] Creating layer inception_5b/relu_double3x3a
I0304 23:08:30.671080  4328 bn_data_layer.cpp:89] variance: 0 0 0
I0304 23:08:30.671072  4326 net.cpp:90] Creating Layer inception_5b/relu_double3x3a
I0304 23:08:30.671108  4326 net.cpp:410] inception_5b/relu_double3x3a <- inception_5b/double3x3a/bn
I0304 23:08:30.671103  4328 net.cpp:127] Top shape: 24 224 7 7 (263424)
I0304 23:08:30.671123  4328 layer_factory.hpp:74] Creating layer inception_5b/relu_double3x3a
I0304 23:08:30.671126  4326 net.cpp:357] inception_5b/relu_double3x3a -> inception_5b/double3x3a/bn (in-place)
I0304 23:08:30.671141  4326 net.cpp:120] Setting up inception_5b/relu_double3x3a
I0304 23:08:30.671138  4328 net.cpp:90] Creating Layer inception_5b/relu_double3x3a
I0304 23:08:30.671164  4328 net.cpp:410] inception_5b/relu_double3x3a <- inception_5b/double3x3a/bn
I0304 23:08:30.671185  4328 net.cpp:357] inception_5b/relu_double3x3a -> inception_5b/double3x3a/bn (in-place)
I0304 23:08:30.671200  4328 net.cpp:120] Setting up inception_5b/relu_double3x3a
I0304 23:08:30.671545  4326 net.cpp:127] Top shape: 24 224 7 7 (263424)
I0304 23:08:30.671566  4326 layer_factory.hpp:74] Creating layer inception_5b/double3x3b
I0304 23:08:30.671586  4326 net.cpp:90] Creating Layer inception_5b/double3x3b
I0304 23:08:30.671597  4326 net.cpp:410] inception_5b/double3x3b <- inception_5b/double3x3a/bn
I0304 23:08:30.671607  4328 net.cpp:127] Top shape: 24 224 7 7 (263424)
I0304 23:08:30.671622  4328 layer_factory.hpp:74] Creating layer inception_5b/double3x3b
I0304 23:08:30.671612  4326 net.cpp:368] inception_5b/double3x3b -> inception_5b/double3x3b
I0304 23:08:30.671628  4326 net.cpp:120] Setting up inception_5b/double3x3b
I0304 23:08:30.671643  4328 net.cpp:90] Creating Layer inception_5b/double3x3b
I0304 23:08:30.671654  4328 net.cpp:410] inception_5b/double3x3b <- inception_5b/double3x3a/bn
I0304 23:08:30.671669  4328 net.cpp:368] inception_5b/double3x3b -> inception_5b/double3x3b
I0304 23:08:30.671686  4328 net.cpp:120] Setting up inception_5b/double3x3b
I0304 23:08:30.677281  4325 cudnn_conv_data_layer.cpp:184] Reallocating workspace storage: 7788
I0304 23:08:30.677336  4327 cudnn_conv_data_layer.cpp:184] Reallocating workspace storage: 7788
I0304 23:08:30.677340  4325 net.cpp:127] Top shape: 24 224 7 7 (263424)
I0304 23:08:30.677356  4325 layer_factory.hpp:74] Creating layer inception_5b/double3x3b/bn
I0304 23:08:30.677372  4325 net.cpp:90] Creating Layer inception_5b/double3x3b/bn
I0304 23:08:30.677379  4325 net.cpp:410] inception_5b/double3x3b/bn <- inception_5b/double3x3b
I0304 23:08:30.677388  4325 net.cpp:368] inception_5b/double3x3b/bn -> inception_5b/double3x3b/bn
I0304 23:08:30.677400  4325 net.cpp:120] Setting up inception_5b/double3x3b/bn
I0304 23:08:30.677402  4327 net.cpp:127] Top shape: 24 224 7 7 (263424)
I0304 23:08:30.677410  4327 layer_factory.hpp:74] Creating layer inception_5b/double3x3b/bn
I0304 23:08:30.677423  4327 net.cpp:90] Creating Layer inception_5b/double3x3b/bn
I0304 23:08:30.677428  4327 net.cpp:410] inception_5b/double3x3b/bn <- inception_5b/double3x3b
I0304 23:08:30.677420  4325 bn_data_layer.cpp:60] scale: 1 1 1
I0304 23:08:30.677444  4325 bn_data_layer.cpp:71] shift: 0 0 0
I0304 23:08:30.677459  4325 bn_data_layer.cpp:80] mean: 0 0 0
I0304 23:08:30.677453  4327 net.cpp:368] inception_5b/double3x3b/bn -> inception_5b/double3x3b/bn
I0304 23:08:30.677461  4327 net.cpp:120] Setting up inception_5b/double3x3b/bn
I0304 23:08:30.677469  4325 bn_data_layer.cpp:89] variance: 0 0 0
I0304 23:08:30.677477  4325 net.cpp:127] Top shape: 24 224 7 7 (263424)
I0304 23:08:30.677480  4327 bn_data_layer.cpp:60] scale: 1 1 1
I0304 23:08:30.677487  4325 layer_factory.hpp:74] Creating layer inception_5b/relu_double3x3b
I0304 23:08:30.677497  4325 net.cpp:90] Creating Layer inception_5b/relu_double3x3b
I0304 23:08:30.677503  4325 net.cpp:410] inception_5b/relu_double3x3b <- inception_5b/double3x3b/bn
I0304 23:08:30.677492  4327 bn_data_layer.cpp:71] shift: 0 0 0
I0304 23:08:30.677503  4327 bn_data_layer.cpp:80] mean: 0 0 0
I0304 23:08:30.677512  4327 bn_data_layer.cpp:89] variance: 0 0 0
I0304 23:08:30.677521  4327 net.cpp:127] Top shape: 24 224 7 7 (263424)
I0304 23:08:30.677510  4325 net.cpp:357] inception_5b/relu_double3x3b -> inception_5b/double3x3b/bn (in-place)
I0304 23:08:30.677518  4325 net.cpp:120] Setting up inception_5b/relu_double3x3b
I0304 23:08:30.677532  4327 layer_factory.hpp:74] Creating layer inception_5b/relu_double3x3b
I0304 23:08:30.677541  4327 net.cpp:90] Creating Layer inception_5b/relu_double3x3b
I0304 23:08:30.677546  4327 net.cpp:410] inception_5b/relu_double3x3b <- inception_5b/double3x3b/bn
I0304 23:08:30.677553  4327 net.cpp:357] inception_5b/relu_double3x3b -> inception_5b/double3x3b/bn (in-place)
I0304 23:08:30.677561  4327 net.cpp:120] Setting up inception_5b/relu_double3x3b
I0304 23:08:30.677762  4325 net.cpp:127] Top shape: 24 224 7 7 (263424)
I0304 23:08:30.677774  4325 layer_factory.hpp:74] Creating layer inception_5b/pool
I0304 23:08:30.677781  4325 layer_factory.cpp:85] CUDNN does not support padding or multiple tops. Using Caffe's own pooling layer.
I0304 23:08:30.677788  4325 net.cpp:90] Creating Layer inception_5b/pool
I0304 23:08:30.677795  4325 net.cpp:410] inception_5b/pool <- inception_5a/output_inception_5a/output_0_split_3
I0304 23:08:30.677772  4327 net.cpp:127] Top shape: 24 224 7 7 (263424)
I0304 23:08:30.677780  4327 layer_factory.hpp:74] Creating layer inception_5b/pool
I0304 23:08:30.677786  4327 layer_factory.cpp:85] CUDNN does not support padding or multiple tops. Using Caffe's own pooling layer.
I0304 23:08:30.677793  4327 net.cpp:90] Creating Layer inception_5b/pool
I0304 23:08:30.677798  4327 net.cpp:410] inception_5b/pool <- inception_5a/output_inception_5a/output_0_split_3
I0304 23:08:30.677808  4327 net.cpp:368] inception_5b/pool -> inception_5b/pool
I0304 23:08:30.677815  4327 net.cpp:120] Setting up inception_5b/pool
I0304 23:08:30.677803  4325 net.cpp:368] inception_5b/pool -> inception_5b/pool
I0304 23:08:30.677811  4325 net.cpp:120] Setting up inception_5b/pool
I0304 23:08:30.677824  4327 net.cpp:127] Top shape: 24 1024 7 7 (1204224)
I0304 23:08:30.677829  4327 layer_factory.hpp:74] Creating layer inception_5b/pool_proj
I0304 23:08:30.677839  4327 net.cpp:90] Creating Layer inception_5b/pool_proj
I0304 23:08:30.677844  4327 net.cpp:410] inception_5b/pool_proj <- inception_5b/pool
I0304 23:08:30.677826  4325 net.cpp:127] Top shape: 24 1024 7 7 (1204224)
I0304 23:08:30.677832  4325 layer_factory.hpp:74] Creating layer inception_5b/pool_proj
I0304 23:08:30.677840  4325 net.cpp:90] Creating Layer inception_5b/pool_proj
I0304 23:08:30.677846  4325 net.cpp:410] inception_5b/pool_proj <- inception_5b/pool
I0304 23:08:30.677839  4326 cudnn_conv_data_layer.cpp:184] Reallocating workspace storage: 7788
I0304 23:08:30.677850  4327 net.cpp:368] inception_5b/pool_proj -> inception_5b/pool_proj
I0304 23:08:30.677856  4327 net.cpp:120] Setting up inception_5b/pool_proj
I0304 23:08:30.677855  4325 net.cpp:368] inception_5b/pool_proj -> inception_5b/pool_proj
I0304 23:08:30.677866  4325 net.cpp:120] Setting up inception_5b/pool_proj
I0304 23:08:30.677911  4326 net.cpp:127] Top shape: 24 224 7 7 (263424)
I0304 23:08:30.677955  4326 layer_factory.hpp:74] Creating layer inception_5b/double3x3b/bn
I0304 23:08:30.677971  4326 net.cpp:90] Creating Layer inception_5b/double3x3b/bn
I0304 23:08:30.677981  4326 net.cpp:410] inception_5b/double3x3b/bn <- inception_5b/double3x3b
I0304 23:08:30.677981  4328 cudnn_conv_data_layer.cpp:184] Reallocating workspace storage: 7788
I0304 23:08:30.677999  4326 net.cpp:368] inception_5b/double3x3b/bn -> inception_5b/double3x3b/bn
I0304 23:08:30.678014  4326 net.cpp:120] Setting up inception_5b/double3x3b/bn
I0304 23:08:30.678062  4328 net.cpp:127] Top shape: 24 224 7 7 (263424)
I0304 23:08:30.678072  4326 bn_data_layer.cpp:60] scale: 1 1 1
I0304 23:08:30.678082  4328 layer_factory.hpp:74] Creating layer inception_5b/double3x3b/bn
I0304 23:08:30.678099  4328 net.cpp:90] Creating Layer inception_5b/double3x3b/bn
I0304 23:08:30.678099  4326 bn_data_layer.cpp:71] shift: 0 0 0
I0304 23:08:30.678110  4328 net.cpp:410] inception_5b/double3x3b/bn <- inception_5b/double3x3b
I0304 23:08:30.678128  4328 net.cpp:368] inception_5b/double3x3b/bn -> inception_5b/double3x3b/bn
I0304 23:08:30.678120  4326 bn_data_layer.cpp:80] mean: 0 0 0
I0304 23:08:30.678140  4326 bn_data_layer.cpp:89] variance: 0 0 0
I0304 23:08:30.678145  4328 net.cpp:120] Setting up inception_5b/double3x3b/bn
I0304 23:08:30.678158  4326 net.cpp:127] Top shape: 24 224 7 7 (263424)
I0304 23:08:30.678174  4326 layer_factory.hpp:74] Creating layer inception_5b/relu_double3x3b
I0304 23:08:30.678179  4328 bn_data_layer.cpp:60] scale: 1 1 1
I0304 23:08:30.678190  4326 net.cpp:90] Creating Layer inception_5b/relu_double3x3b
I0304 23:08:30.678201  4326 net.cpp:410] inception_5b/relu_double3x3b <- inception_5b/double3x3b/bn
I0304 23:08:30.678201  4328 bn_data_layer.cpp:71] shift: 0 0 0
I0304 23:08:30.678213  4326 net.cpp:357] inception_5b/relu_double3x3b -> inception_5b/double3x3b/bn (in-place)
I0304 23:08:30.678217  4328 bn_data_layer.cpp:80] mean: 0 0 0
I0304 23:08:30.678228  4326 net.cpp:120] Setting up inception_5b/relu_double3x3b
I0304 23:08:30.678236  4328 bn_data_layer.cpp:89] variance: 0 0 0
I0304 23:08:30.678259  4328 net.cpp:127] Top shape: 24 224 7 7 (263424)
I0304 23:08:30.678277  4328 layer_factory.hpp:74] Creating layer inception_5b/relu_double3x3b
I0304 23:08:30.678289  4328 net.cpp:90] Creating Layer inception_5b/relu_double3x3b
I0304 23:08:30.678299  4328 net.cpp:410] inception_5b/relu_double3x3b <- inception_5b/double3x3b/bn
I0304 23:08:30.678314  4328 net.cpp:357] inception_5b/relu_double3x3b -> inception_5b/double3x3b/bn (in-place)
I0304 23:08:30.678328  4328 net.cpp:120] Setting up inception_5b/relu_double3x3b
I0304 23:08:30.678596  4326 net.cpp:127] Top shape: 24 224 7 7 (263424)
I0304 23:08:30.678617  4326 layer_factory.hpp:74] Creating layer inception_5b/pool
I0304 23:08:30.678627  4326 layer_factory.cpp:85] CUDNN does not support padding or multiple tops. Using Caffe's own pooling layer.
I0304 23:08:30.678637  4326 net.cpp:90] Creating Layer inception_5b/pool
I0304 23:08:30.678647  4326 net.cpp:410] inception_5b/pool <- inception_5a/output_inception_5a/output_0_split_3
I0304 23:08:30.678658  4326 net.cpp:368] inception_5b/pool -> inception_5b/pool
I0304 23:08:30.678671  4326 net.cpp:120] Setting up inception_5b/pool
I0304 23:08:30.678694  4328 net.cpp:127] Top shape: 24 224 7 7 (263424)
I0304 23:08:30.678688  4326 net.cpp:127] Top shape: 24 1024 7 7 (1204224)
I0304 23:08:30.678696  4326 layer_factory.hpp:74] Creating layer inception_5b/pool_proj
I0304 23:08:30.678709  4328 layer_factory.hpp:74] Creating layer inception_5b/pool
I0304 23:08:30.678719  4328 layer_factory.cpp:85] CUDNN does not support padding or multiple tops. Using Caffe's own pooling layer.
I0304 23:08:30.678730  4328 net.cpp:90] Creating Layer inception_5b/pool
I0304 23:08:30.678717  4326 net.cpp:90] Creating Layer inception_5b/pool_proj
I0304 23:08:30.678726  4326 net.cpp:410] inception_5b/pool_proj <- inception_5b/pool
I0304 23:08:30.678743  4326 net.cpp:368] inception_5b/pool_proj -> inception_5b/pool_proj
I0304 23:08:30.678738  4328 net.cpp:410] inception_5b/pool <- inception_5a/output_inception_5a/output_0_split_3
I0304 23:08:30.678750  4328 net.cpp:368] inception_5b/pool -> inception_5b/pool
I0304 23:08:30.678764  4328 net.cpp:120] Setting up inception_5b/pool
I0304 23:08:30.678757  4326 net.cpp:120] Setting up inception_5b/pool_proj
I0304 23:08:30.678779  4328 net.cpp:127] Top shape: 24 1024 7 7 (1204224)
I0304 23:08:30.678788  4328 layer_factory.hpp:74] Creating layer inception_5b/pool_proj
I0304 23:08:30.678804  4328 net.cpp:90] Creating Layer inception_5b/pool_proj
I0304 23:08:30.678813  4328 net.cpp:410] inception_5b/pool_proj <- inception_5b/pool
I0304 23:08:30.678828  4328 net.cpp:368] inception_5b/pool_proj -> inception_5b/pool_proj
I0304 23:08:30.678841  4328 net.cpp:120] Setting up inception_5b/pool_proj
I0304 23:08:30.680688  4327 cudnn_conv_data_layer.cpp:184] Reallocating workspace storage: 6780
I0304 23:08:30.680752  4327 net.cpp:127] Top shape: 24 128 7 7 (150528)
I0304 23:08:30.680762  4327 layer_factory.hpp:74] Creating layer inception_5b/pool_proj/bn
I0304 23:08:30.680785  4327 net.cpp:90] Creating Layer inception_5b/pool_proj/bn
I0304 23:08:30.680793  4327 net.cpp:410] inception_5b/pool_proj/bn <- inception_5b/pool_proj
I0304 23:08:30.680801  4327 net.cpp:368] inception_5b/pool_proj/bn -> inception_5b/pool_proj/bn
I0304 23:08:30.680811  4327 net.cpp:120] Setting up inception_5b/pool_proj/bn
I0304 23:08:30.680804  4325 cudnn_conv_data_layer.cpp:184] Reallocating workspace storage: 6780
I0304 23:08:30.680860  4325 net.cpp:127] Top shape: 24 128 7 7 (150528)
I0304 23:08:30.680871  4325 layer_factory.hpp:74] Creating layer inception_5b/pool_proj/bn
I0304 23:08:30.680881  4325 net.cpp:90] Creating Layer inception_5b/pool_proj/bn
I0304 23:08:30.680888  4325 net.cpp:410] inception_5b/pool_proj/bn <- inception_5b/pool_proj
I0304 23:08:30.680899  4325 net.cpp:368] inception_5b/pool_proj/bn -> inception_5b/pool_proj/bn
I0304 23:08:30.680909  4325 net.cpp:120] Setting up inception_5b/pool_proj/bn
I0304 23:08:30.680937  4327 bn_data_layer.cpp:60] scale: 1 1 1
I0304 23:08:30.680937  4325 bn_data_layer.cpp:60] scale: 1 1 1
I0304 23:08:30.680959  4325 bn_data_layer.cpp:71] shift: 0 0 0
I0304 23:08:30.680963  4327 bn_data_layer.cpp:71] shift: 0 0 0
I0304 23:08:30.680997  4325 bn_data_layer.cpp:80] mean: 0 0 0
I0304 23:08:30.680997  4327 bn_data_layer.cpp:80] mean: 0 0 0
I0304 23:08:30.681008  4325 bn_data_layer.cpp:89] variance: 0 0 0
I0304 23:08:30.681017  4325 net.cpp:127] Top shape: 24 128 7 7 (150528)
I0304 23:08:30.681011  4327 bn_data_layer.cpp:89] variance: 0 0 0
I0304 23:08:30.681020  4327 net.cpp:127] Top shape: 24 128 7 7 (150528)
I0304 23:08:30.681030  4327 layer_factory.hpp:74] Creating layer inception_5b/relu_pool_proj
I0304 23:08:30.681037  4327 net.cpp:90] Creating Layer inception_5b/relu_pool_proj
I0304 23:08:30.681030  4325 layer_factory.hpp:74] Creating layer inception_5b/relu_pool_proj
I0304 23:08:30.681038  4325 net.cpp:90] Creating Layer inception_5b/relu_pool_proj
I0304 23:08:30.681042  4327 net.cpp:410] inception_5b/relu_pool_proj <- inception_5b/pool_proj/bn
I0304 23:08:30.681049  4327 net.cpp:357] inception_5b/relu_pool_proj -> inception_5b/pool_proj/bn (in-place)
I0304 23:08:30.681044  4325 net.cpp:410] inception_5b/relu_pool_proj <- inception_5b/pool_proj/bn
I0304 23:08:30.681051  4325 net.cpp:357] inception_5b/relu_pool_proj -> inception_5b/pool_proj/bn (in-place)
I0304 23:08:30.681059  4325 net.cpp:120] Setting up inception_5b/relu_pool_proj
I0304 23:08:30.681056  4327 net.cpp:120] Setting up inception_5b/relu_pool_proj
I0304 23:08:30.681149  4328 cudnn_conv_data_layer.cpp:184] Reallocating workspace storage: 6780
I0304 23:08:30.681241  4328 net.cpp:127] Top shape: 24 128 7 7 (150528)
I0304 23:08:30.681264  4328 layer_factory.hpp:74] Creating layer inception_5b/pool_proj/bn
I0304 23:08:30.681288  4328 net.cpp:90] Creating Layer inception_5b/pool_proj/bn
I0304 23:08:30.681298  4328 net.cpp:410] inception_5b/pool_proj/bn <- inception_5b/pool_proj
I0304 23:08:30.681325  4328 net.cpp:368] inception_5b/pool_proj/bn -> inception_5b/pool_proj/bn
I0304 23:08:30.681320  4326 cudnn_conv_data_layer.cpp:184] Reallocating workspace storage: 6780
I0304 23:08:30.681344  4328 net.cpp:120] Setting up inception_5b/pool_proj/bn
I0304 23:08:30.681396  4326 net.cpp:127] Top shape: 24 128 7 7 (150528)
I0304 23:08:30.681414  4326 layer_factory.hpp:74] Creating layer inception_5b/pool_proj/bn
I0304 23:08:30.681428  4326 net.cpp:90] Creating Layer inception_5b/pool_proj/bn
I0304 23:08:30.681437  4326 net.cpp:410] inception_5b/pool_proj/bn <- inception_5b/pool_proj
I0304 23:08:30.681452  4326 net.cpp:368] inception_5b/pool_proj/bn -> inception_5b/pool_proj/bn
I0304 23:08:30.681468  4326 net.cpp:120] Setting up inception_5b/pool_proj/bn
I0304 23:08:30.681495  4326 bn_data_layer.cpp:60] scale: 1 1 1
I0304 23:08:30.681524  4326 bn_data_layer.cpp:71] shift: 0 0 0
I0304 23:08:30.681498  4328 bn_data_layer.cpp:60] scale: 1 1 1
I0304 23:08:30.681524  4328 bn_data_layer.cpp:71] shift: 0 0 0
I0304 23:08:30.681488  4327 net.cpp:127] Top shape: 24 128 7 7 (150528)
I0304 23:08:30.681500  4327 layer_factory.hpp:74] Creating layer inception_5b/output
I0304 23:08:30.681520  4327 net.cpp:90] Creating Layer inception_5b/output
I0304 23:08:30.681526  4327 net.cpp:410] inception_5b/output <- inception_5b/1x1/bn
I0304 23:08:30.681532  4327 net.cpp:410] inception_5b/output <- inception_5b/3x3/bn
I0304 23:08:30.681538  4327 net.cpp:410] inception_5b/output <- inception_5b/double3x3b/bn
I0304 23:08:30.681545  4327 net.cpp:410] inception_5b/output <- inception_5b/pool_proj/bn
I0304 23:08:30.681550  4327 net.cpp:368] inception_5b/output -> inception_5b/output
I0304 23:08:30.681558  4327 net.cpp:120] Setting up inception_5b/output
I0304 23:08:30.681553  4325 net.cpp:127] Top shape: 24 128 7 7 (150528)
I0304 23:08:30.681565  4325 layer_factory.hpp:74] Creating layer inception_5b/output
I0304 23:08:30.681576  4325 net.cpp:90] Creating Layer inception_5b/output
I0304 23:08:30.681563  4326 bn_data_layer.cpp:80] mean: 0 0 0
I0304 23:08:30.681560  4328 bn_data_layer.cpp:80] mean: 0 0 0
I0304 23:08:30.681567  4327 net.cpp:127] Top shape: 24 1024 7 7 (1204224)
I0304 23:08:30.681572  4327 layer_factory.hpp:74] Creating layer pool5/7x7_s1
I0304 23:08:30.681581  4327 net.cpp:90] Creating Layer pool5/7x7_s1
I0304 23:08:30.681586  4327 net.cpp:410] pool5/7x7_s1 <- inception_5b/output
I0304 23:08:30.681593  4327 net.cpp:368] pool5/7x7_s1 -> pool5/7x7_s1
I0304 23:08:30.681599  4327 net.cpp:120] Setting up pool5/7x7_s1
I0304 23:08:30.681583  4325 net.cpp:410] inception_5b/output <- inception_5b/1x1/bn
I0304 23:08:30.681591  4325 net.cpp:410] inception_5b/output <- inception_5b/3x3/bn
I0304 23:08:30.681597  4325 net.cpp:410] inception_5b/output <- inception_5b/double3x3b/bn
I0304 23:08:30.681603  4325 net.cpp:410] inception_5b/output <- inception_5b/pool_proj/bn
I0304 23:08:30.681610  4325 net.cpp:368] inception_5b/output -> inception_5b/output
I0304 23:08:30.681618  4325 net.cpp:120] Setting up inception_5b/output
I0304 23:08:30.681581  4326 bn_data_layer.cpp:89] variance: 0 0 0
I0304 23:08:30.681597  4326 net.cpp:127] Top shape: 24 128 7 7 (150528)
I0304 23:08:30.681618  4326 layer_factory.hpp:74] Creating layer inception_5b/relu_pool_proj
I0304 23:08:30.681587  4328 bn_data_layer.cpp:89] variance: 0 0 0
I0304 23:08:30.681602  4328 net.cpp:127] Top shape: 24 128 7 7 (150528)
I0304 23:08:30.681622  4328 layer_factory.hpp:74] Creating layer inception_5b/relu_pool_proj
I0304 23:08:30.681634  4328 net.cpp:90] Creating Layer inception_5b/relu_pool_proj
I0304 23:08:30.681632  4326 net.cpp:90] Creating Layer inception_5b/relu_pool_proj
I0304 23:08:30.681641  4326 net.cpp:410] inception_5b/relu_pool_proj <- inception_5b/pool_proj/bn
I0304 23:08:30.681627  4325 net.cpp:127] Top shape: 24 1024 7 7 (1204224)
I0304 23:08:30.681635  4325 layer_factory.hpp:74] Creating layer pool5/7x7_s1
I0304 23:08:30.681643  4325 net.cpp:90] Creating Layer pool5/7x7_s1
I0304 23:08:30.681648  4325 net.cpp:410] pool5/7x7_s1 <- inception_5b/output
I0304 23:08:30.681659  4325 net.cpp:368] pool5/7x7_s1 -> pool5/7x7_s1
I0304 23:08:30.681643  4328 net.cpp:410] inception_5b/relu_pool_proj <- inception_5b/pool_proj/bn
I0304 23:08:30.681654  4328 net.cpp:357] inception_5b/relu_pool_proj -> inception_5b/pool_proj/bn (in-place)
I0304 23:08:30.681653  4326 net.cpp:357] inception_5b/relu_pool_proj -> inception_5b/pool_proj/bn (in-place)
I0304 23:08:30.681666  4326 net.cpp:120] Setting up inception_5b/relu_pool_proj
I0304 23:08:30.681668  4325 net.cpp:120] Setting up pool5/7x7_s1
I0304 23:08:30.681666  4328 net.cpp:120] Setting up inception_5b/relu_pool_proj
I0304 23:08:30.681821  4327 net.cpp:127] Top shape: 24 1024 1 1 (24576)
I0304 23:08:30.681833  4327 layer_factory.hpp:74] Creating layer loss3/classifier_finetune
I0304 23:08:30.681843  4327 net.cpp:90] Creating Layer loss3/classifier_finetune
I0304 23:08:30.681848  4327 net.cpp:410] loss3/classifier_finetune <- pool5/7x7_s1
I0304 23:08:30.681856  4327 net.cpp:368] loss3/classifier_finetune -> loss3/classifier
I0304 23:08:30.681865  4327 net.cpp:120] Setting up loss3/classifier_finetune
I0304 23:08:30.681916  4325 net.cpp:127] Top shape: 24 1024 1 1 (24576)
I0304 23:08:30.681928  4325 layer_factory.hpp:74] Creating layer loss3/classifier_finetune
I0304 23:08:30.681939  4325 net.cpp:90] Creating Layer loss3/classifier_finetune
I0304 23:08:30.681946  4325 net.cpp:410] loss3/classifier_finetune <- pool5/7x7_s1
I0304 23:08:30.681956  4325 net.cpp:368] loss3/classifier_finetune -> loss3/classifier
I0304 23:08:30.681964  4325 net.cpp:120] Setting up loss3/classifier_finetune
I0304 23:08:30.682225  4326 net.cpp:127] Top shape: 24 128 7 7 (150528)
I0304 23:08:30.682246  4326 layer_factory.hpp:74] Creating layer inception_5b/output
I0304 23:08:30.682265  4326 net.cpp:90] Creating Layer inception_5b/output
I0304 23:08:30.682276  4326 net.cpp:410] inception_5b/output <- inception_5b/1x1/bn
I0304 23:08:30.682286  4326 net.cpp:410] inception_5b/output <- inception_5b/3x3/bn
I0304 23:08:30.682296  4326 net.cpp:410] inception_5b/output <- inception_5b/double3x3b/bn
I0304 23:08:30.682306  4326 net.cpp:410] inception_5b/output <- inception_5b/pool_proj/bn
I0304 23:08:30.682289  4328 net.cpp:127] Top shape: 24 128 7 7 (150528)
I0304 23:08:30.682304  4328 layer_factory.hpp:74] Creating layer inception_5b/output
I0304 23:08:30.682317  4326 net.cpp:368] inception_5b/output -> inception_5b/output
I0304 23:08:30.682330  4326 net.cpp:120] Setting up inception_5b/output
I0304 23:08:30.682320  4328 net.cpp:90] Creating Layer inception_5b/output
I0304 23:08:30.682329  4328 net.cpp:410] inception_5b/output <- inception_5b/1x1/bn
I0304 23:08:30.682340  4328 net.cpp:410] inception_5b/output <- inception_5b/3x3/bn
I0304 23:08:30.682350  4328 net.cpp:410] inception_5b/output <- inception_5b/double3x3b/bn
I0304 23:08:30.682360  4328 net.cpp:410] inception_5b/output <- inception_5b/pool_proj/bn
I0304 23:08:30.682345  4326 net.cpp:127] Top shape: 24 1024 7 7 (1204224)
I0304 23:08:30.682354  4326 layer_factory.hpp:74] Creating layer pool5/7x7_s1
I0304 23:08:30.682366  4326 net.cpp:90] Creating Layer pool5/7x7_s1
I0304 23:08:30.682375  4326 net.cpp:410] pool5/7x7_s1 <- inception_5b/output
I0304 23:08:30.682371  4328 net.cpp:368] inception_5b/output -> inception_5b/output
I0304 23:08:30.682384  4328 net.cpp:120] Setting up inception_5b/output
I0304 23:08:30.682390  4326 net.cpp:368] pool5/7x7_s1 -> pool5/7x7_s1
I0304 23:08:30.682404  4326 net.cpp:120] Setting up pool5/7x7_s1
I0304 23:08:30.682399  4328 net.cpp:127] Top shape: 24 1024 7 7 (1204224)
I0304 23:08:30.682407  4328 layer_factory.hpp:74] Creating layer pool5/7x7_s1
I0304 23:08:30.682420  4328 net.cpp:90] Creating Layer pool5/7x7_s1
I0304 23:08:30.682428  4328 net.cpp:410] pool5/7x7_s1 <- inception_5b/output
I0304 23:08:30.682443  4328 net.cpp:368] pool5/7x7_s1 -> pool5/7x7_s1
I0304 23:08:30.682456  4328 net.cpp:120] Setting up pool5/7x7_s1
I0304 23:08:30.682742  4327 net.cpp:127] Top shape: 96 101 (9696)
I0304 23:08:30.682765  4327 layer_factory.hpp:74] Creating layer loss3/classifier_loss3/classifier_finetune_0_split
I0304 23:08:30.682773  4327 net.cpp:90] Creating Layer loss3/classifier_loss3/classifier_finetune_0_split
I0304 23:08:30.682778  4327 net.cpp:410] loss3/classifier_loss3/classifier_finetune_0_split <- loss3/classifier
I0304 23:08:30.682787  4327 net.cpp:368] loss3/classifier_loss3/classifier_finetune_0_split -> loss3/classifier_loss3/classifier_finetune_0_split_0
I0304 23:08:30.682796  4327 net.cpp:368] loss3/classifier_loss3/classifier_finetune_0_split -> loss3/classifier_loss3/classifier_finetune_0_split_1
I0304 23:08:30.682801  4327 net.cpp:120] Setting up loss3/classifier_loss3/classifier_finetune_0_split
I0304 23:08:30.682808  4327 net.cpp:127] Top shape: 96 101 (9696)
I0304 23:08:30.682813  4327 net.cpp:127] Top shape: 96 101 (9696)
I0304 23:08:30.682766  4326 net.cpp:127] Top shape: 24 1024 1 1 (24576)
I0304 23:08:30.682793  4326 layer_factory.hpp:74] Creating layer loss3/classifier_finetune
I0304 23:08:30.682808  4326 net.cpp:90] Creating Layer loss3/classifier_finetune
I0304 23:08:30.682821  4327 layer_factory.hpp:74] Creating layer loss
I0304 23:08:30.682829  4327 net.cpp:90] Creating Layer loss
I0304 23:08:30.682828  4326 net.cpp:410] loss3/classifier_finetune <- pool5/7x7_s1
I0304 23:08:30.682834  4327 net.cpp:410] loss <- loss3/classifier_loss3/classifier_finetune_0_split_0
I0304 23:08:30.682839  4327 net.cpp:410] loss <- label_Gather_label_0_split_0
I0304 23:08:30.682844  4326 net.cpp:368] loss3/classifier_finetune -> loss3/classifier
I0304 23:08:30.682842  4328 net.cpp:127] Top shape: 24 1024 1 1 (24576)
I0304 23:08:30.682847  4327 net.cpp:368] loss -> loss
I0304 23:08:30.682853  4327 net.cpp:120] Setting up loss
I0304 23:08:30.682860  4327 layer_factory.hpp:74] Creating layer loss
I0304 23:08:30.682855  4328 layer_factory.hpp:74] Creating layer loss3/classifier_finetune
I0304 23:08:30.682859  4326 net.cpp:120] Setting up loss3/classifier_finetune
I0304 23:08:30.682871  4328 net.cpp:90] Creating Layer loss3/classifier_finetune
I0304 23:08:30.682881  4328 net.cpp:410] loss3/classifier_finetune <- pool5/7x7_s1
I0304 23:08:30.682896  4328 net.cpp:368] loss3/classifier_finetune -> loss3/classifier
I0304 23:08:30.682911  4328 net.cpp:120] Setting up loss3/classifier_finetune
I0304 23:08:30.682986  4325 net.cpp:127] Top shape: 96 101 (9696)
I0304 23:08:30.682997  4325 layer_factory.hpp:74] Creating layer loss3/classifier_loss3/classifier_finetune_0_split
I0304 23:08:30.683006  4325 net.cpp:90] Creating Layer loss3/classifier_loss3/classifier_finetune_0_split
I0304 23:08:30.683012  4325 net.cpp:410] loss3/classifier_loss3/classifier_finetune_0_split <- loss3/classifier
I0304 23:08:30.683018  4325 net.cpp:368] loss3/classifier_loss3/classifier_finetune_0_split -> loss3/classifier_loss3/classifier_finetune_0_split_0
I0304 23:08:30.683027  4325 net.cpp:368] loss3/classifier_loss3/classifier_finetune_0_split -> loss3/classifier_loss3/classifier_finetune_0_split_1
I0304 23:08:30.683034  4325 net.cpp:120] Setting up loss3/classifier_loss3/classifier_finetune_0_split
I0304 23:08:30.683044  4325 net.cpp:127] Top shape: 96 101 (9696)
I0304 23:08:30.683050  4325 net.cpp:127] Top shape: 96 101 (9696)
I0304 23:08:30.683055  4325 layer_factory.hpp:74] Creating layer loss
I0304 23:08:30.683063  4325 net.cpp:90] Creating Layer loss
I0304 23:08:30.683069  4325 net.cpp:410] loss <- loss3/classifier_loss3/classifier_finetune_0_split_0
I0304 23:08:30.683075  4325 net.cpp:410] loss <- label_Gather_label_0_split_0
I0304 23:08:30.683085  4325 net.cpp:368] loss -> loss
I0304 23:08:30.683094  4325 net.cpp:120] Setting up loss
…
