…
  include {
    phase: TRAIN
  }
  transform_param {
    mirror: true
    crop_size: 227
    mean_value: 103.939
    mean_value: 116.779
    mean_value: 123.68
    fix_crop: false
    multi_scale: true
    scale_ratios: 1
    scale_ratios: 0.875
    scale_ratios: 0.75
    is_flow: false
  }
  video_data_param {
    source: "/data2/action/rgb/list/train_video.txt"
    batch_size: 32
    shuffle: true
    new_height: 240
    new_width: 320
    modality: RGB
    root_folder: "/data2/action/rgb/"
    seq_length: 16
    stride_seq: 6
    eval_last: true
  }
}
layer {
  name: "conv1"
  type: "ConvolutionData"
  bottom: "data"
  top: "conv1"
  param {
    lr_mult: 1
    decay_mult: 1
  }
  param {
    lr_mult: 2
    decay_mult: 0
  }
  convolution_param {
    num_output: 96
    kernel_size: 7
    stride: 2
    weight_filler {
      type: "gaussian"
      std: 0.01
    }
    bias_filler {
      type: "constant"
      value: 0.1
    }
  }
}
layer {
  name: "bn1"
  type: "BNData"
  bottom: "conv1"
  top: "conv1/bn"
  param {
    lr_mult: 1
    decay_mult: 0
  }
  param {
    lr_mult: 1
    decay_mult: 0
  }
  param {
    lr_mult: 0
    decay_mult: 0
  }
  param {
    lr_mult: 0
    decay_mult: 0
  }
  bn_param {
    scale_filler {
      type: "constant"
      value: 1
    }
    shift_filler {
      type: "constant"
      value: 0
    }
    moving_average: true
    decay: 0.05
  }
}
layer {
  name: "relu1"
  type: "ReLU"
  bottom: "conv1/bn"
  top: "conv1/bn"
}
layer {
  name: "pool1"
  type: "Pooling"
  bottom: "conv1/bn"
  top: "pool1"
  pooling_param {
    pool: MAX
    kernel_size: 3
    stride: 2
  }
}
layer {
  name: "norm1"
  type: "LRN"
  bottom: "pool1"
  top: "norm1"
  lrn_param {
    local_size: 5
    alpha: 0.0001
    beta: 0.75
  }
}
layer {
  name: "conv2"
  type: "ConvolutionData"
  bottom: "norm1"
  top: "conv2"
  param {
    lr_mult: 1
    decay_mult: 1
  }
  param {
    lr_mult: 2
    decay_mult: 0
  }
  convolution_param {
    num_output: 384
    kernel_size: 5
    group: 2
    stride: 2
    weight_filler {
      type: "gaussian"
      std: 0.01
    }
    bias_filler {
      type: "constant"
      value: 0.1
    }
  }
}
layer {
  name: "bn2"
  type: "BNData"
  bottom: "conv2"
  top: "conv2/bn"
  param {
    lr_mult: 1
    decay_mult: 0
  }
  param {
    lr_mult: 1
    decay_mult: 0
  }
  param {
    lr_mult: 0
    decay_mult: 0
  }
  param {
    lr_mult: 0
    decay_mult: 0
  }
  bn_param {
    scale_filler {
      type: "constant"
      value: 1
    }
    shift_filler {
      type: "constant"
      value: 0
    }
    moving_average: true
    decay: 0.05
  }
}
layer {
  name: "relu2"
  type: "ReLU"
  bottom: "conv2/bn"
  top: "conv2/bn"
}
layer {
  name: "pool2"
  type: "Pooling"
  bottom: "conv2/bn"
  top: "pool2"
  pooling_param {
    pool: MAX
    kernel_size: 3
    stride: 2
  }
}
layer {
  name: "norm2"
  type: "LRN"
  bottom: "pool2"
  top: "norm2"
  lrn_param {
    local_size: 5
    alpha: 0.0001
    beta: 0.75
  }
}
layer {
  name: "conv3"
  type: "ConvolutionData"
  bottom: "norm2"
  top: "conv3"
  param {
    lr_mult: 1
    decay_mult: 1
  }
  param {
    lr_mult: 2
    decay_mult: 0
  }
  convolution_param {
    num_output: 512
    pad: 1
    kernel_size: 3
    weight_filler {
      type: "gaussian"
      std: 0.01
    }
    bias_filler {
      type: "constant"
      value: 0.1
    }
  }
}
layer {
  name: "bn3"
  type: "BNData"
  bottom: "conv3"
  top: "conv3/bn"
  param {
    lr_mult: 1
    decay_mult: 0
  }
  param {
    lr_mult: 1
    decay_mult: 0
  }
  param {
    lr_mult: 0
    decay_mult: 0
  }
  param {
    lr_mult: 0
    decay_mult: 0
  }
  bn_param {
    scale_filler {
      type: "constant"
      value: 1
    }
    shift_filler {
      type: "constant"
      value: 0
    }
    moving_average: true
    decay: 0.05
  }
}
layer {
  name: "relu3"
  type: "ReLU"
  bottom: "conv3/bn"
  top: "conv3/bn"
}
layer {
  name: "conv4"
  type: "ConvolutionData"
  bottom: "conv3/bn"
  top: "conv4"
  param {
    lr_mult: 1
    decay_mult: 1
  }
  param {
    lr_mult: 2
    decay_mult: 0
  }
  convolution_param {
    num_output: 512
    pad: 1
    kernel_size: 3
    group: 2
    weight_filler {
      type: "gaussian"
      std: 0.01
    }
    bias_filler {
      type: "constant"
      value: 0.1
    }
  }
}
layer {
  name: "bn4"
  type: "BNData"
  bottom: "conv4"
  top: "conv4/bn"
  param {
    lr_mult: 1
    decay_mult: 0
  }
  param {
    lr_mult: 1
    decay_mult: 0
  }
  param {
    lr_mult: 0
    decay_mult: 0
  }
  param {
    lr_mult: 0
    decay_mult: 0
  }
  bn_param {
    scale_filler {
      type: "constant"
      value: 1
    }
    shift_filler {
      type: "constant"
      value: 0
    }
    moving_average: true
    decay: 0.05
  }
}
layer {
  name: "relu4"
  type: "ReLU"
  bottom: "conv4/bn"
  top: "conv4/bn"
}
layer {
  name: "conv5"
  type: "ConvolutionData"
  bottom: "conv4/bn"
  top: "conv5"
  param {
    lr_mult: 1
    decay_mult: 1
  }
  param {
    lr_mult: 2
    decay_mult: 0
  }
  convolution_param {
    num_output: 384
    pad: 1
    kernel_size: 3
    group: 2
    weight_filler {
      type: "gaussian"
      std: 0.01
    }
    bias_filler {
      type: "constant"
      value: 0.1
    }
  }
}
layer {
  name: "bn5"
  type: "BNData"
  bottom: "conv5"
  top: "conv5/bn"
  param {
    lr_mult: 1
    decay_mult: 0
  }
  param {
    lr_mult: 1
    decay_mult: 0
  }
  param {
    lr_mult: 0
    decay_mult: 0
  }
  param {
    lr_mult: 0
    decay_mult: 0
  }
  bn_param {
    scale_filler {
      type: "constant"
      value: 1
    }
    shift_filler {
      type: "constant"
      value: 0
    }
    moving_average: true
    decay: 0.05
  }
}
layer {
  name: "relu5"
  type: "ReLU"
  bottom: "conv5/bn"
  top: "conv5/bn"
}
layer {
  name: "pool5"
  type: "Pooling"
  bottom: "conv5/bn"
  top: "pool5"
  pooling_param {
    pool: MAX
    kernel_size: 3
    stride: 2
  }
}
layer {
  name: "fc6"
  type: "InnerProduct"
  bottom: "pool5"
  top: "fc6"
  param {
    lr_mult: 1
    decay_mult: 1
  }
  param {
    lr_mult: 2
    decay_mult: 0
  }
  inner_product_param {
    num_output: 4096
    weight_filler {
      type: "gaussian"
      std: 0.01
    }
    bias_filler {
      type: "constant"
      value: 0.1
    }
  }
}
layer {
  name: "relu6"
  type: "ReLU"
  bottom: "fc6"
  top: "fc6"
}
layer {
  name: "drop6"
  type: "Dropout"
  bottom: "fc6"
  top: "fc6"
  dropout_param {
    dropout_ratio: 0.5
  }
}
layer {
  name: "reshape_data"
  type: "Reshape"
  bottom: "fc6"
  top: "data_reshape"
  reshape_param {
    shape {
      dim: 16
      dim: -1
      dim: 4096
    }
  }
}
layer {
  name: "lstm"
  type: "SLLSTM"
  bottom: "data_reshape"
  bottom: "clip_marker"
  top: "lstm"
  param {
    lr_mult: 1
    decay_mult: 1
  }
  param {
    lr_mult: 2
    decay_mult: 0
  }
  param {
    lr_mult: 1
    decay_mult: 1
  }
  recurrent_param {
    num_output: 512
    weight_filler {
      type: "gaussian"
      std: 0.01
    }
    bias_filler {
      type: "constant"
      value: 0
    }
  }
}
layer {
  name: "lstm_drop"
  type: "Dropout"
  bottom: "lstm"
  top: "lstm_drop"
  dropout_param {
    dropout_ratio: 0.5
  }
}
layer {
  name: "reverse"
  type: "Reverse"
  bottom: "clip_marker"
  bottom: "data_reshape"
  top: "inv_lstm_input"
}
layer {
  name: "invlstm"
  type: "SLLSTM"
  bottom: "inv_lstm_input"
  bottom: "clip_marker"
  top: "inv_lstm"
  param {
    lr_mult: 1
    decay_mult: 1
  }
  param {
    lr_mult: 2
    decay_mult: 0
  }
  param {
    lr_mult: 1
    decay_mult: 1
  }
  recurrent_param {
    num_output: 512
    weight_filler {
      type: "gaussian"
      std: 0.01
    }
    bias_filler {
      type: "constant"
      value: 0
    }
  }
}
layer {
  name: "inv_lstm_drop"
  type: "Dropout"
  bottom: "inv_lstm"
  top: "inv_lstm_drop"
  dropout_param {
    dropout_ratio: 0.5
  }
}
layer {
  name: "reverse"
  type: "Reverse"
  bottom: "clip_marker"
  bottom: "inv_lstm_drop"
  top: "inv_lstm_output"
}
layer {
  name: "concat"
  type: "Concat"
  bottom: "lstm_drop"
  bottom: "inv_lstm_output"
  top: "lstm_concat"
  concat_param {
    axis: 2
  }
}
layer {
  name: "fc8_final"
  type: "InnerProduct"
  bottom: "lstm_concat"
  top: "fc8_final"
  param {
    lr_mult: 1
    decay_mult: 1
  }
  param {
    lr_mult: 2
    decay_mult: 0
  }
  inner_product_param {
    num_output: 12
    weight_filler {
      type: "gaussian"
      std: 0.01
    }
    bias_filler {
      type: "constant"
      value: 0
    }
    axis: 2
  }
}
layer {
  name: "loss"
  type: "SoftmaxWithLoss"
  bottom: "fc8_final"
  bottom: "label"
  top: "loss"
  loss_param {
    ignore_label: -1
  }
  softmax_param {
    axis: 2
  }
}
layer {
  name: "accuracy"
  type: "Accuracy"
  bottom: "fc8_final"
  bottom: "label"
  top: "accuracy"
  accuracy_param {
    axis: 2
    ignore_label: -1
  }
}
layer {
  name: "accuracy_top2"
  type: "Accuracy"
  bottom: "fc8_final"
  bottom: "label"
  top: "accuracy_top2"
  accuracy_param {
    top_k: 2
    axis: 2
    ignore_label: -1
  }
}
I0406 18:07:58.716547 86685 layer_factory.hpp:74] Creating layer data
I0406 18:07:58.716595 86685 net.cpp:90] Creating Layer data
I0406 18:07:58.716603 86685 net.cpp:368] data -> data
I0406 18:07:58.716651 86685 net.cpp:368] data -> label
I0406 18:07:58.716663 86685 net.cpp:368] data -> clip_marker
…
  include {
    phase: TRAIN
  }
  transform_param {
    mirror: true
    crop_size: 227
    mean_value: 103.939
    mean_value: 116.779
    mean_value: 123.68
    fix_crop: false
    multi_scale: true
    scale_ratios: 1
    scale_ratios: 0.875
    scale_ratios: 0.75
    is_flow: false
  }
  video_data_param {
    source: "/data2/action/rgb/list/train_video.txt"
    batch_size: 32
    shuffle: true
    new_height: 240
    new_width: 320
    modality: RGB
    root_folder: "/data2/action/rgb/"
    seq_length: 16
    stride_seq: 6
    eval_last: true
  }
}
layer {
  name: "conv1"
  type: "ConvolutionData"
  bottom: "data"
  top: "conv1"
  param {
    lr_mult: 1
    decay_mult: 1
  }
  param {
    lr_mult: 2
    decay_mult: 0
  }
  convolution_param {
    num_output: 96
    kernel_size: 7
    stride: 2
    weight_filler {
      type: "gaussian"
      std: 0.01
    }
    bias_filler {
      type: "constant"
      value: 0.1
    }
  }
}
layer {
  name: "bn1"
  type: "BNData"
  bottom: "conv1"
  top: "conv1/bn"
  param {
    lr_mult: 1
    decay_mult: 0
  }
  param {
    lr_mult: 1
    decay_mult: 0
  }
  param {
    lr_mult: 0
    decay_mult: 0
  }
  param {
    lr_mult: 0
    decay_mult: 0
  }
  bn_param {
    scale_filler {
      type: "constant"
      value: 1
    }
    shift_filler {
      type: "constant"
      value: 0
    }
    moving_average: true
    decay: 0.05
  }
}
layer {
  name: "relu1"
  type: "ReLU"
  bottom: "conv1/bn"
  top: "conv1/bn"
}
layer {
  name: "pool1"
  type: "Pooling"
  bottom: "conv1/bn"
  top: "pool1"
  pooling_param {
    pool: MAX
    kernel_size: 3
    stride: 2
  }
}
layer {
  name: "norm1"
  type: "LRN"
  bottom: "pool1"
  top: "norm1"
  lrn_param {
    local_size: 5
    alpha: 0.0001
    beta: 0.75
  }
}
layer {
  name: "conv2"
  type: "ConvolutionData"
  bottom: "norm1"
  top: "conv2"
  param {
    lr_mult: 1
    decay_mult: 1
  }
  param {
    lr_mult: 2
    decay_mult: 0
  }
  convolution_param {
    num_output: 384
    kernel_size: 5
    group: 2
    stride: 2
    weight_filler {
      type: "gaussian"
      std: 0.01
    }
    bias_filler {
      type: "constant"
      value: 0.1
    }
  }
}
layer {
  name: "bn2"
  type: "BNData"
  bottom: "conv2"
  top: "conv2/bn"
  param {
    lr_mult: 1
    decay_mult: 0
  }
  param {
    lr_mult: 1
    decay_mult: 0
  }
  param {
    lr_mult: 0
    decay_mult: 0
  }
  param {
    lr_mult: 0
    decay_mult: 0
  }
  bn_param {
    scale_filler {
      type: "constant"
      value: 1
    }
    shift_filler {
      type: "constant"
      value: 0
    }
    moving_average: true
    decay: 0.05
  }
}
layer {
  name: "relu2"
  type: "ReLU"
  bottom: "conv2/bn"
  top: "conv2/bn"
}
layer {
  name: "pool2"
  type: "Pooling"
  bottom: "conv2/bn"
  top: "pool2"
  pooling_param {
    pool: MAX
    kernel_size: 3
    stride: 2
  }
}
layer {
  name: "norm2"
  type: "LRN"
  bottom: "pool2"
  top: "norm2"
  lrn_param {
    local_size: 5
    alpha: 0.0001
    beta: 0.75
  }
}
layer {
  name: "conv3"
  type: "ConvolutionData"
  bottom: "norm2"
  top: "conv3"
  param {
    lr_mult: 1
    decay_mult: 1
  }
  param {
    lr_mult: 2
    decay_mult: 0
  }
  convolution_param {
    num_output: 512
    pad: 1
    kernel_size: 3
    weight_filler {
      type: "gaussian"
      std: 0.01
    }
    bias_filler {
      type: "constant"
      value: 0.1
    }
  }
}
layer {
  name: "bn3"
  type: "BNData"
  bottom: "conv3"
  top: "conv3/bn"
  param {
    lr_mult: 1
    decay_mult: 0
  }
  param {
    lr_mult: 1
    decay_mult: 0
  }
  param {
    lr_mult: 0
    decay_mult: 0
  }
  param {
    lr_mult: 0
    decay_mult: 0
  }
  bn_param {
    scale_filler {
      type: "constant"
      value: 1
    }
    shift_filler {
      type: "constant"
      value: 0
    }
    moving_average: true
    decay: 0.05
  }
}
layer {
  name: "relu3"
  type: "ReLU"
  bottom: "conv3/bn"
  top: "conv3/bn"
}
layer {
  name: "conv4"
  type: "ConvolutionData"
  bottom: "conv3/bn"
  top: "conv4"
  param {
    lr_mult: 1
    decay_mult: 1
  }
  param {
    lr_mult: 2
    decay_mult: 0
  }
  convolution_param {
    num_output: 512
    pad: 1
    kernel_size: 3
    group: 2
    weight_filler {
      type: "gaussian"
      std: 0.01
    }
    bias_filler {
      type: "constant"
      value: 0.1
    }
  }
}
layer {
  name: "bn4"
  type: "BNData"
  bottom: "conv4"
  top: "conv4/bn"
  param {
    lr_mult: 1
    decay_mult: 0
  }
  param {
    lr_mult: 1
    decay_mult: 0
  }
  param {
    lr_mult: 0
    decay_mult: 0
  }
  param {
    lr_mult: 0
    decay_mult: 0
  }
  bn_param {
    scale_filler {
      type: "constant"
      value: 1
    }
    shift_filler {
      type: "constant"
      value: 0
    }
    moving_average: true
    decay: 0.05
  }
}
layer {
  name: "relu4"
  type: "ReLU"
  bottom: "conv4/bn"
  top: "conv4/bn"
}
layer {
  name: "conv5"
  type: "ConvolutionData"
  bottom: "conv4/bn"
  top: "conv5"
  param {
    lr_mult: 1
    decay_mult: 1
  }
  param {
    lr_mult: 2
    decay_mult: 0
  }
  convolution_param {
    num_output: 384
    pad: 1
    kernel_size: 3
    group: 2
    weight_filler {
      type: "gaussian"
      std: 0.01
    }
    bias_filler {
      type: "constant"
      value: 0.1
    }
  }
}
layer {
  name: "bn5"
  type: "BNData"
  bottom: "conv5"
  top: "conv5/bn"
  param {
    lr_mult: 1
    decay_mult: 0
  }
  param {
    lr_mult: 1
    decay_mult: 0
  }
  param {
    lr_mult: 0
    decay_mult: 0
  }
  param {
    lr_mult: 0
    decay_mult: 0
  }
  bn_param {
    scale_filler {
      type: "constant"
      value: 1
    }
    shift_filler {
      type: "constant"
      value: 0
    }
    moving_average: true
    decay: 0.05
  }
}
layer {
  name: "relu5"
  type: "ReLU"
  bottom: "conv5/bn"
  top: "conv5/bn"
}
layer {
  name: "pool5"
  type: "Pooling"
  bottom: "conv5/bn"
  top: "pool5"
  pooling_param {
    pool: MAX
    kernel_size: 3
    stride: 2
  }
}
layer {
  name: "fc6"
  type: "InnerProduct"
  bottom: "pool5"
  top: "fc6"
  param {
    lr_mult: 1
    decay_mult: 1
  }
  param {
    lr_mult: 2
    decay_mult: 0
  }
  inner_product_param {
    num_output: 4096
    weight_filler {
      type: "gaussian"
      std: 0.01
    }
    bias_filler {
      type: "constant"
      value: 0.1
    }
  }
}
layer {
  name: "relu6"
  type: "ReLU"
  bottom: "fc6"
  top: "fc6"
}
layer {
  name: "drop6"
  type: "Dropout"
  bottom: "fc6"
  top: "fc6"
  dropout_param {
    dropout_ratio: 0.5
  }
}
layer {
  name: "reshape_data"
  type: "Reshape"
  bottom: "fc6"
  top: "data_reshape"
  reshape_param {
    shape {
      dim: 16
      dim: -1
      dim: 4096
    }
  }
}
layer {
  name: "lstm"
  type: "SLLSTM"
  bottom: "data_reshape"
  bottom: "clip_marker"
  top: "lstm"
  param {
    lr_mult: 1
    decay_mult: 1
  }
  param {
    lr_mult: 2
    decay_mult: 0
  }
  param {
    lr_mult: 1
    decay_mult: 1
  }
  recurrent_param {
    num_output: 512
    weight_filler {
      type: "gaussian"
      std: 0.01
    }
    bias_filler {
      type: "constant"
      value: 0
    }
  }
}
layer {
  name: "lstm_drop"
  type: "Dropout"
  bottom: "lstm"
  top: "lstm_drop"
  dropout_param {
    dropout_ratio: 0.5
  }
}
layer {
  name: "reverse"
  type: "Reverse"
  bottom: "clip_marker"
  bottom: "data_reshape"
  top: "inv_lstm_input"
}
layer {
  name: "invlstm"
  type: "SLLSTM"
  bottom: "inv_lstm_input"
  bottom: "clip_marker"
  top: "inv_lstm"
  param {
    lr_mult: 1
    decay_mult: 1
  }
  param {
    lr_mult: 2
    decay_mult: 0
  }
  param {
    lr_mult: 1
    decay_mult: 1
  }
  recurrent_param {
    num_output: 512
    weight_filler {
      type: "gaussian"
      std: 0.01
    }
    bias_filler {
      type: "constant"
      value: 0
    }
  }
}
layer {
  name: "inv_lstm_drop"
  type: "Dropout"
  bottom: "inv_lstm"
  top: "inv_lstm_drop"
  dropout_param {
    dropout_ratio: 0.5
  }
}
layer {
  name: "reverse"
  type: "Reverse"
  bottom: "clip_marker"
  bottom: "inv_lstm_drop"
  top: "inv_lstm_output"
}
layer {
  name: "concat"
  type: "Concat"
  bottom: "lstm_drop"
  bottom: "inv_lstm_output"
  top: "lstm_concat"
  concat_param {
    axis: 2
  }
}
layer {
  name: "fc8_final"
  type: "InnerProduct"
  bottom: "lstm_concat"
  top: "fc8_final"
  param {
    lr_mult: 1
    decay_mult: 1
  }
  param {
    lr_mult: 2
    decay_mult: 0
  }
  inner_product_param {
    num_output: 12
    weight_filler {
      type: "gaussian"
      std: 0.01
    }
    bias_filler {
      type: "constant"
      value: 0
    }
    axis: 2
  }
}
layer {
  name: "loss"
  type: "SoftmaxWithLoss"
  bottom: "fc8_final"
  bottom: "label"
  top: "loss"
  loss_param {
    ignore_label: -1
  }
  softmax_param {
    axis: 2
  }
}
layer {
  name: "accuracy"
  type: "Accuracy"
  bottom: "fc8_final"
  bottom: "label"
  top: "accuracy"
  accuracy_param {
    axis: 2
    ignore_label: -1
  }
}
layer {
  name: "accuracy_top2"
  type: "Accuracy"
  bottom: "fc8_final"
  bottom: "label"
  top: "accuracy_top2"
  accuracy_param {
    top_k: 2
    axis: 2
    ignore_label: -1
  }
}
I0406 18:07:58.720185 86686 layer_factory.hpp:74] Creating layer data
I0406 18:07:58.720217 86686 net.cpp:90] Creating Layer data
I0406 18:07:58.720237 86686 net.cpp:368] data -> data
I0406 18:07:58.720257 86686 net.cpp:368] data -> label
I0406 18:07:58.720273 86686 net.cpp:368] data -> clip_marker
I0406 18:07:58.720283 86686 net.cpp:120] Setting up data
I0406 18:07:58.720314 86686 video_data_rnn_layer.cpp:42] Opening file: /data2/action/rgb/list/train_video.txt
I0406 18:07:58.720469 86686 video_data_rnn_layer.cpp:58] A total of 180 videos.
I0406 18:07:58.762903 86685 net.cpp:127] Top shape: 256 3 227 227 (39574272)
I0406 18:07:58.762950 86685 net.cpp:127] Top shape: 16 16 1 (256)
I0406 18:07:58.762960 86685 net.cpp:127] Top shape: 16 16 1 (256)
I0406 18:07:58.762971 86685 layer_factory.hpp:74] Creating layer label_data_1_split
I0406 18:07:58.762989 86685 net.cpp:90] Creating Layer label_data_1_split
I0406 18:07:58.763000 86685 net.cpp:410] label_data_1_split <- label
I0406 18:07:58.763031 86685 net.cpp:368] label_data_1_split -> label_data_1_split_0
I0406 18:07:58.763051 86685 net.cpp:368] label_data_1_split -> label_data_1_split_1
I0406 18:07:58.763065 86685 net.cpp:368] label_data_1_split -> label_data_1_split_2
I0406 18:07:58.763106 86685 net.cpp:120] Setting up label_data_1_split
I0406 18:07:58.763139 86685 net.cpp:127] Top shape: 16 16 1 (256)
I0406 18:07:58.763164 86685 net.cpp:127] Top shape: 16 16 1 (256)
I0406 18:07:58.763180 86685 net.cpp:127] Top shape: 16 16 1 (256)
I0406 18:07:58.763188 86685 layer_factory.hpp:74] Creating layer clip_marker_data_2_split
I0406 18:07:58.763206 86685 net.cpp:90] Creating Layer clip_marker_data_2_split
I0406 18:07:58.763216 86685 net.cpp:410] clip_marker_data_2_split <- clip_marker
I0406 18:07:58.763229 86685 net.cpp:368] clip_marker_data_2_split -> clip_marker_data_2_split_0
I0406 18:07:58.763247 86685 net.cpp:368] clip_marker_data_2_split -> clip_marker_data_2_split_1
I0406 18:07:58.763262 86685 net.cpp:368] clip_marker_data_2_split -> clip_marker_data_2_split_2
I0406 18:07:58.763290 86685 net.cpp:368] clip_marker_data_2_split -> clip_marker_data_2_split_3
I0406 18:07:58.763303 86685 net.cpp:120] Setting up clip_marker_data_2_split
I0406 18:07:58.763348 86685 net.cpp:127] Top shape: 16 16 1 (256)
I0406 18:07:58.763361 86685 net.cpp:127] Top shape: 16 16 1 (256)
I0406 18:07:58.763375 86685 net.cpp:127] Top shape: 16 16 1 (256)
I0406 18:07:58.763386 86685 net.cpp:127] Top shape: 16 16 1 (256)
I0406 18:07:58.763397 86685 layer_factory.hpp:74] Creating layer conv1
I0406 18:07:58.763417 86685 net.cpp:90] Creating Layer conv1
I0406 18:07:58.763427 86685 net.cpp:410] conv1 <- data
I0406 18:07:58.763442 86685 net.cpp:368] conv1 -> conv1
I0406 18:07:58.763461 86685 net.cpp:120] Setting up conv1
I0406 18:07:58.766064 86686 net.cpp:127] Top shape: 256 3 227 227 (39574272)
I0406 18:07:58.766091 86686 net.cpp:127] Top shape: 16 16 1 (256)
I0406 18:07:58.766101 86686 net.cpp:127] Top shape: 16 16 1 (256)
I0406 18:07:58.766111 86686 layer_factory.hpp:74] Creating layer label_data_1_split
I0406 18:07:58.766139 86686 net.cpp:90] Creating Layer label_data_1_split
I0406 18:07:58.766150 86686 net.cpp:410] label_data_1_split <- label
I0406 18:07:58.766170 86686 net.cpp:368] label_data_1_split -> label_data_1_split_0
I0406 18:07:58.766186 86686 net.cpp:368] label_data_1_split -> label_data_1_split_1
I0406 18:07:58.766204 86686 net.cpp:368] label_data_1_split -> label_data_1_split_2
I0406 18:07:58.766219 86686 net.cpp:120] Setting up label_data_1_split
I0406 18:07:58.766237 86686 net.cpp:127] Top shape: 16 16 1 (256)
I0406 18:07:58.766250 86686 net.cpp:127] Top shape: 16 16 1 (256)
I0406 18:07:58.766263 86686 net.cpp:127] Top shape: 16 16 1 (256)
I0406 18:07:58.766273 86686 layer_factory.hpp:74] Creating layer clip_marker_data_2_split
I0406 18:07:58.766286 86686 net.cpp:90] Creating Layer clip_marker_data_2_split
I0406 18:07:58.766297 86686 net.cpp:410] clip_marker_data_2_split <- clip_marker
I0406 18:07:58.766310 86686 net.cpp:368] clip_marker_data_2_split -> clip_marker_data_2_split_0
I0406 18:07:58.766326 86686 net.cpp:368] clip_marker_data_2_split -> clip_marker_data_2_split_1
I0406 18:07:58.766342 86686 net.cpp:368] clip_marker_data_2_split -> clip_marker_data_2_split_2
I0406 18:07:58.766360 86686 net.cpp:368] clip_marker_data_2_split -> clip_marker_data_2_split_3
I0406 18:07:58.766372 86686 net.cpp:120] Setting up clip_marker_data_2_split
I0406 18:07:58.766413 86686 net.cpp:127] Top shape: 16 16 1 (256)
I0406 18:07:58.766427 86686 net.cpp:127] Top shape: 16 16 1 (256)
I0406 18:07:58.766440 86686 net.cpp:127] Top shape: 16 16 1 (256)
I0406 18:07:58.766453 86686 net.cpp:127] Top shape: 16 16 1 (256)
I0406 18:07:58.766472 86686 layer_factory.hpp:74] Creating layer conv1
I0406 18:07:58.766494 86686 net.cpp:90] Creating Layer conv1
I0406 18:07:58.766504 86686 net.cpp:410] conv1 <- data
I0406 18:07:58.766518 86686 net.cpp:368] conv1 -> conv1
I0406 18:07:58.766537 86686 net.cpp:120] Setting up conv1
I0406 18:07:59.764317 86685 cudnn_conv_data_layer.cpp:184] Reallocating workspace storage: 221796
I0406 18:07:59.764477 86685 net.cpp:127] Top shape: 256 96 111 111 (302800896)
I0406 18:07:59.764516 86685 layer_factory.hpp:74] Creating layer bn1
I0406 18:07:59.764542 86685 net.cpp:90] Creating Layer bn1
I0406 18:07:59.764567 86685 net.cpp:410] bn1 <- conv1
I0406 18:07:59.764576 86685 net.cpp:368] bn1 -> conv1/bn
I0406 18:07:59.764600 86685 net.cpp:120] Setting up bn1
I0406 18:07:59.764653 86685 bn_data_layer.cpp:60] scale: 1 1 1
I0406 18:07:59.764703 86685 bn_data_layer.cpp:71] shift: 0 0 0
I0406 18:07:59.764722 86685 bn_data_layer.cpp:80] mean: 0 0 0
I0406 18:07:59.764730 86685 bn_data_layer.cpp:89] variance: 0 0 0
I0406 18:07:59.764737 86685 net.cpp:127] Top shape: 256 96 111 111 (302800896)
I0406 18:07:59.764747 86685 layer_factory.hpp:74] Creating layer relu1
I0406 18:07:59.764765 86685 net.cpp:90] Creating Layer relu1
I0406 18:07:59.764770 86685 net.cpp:410] relu1 <- conv1/bn
I0406 18:07:59.764775 86685 net.cpp:357] relu1 -> conv1/bn (in-place)
I0406 18:07:59.764781 86685 net.cpp:120] Setting up relu1
I0406 18:07:59.765077 86685 net.cpp:127] Top shape: 256 96 111 111 (302800896)
I0406 18:07:59.765089 86685 layer_factory.hpp:74] Creating layer pool1
I0406 18:07:59.765110 86685 net.cpp:90] Creating Layer pool1
I0406 18:07:59.765115 86685 net.cpp:410] pool1 <- conv1/bn
I0406 18:07:59.765120 86685 net.cpp:368] pool1 -> pool1
I0406 18:07:59.765126 86685 net.cpp:120] Setting up pool1
I0406 18:07:59.765324 86685 net.cpp:127] Top shape: 256 96 55 55 (74342400)
I0406 18:07:59.765332 86685 layer_factory.hpp:74] Creating layer norm1
I0406 18:07:59.765352 86685 net.cpp:90] Creating Layer norm1
I0406 18:07:59.765357 86685 net.cpp:410] norm1 <- pool1
I0406 18:07:59.765372 86685 net.cpp:368] norm1 -> norm1
I0406 18:07:59.765379 86685 net.cpp:120] Setting up norm1
I0406 18:07:59.765385 86685 net.cpp:127] Top shape: 256 96 55 55 (74342400)
I0406 18:07:59.765401 86685 layer_factory.hpp:74] Creating layer conv2
I0406 18:07:59.765411 86685 net.cpp:90] Creating Layer conv2
I0406 18:07:59.765424 86685 net.cpp:410] conv2 <- norm1
I0406 18:07:59.765429 86685 net.cpp:368] conv2 -> conv2
I0406 18:07:59.765436 86685 net.cpp:120] Setting up conv2
I0406 18:07:59.850776 86686 cudnn_conv_data_layer.cpp:184] Reallocating workspace storage: 221796
I0406 18:07:59.850966 86686 net.cpp:127] Top shape: 256 96 111 111 (302800896)
I0406 18:07:59.851016 86686 layer_factory.hpp:74] Creating layer bn1
I0406 18:07:59.851033 86686 net.cpp:90] Creating Layer bn1
I0406 18:07:59.851058 86686 net.cpp:410] bn1 <- conv1
I0406 18:07:59.851078 86686 net.cpp:368] bn1 -> conv1/bn
I0406 18:07:59.851095 86686 net.cpp:120] Setting up bn1
I0406 18:07:59.851187 86686 bn_data_layer.cpp:60] scale: 1 1 1
I0406 18:07:59.851222 86686 bn_data_layer.cpp:71] shift: 0 0 0
I0406 18:07:59.851240 86686 bn_data_layer.cpp:80] mean: 0 0 0
I0406 18:07:59.851246 86686 bn_data_layer.cpp:89] variance: 0 0 0
I0406 18:07:59.851254 86686 net.cpp:127] Top shape: 256 96 111 111 (302800896)
I0406 18:07:59.851276 86686 layer_factory.hpp:74] Creating layer relu1
I0406 18:07:59.851289 86686 net.cpp:90] Creating Layer relu1
I0406 18:07:59.851294 86686 net.cpp:410] relu1 <- conv1/bn
I0406 18:07:59.851299 86686 net.cpp:357] relu1 -> conv1/bn (in-place)
I0406 18:07:59.851305 86686 net.cpp:120] Setting up relu1
I0406 18:07:59.851609 86686 net.cpp:127] Top shape: 256 96 111 111 (302800896)
I0406 18:07:59.851619 86686 layer_factory.hpp:74] Creating layer pool1
I0406 18:07:59.851641 86686 net.cpp:90] Creating Layer pool1
I0406 18:07:59.851645 86686 net.cpp:410] pool1 <- conv1/bn
I0406 18:07:59.851651 86686 net.cpp:368] pool1 -> pool1
I0406 18:07:59.851658 86686 net.cpp:120] Setting up pool1
I0406 18:07:59.851866 86686 net.cpp:127] Top shape: 256 96 55 55 (74342400)
I0406 18:07:59.851874 86686 layer_factory.hpp:74] Creating layer norm1
I0406 18:07:59.851893 86686 net.cpp:90] Creating Layer norm1
I0406 18:07:59.851897 86686 net.cpp:410] norm1 <- pool1
I0406 18:07:59.851902 86686 net.cpp:368] norm1 -> norm1
I0406 18:07:59.851910 86686 net.cpp:120] Setting up norm1
I0406 18:07:59.851917 86686 net.cpp:127] Top shape: 256 96 55 55 (74342400)
I0406 18:07:59.851920 86686 layer_factory.hpp:74] Creating layer conv2
I0406 18:07:59.851940 86686 net.cpp:90] Creating Layer conv2
I0406 18:07:59.851945 86686 net.cpp:410] conv2 <- norm1
I0406 18:07:59.851951 86686 net.cpp:368] conv2 -> conv2
I0406 18:07:59.851958 86686 net.cpp:120] Setting up conv2
I0406 18:07:59.854555 86686 cudnn_conv_data_layer.cpp:184] Reallocating workspace storage: 37392
I0406 18:07:59.854591 86686 net.cpp:127] Top shape: 256 384 26 26 (66453504)
I0406 18:07:59.854599 86686 layer_factory.hpp:74] Creating layer bn2
I0406 18:07:59.854607 86686 net.cpp:90] Creating Layer bn2
I0406 18:07:59.854611 86686 net.cpp:410] bn2 <- conv2
I0406 18:07:59.854629 86686 net.cpp:368] bn2 -> conv2/bn
I0406 18:07:59.854650 86686 net.cpp:120] Setting up bn2
I0406 18:07:59.854837 86685 cudnn_conv_data_layer.cpp:184] Reallocating workspace storage: 37392
I0406 18:07:59.854887 86685 net.cpp:127] Top shape: 256 384 26 26 (66453504)
I0406 18:07:59.854915 86685 layer_factory.hpp:74] Creating layer bn2
I0406 18:07:59.854931 86685 net.cpp:90] Creating Layer bn2
I0406 18:07:59.854939 86685 net.cpp:410] bn2 <- conv2
I0406 18:07:59.854948 86685 net.cpp:368] bn2 -> conv2/bn
I0406 18:07:59.854956 86685 net.cpp:120] Setting up bn2
I0406 18:07:59.854987 86686 bn_data_layer.cpp:60] scale: 1 1 1
I0406 18:07:59.854987 86685 bn_data_layer.cpp:60] scale: 1 1 1
I0406 18:07:59.855001 86686 bn_data_layer.cpp:71] shift: 0 0 0
I0406 18:07:59.855012 86685 bn_data_layer.cpp:71] shift: 0 0 0
I0406 18:07:59.855021 86686 bn_data_layer.cpp:80] mean: 0 0 0
I0406 18:07:59.855021 86685 bn_data_layer.cpp:80] mean: 0 0 0
I0406 18:07:59.855042 86685 bn_data_layer.cpp:89] variance: 0 0 0
I0406 18:07:59.855042 86686 bn_data_layer.cpp:89] variance: 0 0 0
I0406 18:07:59.855063 86686 net.cpp:127] Top shape: 256 384 26 26 (66453504)
I0406 18:07:59.855063 86685 net.cpp:127] Top shape: 256 384 26 26 (66453504)
I0406 18:07:59.855084 86686 layer_factory.hpp:74] Creating layer relu2
I0406 18:07:59.855085 86685 layer_factory.hpp:74] Creating layer relu2
I0406 18:07:59.855090 86686 net.cpp:90] Creating Layer relu2
I0406 18:07:59.855104 86685 net.cpp:90] Creating Layer relu2
I0406 18:07:59.855106 86686 net.cpp:410] relu2 <- conv2/bn
I0406 18:07:59.855111 86686 net.cpp:357] relu2 -> conv2/bn (in-place)
I0406 18:07:59.855108 86685 net.cpp:410] relu2 <- conv2/bn
I0406 18:07:59.855114 86685 net.cpp:357] relu2 -> conv2/bn (in-place)
I0406 18:07:59.855118 86686 net.cpp:120] Setting up relu2
I0406 18:07:59.855120 86685 net.cpp:120] Setting up relu2
I0406 18:07:59.855321 86686 net.cpp:127] Top shape: 256 384 26 26 (66453504)
I0406 18:07:59.855329 86686 layer_factory.hpp:74] Creating layer pool2
I0406 18:07:59.855329 86685 net.cpp:127] Top shape: 256 384 26 26 (66453504)
I0406 18:07:59.855347 86685 layer_factory.hpp:74] Creating layer pool2
I0406 18:07:59.855361 86686 net.cpp:90] Creating Layer pool2
I0406 18:07:59.855366 86686 net.cpp:410] pool2 <- conv2/bn
I0406 18:07:59.855370 86685 net.cpp:90] Creating Layer pool2
I0406 18:07:59.855371 86686 net.cpp:368] pool2 -> pool2
I0406 18:07:59.855375 86685 net.cpp:410] pool2 <- conv2/bn
I0406 18:07:59.855391 86686 net.cpp:120] Setting up pool2
I0406 18:07:59.855392 86685 net.cpp:368] pool2 -> pool2
I0406 18:07:59.855401 86685 net.cpp:120] Setting up pool2
I0406 18:07:59.855851 86686 net.cpp:127] Top shape: 256 384 13 13 (16613376)
I0406 18:07:59.855876 86686 layer_factory.hpp:74] Creating layer norm2
I0406 18:07:59.855885 86686 net.cpp:90] Creating Layer norm2
I0406 18:07:59.855888 86686 net.cpp:410] norm2 <- pool2
I0406 18:07:59.855895 86686 net.cpp:368] norm2 -> norm2
I0406 18:07:59.855901 86686 net.cpp:120] Setting up norm2
I0406 18:07:59.855921 86686 net.cpp:127] Top shape: 256 384 13 13 (16613376)
I0406 18:07:59.855926 86686 layer_factory.hpp:74] Creating layer conv3
I0406 18:07:59.855932 86686 net.cpp:90] Creating Layer conv3
I0406 18:07:59.855937 86686 net.cpp:410] conv3 <- norm2
I0406 18:07:59.855942 86686 net.cpp:368] conv3 -> conv3
I0406 18:07:59.855943 86685 net.cpp:127] Top shape: 256 384 13 13 (16613376)
I0406 18:07:59.855949 86686 net.cpp:120] Setting up conv3
I0406 18:07:59.855968 86685 layer_factory.hpp:74] Creating layer norm2
I0406 18:07:59.855978 86685 net.cpp:90] Creating Layer norm2
I0406 18:07:59.855981 86685 net.cpp:410] norm2 <- pool2
I0406 18:07:59.855999 86685 net.cpp:368] norm2 -> norm2
I0406 18:07:59.856019 86685 net.cpp:120] Setting up norm2
I0406 18:07:59.856026 86685 net.cpp:127] Top shape: 256 384 13 13 (16613376)
I0406 18:07:59.856042 86685 layer_factory.hpp:74] Creating layer conv3
I0406 18:07:59.856052 86685 net.cpp:90] Creating Layer conv3
I0406 18:07:59.856056 86685 net.cpp:410] conv3 <- norm2
I0406 18:07:59.856062 86685 net.cpp:368] conv3 -> conv3
I0406 18:07:59.856079 86685 net.cpp:120] Setting up conv3
I0406 18:07:59.907989 86686 cudnn_conv_data_layer.cpp:184] Reallocating workspace storage: 9588
I0406 18:07:59.908093 86685 cudnn_conv_data_layer.cpp:184] Reallocating workspace storage: 9588
I0406 18:07:59.908169 86686 net.cpp:127] Top shape: 256 512 13 13 (22151168)
I0406 18:07:59.908193 86686 layer_factory.hpp:74] Creating layer bn3
I0406 18:07:59.908205 86686 net.cpp:90] Creating Layer bn3
I0406 18:07:59.908210 86686 net.cpp:410] bn3 <- conv3
I0406 18:07:59.908216 86686 net.cpp:368] bn3 -> conv3/bn
I0406 18:07:59.908226 86686 net.cpp:120] Setting up bn3
I0406 18:07:59.908277 86685 net.cpp:127] Top shape: 256 512 13 13 (22151168)
I0406 18:07:59.908293 86685 layer_factory.hpp:74] Creating layer bn3
I0406 18:07:59.908303 86685 net.cpp:90] Creating Layer bn3
I0406 18:07:59.908308 86685 net.cpp:410] bn3 <- conv3
I0406 18:07:59.908329 86685 net.cpp:368] bn3 -> conv3/bn
I0406 18:07:59.908337 86685 net.cpp:120] Setting up bn3
I0406 18:07:59.908385 86686 bn_data_layer.cpp:60] scale: 1 1 1
I0406 18:07:59.908385 86685 bn_data_layer.cpp:60] scale: 1 1 1
I0406 18:07:59.908402 86686 bn_data_layer.cpp:71] shift: 0 0 0
I0406 18:07:59.908401 86685 bn_data_layer.cpp:71] shift: 0 0 0
I0406 18:07:59.908423 86686 bn_data_layer.cpp:80] mean: 0 0 0
I0406 18:07:59.908423 86685 bn_data_layer.cpp:80] mean: 0 0 0
I0406 18:07:59.908449 86685 bn_data_layer.cpp:89] variance: 0 0 0
I0406 18:07:59.908449 86686 bn_data_layer.cpp:89] variance: 0 0 0
I0406 18:07:59.908457 86685 net.cpp:127] Top shape: 256 512 13 13 (22151168)
I0406 18:07:59.908457 86686 net.cpp:127] Top shape: 256 512 13 13 (22151168)
I0406 18:07:59.908478 86685 layer_factory.hpp:74] Creating layer relu3
I0406 18:07:59.908479 86686 layer_factory.hpp:74] Creating layer relu3
I0406 18:07:59.908484 86685 net.cpp:90] Creating Layer relu3
I0406 18:07:59.908500 86685 net.cpp:410] relu3 <- conv3/bn
I0406 18:07:59.908498 86686 net.cpp:90] Creating Layer relu3
I0406 18:07:59.908501 86686 net.cpp:410] relu3 <- conv3/bn
I0406 18:07:59.908506 86685 net.cpp:357] relu3 -> conv3/bn (in-place)
I0406 18:07:59.908507 86686 net.cpp:357] relu3 -> conv3/bn (in-place)
I0406 18:07:59.908514 86686 net.cpp:120] Setting up relu3
I0406 18:07:59.908514 86685 net.cpp:120] Setting up relu3
I0406 18:07:59.908743 86685 net.cpp:127] Top shape: 256 512 13 13 (22151168)
I0406 18:07:59.908752 86685 layer_factory.hpp:74] Creating layer conv4
I0406 18:07:59.908763 86685 net.cpp:90] Creating Layer conv4
I0406 18:07:59.908767 86685 net.cpp:410] conv4 <- conv3/bn
I0406 18:07:59.908752 86686 net.cpp:127] Top shape: 256 512 13 13 (22151168)
I0406 18:07:59.908759 86686 layer_factory.hpp:74] Creating layer conv4
I0406 18:07:59.908769 86686 net.cpp:90] Creating Layer conv4
I0406 18:07:59.908773 86686 net.cpp:410] conv4 <- conv3/bn
I0406 18:07:59.908774 86685 net.cpp:368] conv4 -> conv4
I0406 18:07:59.908793 86685 net.cpp:120] Setting up conv4
I0406 18:07:59.908792 86686 net.cpp:368] conv4 -> conv4
I0406 18:07:59.908799 86686 net.cpp:120] Setting up conv4
I0406 18:07:59.944347 86685 cudnn_conv_data_layer.cpp:184] Reallocating workspace storage: 19176
I0406 18:07:59.944391 86685 net.cpp:127] Top shape: 256 512 13 13 (22151168)
I0406 18:07:59.944401 86685 layer_factory.hpp:74] Creating layer bn4
I0406 18:07:59.944411 86685 net.cpp:90] Creating Layer bn4
I0406 18:07:59.944434 86685 net.cpp:410] bn4 <- conv4
I0406 18:07:59.944442 86685 net.cpp:368] bn4 -> conv4/bn
I0406 18:07:59.944450 86685 net.cpp:120] Setting up bn4
I0406 18:07:59.944488 86685 bn_data_layer.cpp:60] scale: 1 1 1
I0406 18:07:59.944504 86685 bn_data_layer.cpp:71] shift: 0 0 0
I0406 18:07:59.944517 86685 bn_data_layer.cpp:80] mean: 0 0 0
I0406 18:07:59.944511 86686 cudnn_conv_data_layer.cpp:184] Reallocating workspace storage: 19176
I0406 18:07:59.944526 86685 bn_data_layer.cpp:89] variance: 0 0 0
I0406 18:07:59.944533 86685 net.cpp:127] Top shape: 256 512 13 13 (22151168)
I0406 18:07:59.944540 86686 net.cpp:127] Top shape: 256 512 13 13 (22151168)
I0406 18:07:59.944542 86685 layer_factory.hpp:74] Creating layer relu4
I0406 18:07:59.944561 86685 net.cpp:90] Creating Layer relu4
I0406 18:07:59.944563 86686 layer_factory.hpp:74] Creating layer bn4
I0406 18:07:59.944566 86685 net.cpp:410] relu4 <- conv4/bn
I0406 18:07:59.944571 86685 net.cpp:357] relu4 -> conv4/bn (in-place)
I0406 18:07:59.944574 86686 net.cpp:90] Creating Layer bn4
I0406 18:07:59.944591 86686 net.cpp:410] bn4 <- conv4
I0406 18:07:59.944588 86685 net.cpp:120] Setting up relu4
I0406 18:07:59.944598 86686 net.cpp:368] bn4 -> conv4/bn
I0406 18:07:59.944619 86686 net.cpp:120] Setting up bn4
I0406 18:07:59.944658 86686 bn_data_layer.cpp:60] scale: 1 1 1
I0406 18:07:59.944674 86686 bn_data_layer.cpp:71] shift: 0 0 0
I0406 18:07:59.944684 86686 bn_data_layer.cpp:80] mean: 0 0 0
I0406 18:07:59.944695 86686 bn_data_layer.cpp:89] variance: 0 0 0
I0406 18:07:59.944702 86686 net.cpp:127] Top shape: 256 512 13 13 (22151168)
I0406 18:07:59.944712 86686 layer_factory.hpp:74] Creating layer relu4
I0406 18:07:59.944720 86686 net.cpp:90] Creating Layer relu4
I0406 18:07:59.944723 86686 net.cpp:410] relu4 <- conv4/bn
I0406 18:07:59.944730 86686 net.cpp:357] relu4 -> conv4/bn (in-place)
I0406 18:07:59.944736 86686 net.cpp:120] Setting up relu4
I0406 18:07:59.944771 86685 net.cpp:127] Top shape: 256 512 13 13 (22151168)
I0406 18:07:59.944779 86685 layer_factory.hpp:74] Creating layer conv5
I0406 18:07:59.944788 86685 net.cpp:90] Creating Layer conv5
I0406 18:07:59.944792 86685 net.cpp:410] conv5 <- conv4/bn
I0406 18:07:59.944799 86685 net.cpp:368] conv5 -> conv5
I0406 18:07:59.944807 86685 net.cpp:120] Setting up conv5
I0406 18:07:59.944905 86686 net.cpp:127] Top shape: 256 512 13 13 (22151168)
I0406 18:07:59.944913 86686 layer_factory.hpp:74] Creating layer conv5
I0406 18:07:59.944934 86686 net.cpp:90] Creating Layer conv5
I0406 18:07:59.944938 86686 net.cpp:410] conv5 <- conv4/bn
I0406 18:07:59.944947 86686 net.cpp:368] conv5 -> conv5
I0406 18:07:59.944954 86686 net.cpp:120] Setting up conv5
I0406 18:07:59.973667 86685 cudnn_conv_data_layer.cpp:184] Reallocating workspace storage: 19176
I0406 18:07:59.973721 86685 net.cpp:127] Top shape: 256 384 13 13 (16613376)
I0406 18:07:59.973731 86685 layer_factory.hpp:74] Creating layer bn5
I0406 18:07:59.973739 86685 net.cpp:90] Creating Layer bn5
I0406 18:07:59.973757 86685 net.cpp:410] bn5 <- conv5
I0406 18:07:59.973764 86685 net.cpp:368] bn5 -> conv5/bn
I0406 18:07:59.973773 86685 net.cpp:120] Setting up bn5
I0406 18:07:59.973788 86685 bn_data_layer.cpp:60] scale: 1 1 1
I0406 18:07:59.973824 86685 bn_data_layer.cpp:71] shift: 0 0 0
I0406 18:07:59.973840 86685 bn_data_layer.cpp:80] mean: 0 0 0
I0406 18:07:59.973853 86685 bn_data_layer.cpp:89] variance: 0 0 0
I0406 18:07:59.973860 86685 net.cpp:127] Top shape: 256 384 13 13 (16613376)
I0406 18:07:59.973870 86685 layer_factory.hpp:74] Creating layer relu5
I0406 18:07:59.973876 86685 net.cpp:90] Creating Layer relu5
I0406 18:07:59.973881 86685 net.cpp:410] relu5 <- conv5/bn
I0406 18:07:59.973886 86685 net.cpp:357] relu5 -> conv5/bn (in-place)
I0406 18:07:59.973867 86686 cudnn_conv_data_layer.cpp:184] Reallocating workspace storage: 19176
I0406 18:07:59.973893 86685 net.cpp:120] Setting up relu5
I0406 18:07:59.973909 86686 net.cpp:127] Top shape: 256 384 13 13 (16613376)
I0406 18:07:59.973922 86686 layer_factory.hpp:74] Creating layer bn5
I0406 18:07:59.973933 86686 net.cpp:90] Creating Layer bn5
I0406 18:07:59.973942 86686 net.cpp:410] bn5 <- conv5
I0406 18:07:59.973950 86686 net.cpp:368] bn5 -> conv5/bn
I0406 18:07:59.973959 86686 net.cpp:120] Setting up bn5
I0406 18:07:59.973980 86686 bn_data_layer.cpp:60] scale: 1 1 1
I0406 18:07:59.973994 86686 bn_data_layer.cpp:71] shift: 0 0 0
I0406 18:07:59.974004 86686 bn_data_layer.cpp:80] mean: 0 0 0
I0406 18:07:59.974022 86686 bn_data_layer.cpp:89] variance: 0 0 0
I0406 18:07:59.974035 86686 net.cpp:127] Top shape: 256 384 13 13 (16613376)
I0406 18:07:59.974043 86686 layer_factory.hpp:74] Creating layer relu5
I0406 18:07:59.974048 86686 net.cpp:90] Creating Layer relu5
I0406 18:07:59.974052 86686 net.cpp:410] relu5 <- conv5/bn
I0406 18:07:59.974057 86686 net.cpp:357] relu5 -> conv5/bn (in-place)
I0406 18:07:59.974063 86686 net.cpp:120] Setting up relu5
I0406 18:07:59.974073 86685 net.cpp:127] Top shape: 256 384 13 13 (16613376)
I0406 18:07:59.974083 86685 layer_factory.hpp:74] Creating layer pool5
I0406 18:07:59.974092 86685 net.cpp:90] Creating Layer pool5
I0406 18:07:59.974095 86685 net.cpp:410] pool5 <- conv5/bn
I0406 18:07:59.974102 86685 net.cpp:368] pool5 -> pool5
I0406 18:07:59.974108 86685 net.cpp:120] Setting up pool5
I0406 18:07:59.974242 86686 net.cpp:127] Top shape: 256 384 13 13 (16613376)
I0406 18:07:59.974249 86686 layer_factory.hpp:74] Creating layer pool5
I0406 18:07:59.974270 86686 net.cpp:90] Creating Layer pool5
I0406 18:07:59.974275 86686 net.cpp:410] pool5 <- conv5/bn
I0406 18:07:59.974280 86686 net.cpp:368] pool5 -> pool5
I0406 18:07:59.974287 86686 net.cpp:120] Setting up pool5
I0406 18:07:59.974407 86685 net.cpp:127] Top shape: 256 384 6 6 (3538944)
I0406 18:07:59.974419 86685 layer_factory.hpp:74] Creating layer fc6
I0406 18:07:59.974441 86685 net.cpp:90] Creating Layer fc6
I0406 18:07:59.974444 86685 net.cpp:410] fc6 <- pool5
I0406 18:07:59.974452 86685 net.cpp:368] fc6 -> fc6
I0406 18:07:59.974462 86685 net.cpp:120] Setting up fc6
I0406 18:07:59.974656 86686 net.cpp:127] Top shape: 256 384 6 6 (3538944)
I0406 18:07:59.974668 86686 layer_factory.hpp:74] Creating layer fc6
I0406 18:07:59.974688 86686 net.cpp:90] Creating Layer fc6
I0406 18:07:59.974691 86686 net.cpp:410] fc6 <- pool5
I0406 18:07:59.974700 86686 net.cpp:368] fc6 -> fc6
I0406 18:07:59.974709 86686 net.cpp:120] Setting up fc6
I0406 18:08:01.551865 86686 net.cpp:127] Top shape: 256 4096 (1048576)
I0406 18:08:01.551918 86686 layer_factory.hpp:74] Creating layer relu6
I0406 18:08:01.551935 86686 net.cpp:90] Creating Layer relu6
I0406 18:08:01.551945 86686 net.cpp:410] relu6 <- fc6
I0406 18:08:01.551954 86686 net.cpp:357] relu6 -> fc6 (in-place)
I0406 18:08:01.551962 86686 net.cpp:120] Setting up relu6
I0406 18:08:01.552534 86686 net.cpp:127] Top shape: 256 4096 (1048576)
I0406 18:08:01.552558 86686 layer_factory.hpp:74] Creating layer drop6
I0406 18:08:01.552582 86686 net.cpp:90] Creating Layer drop6
I0406 18:08:01.552585 86686 net.cpp:410] drop6 <- fc6
I0406 18:08:01.552590 86686 net.cpp:357] drop6 -> fc6 (in-place)
I0406 18:08:01.552614 86686 net.cpp:120] Setting up drop6
I0406 18:08:01.552626 86686 net.cpp:127] Top shape: 256 4096 (1048576)
I0406 18:08:01.552630 86686 layer_factory.hpp:74] Creating layer reshape_data
I0406 18:08:01.552657 86686 net.cpp:90] Creating Layer reshape_data
I0406 18:08:01.552662 86686 net.cpp:410] reshape_data <- fc6
I0406 18:08:01.552681 86686 net.cpp:368] reshape_data -> data_reshape
I0406 18:08:01.552691 86686 net.cpp:120] Setting up reshape_data
I0406 18:08:01.552700 86686 net.cpp:127] Top shape: 16 16 4096 (1048576)
I0406 18:08:01.552721 86686 layer_factory.hpp:74] Creating layer data_reshape_reshape_data_0_split
I0406 18:08:01.552726 86686 net.cpp:90] Creating Layer data_reshape_reshape_data_0_split
I0406 18:08:01.552731 86686 net.cpp:410] data_reshape_reshape_data_0_split <- data_reshape
I0406 18:08:01.552748 86686 net.cpp:368] data_reshape_reshape_data_0_split -> data_reshape_reshape_data_0_split_0
I0406 18:08:01.552755 86686 net.cpp:368] data_reshape_reshape_data_0_split -> data_reshape_reshape_data_0_split_1
I0406 18:08:01.552774 86686 net.cpp:120] Setting up data_reshape_reshape_data_0_split
I0406 18:08:01.552780 86686 net.cpp:127] Top shape: 16 16 4096 (1048576)
I0406 18:08:01.552785 86686 net.cpp:127] Top shape: 16 16 4096 (1048576)
I0406 18:08:01.552788 86686 layer_factory.hpp:74] Creating layer lstm
I0406 18:08:01.552801 86686 net.cpp:90] Creating Layer lstm
I0406 18:08:01.552808 86686 net.cpp:410] lstm <- data_reshape_reshape_data_0_split_0
I0406 18:08:01.552824 86686 net.cpp:410] lstm <- clip_marker_data_2_split_0
I0406 18:08:01.552834 86686 net.cpp:368] lstm -> lstm
I0406 18:08:01.552860 86686 net.cpp:120] Setting up lstm
I0406 18:08:01.552876 86686 net.cpp:127] Top shape: 16 16 512 (131072)
I0406 18:08:01.552893 86686 layer_factory.hpp:74] Creating layer lstm_drop
I0406 18:08:01.552901 86686 net.cpp:90] Creating Layer lstm_drop
I0406 18:08:01.552904 86686 net.cpp:410] lstm_drop <- lstm
I0406 18:08:01.552911 86686 net.cpp:368] lstm_drop -> lstm_drop
I0406 18:08:01.552917 86686 net.cpp:120] Setting up lstm_drop
I0406 18:08:01.552922 86686 net.cpp:127] Top shape: 16 16 512 (131072)
I0406 18:08:01.552927 86686 layer_factory.hpp:74] Creating layer reverse
I0406 18:08:01.552932 86686 net.cpp:90] Creating Layer reverse
I0406 18:08:01.552935 86686 net.cpp:410] reverse <- clip_marker_data_2_split_1
I0406 18:08:01.552940 86686 net.cpp:410] reverse <- data_reshape_reshape_data_0_split_1
I0406 18:08:01.552947 86686 net.cpp:368] reverse -> inv_lstm_input
I0406 18:08:01.552953 86686 net.cpp:120] Setting up reverse
I0406 18:08:01.552958 86686 net.cpp:127] Top shape: 16 16 4096 (1048576)
I0406 18:08:01.552960 86686 layer_factory.hpp:74] Creating layer invlstm
I0406 18:08:01.552969 86686 net.cpp:90] Creating Layer invlstm
I0406 18:08:01.552974 86686 net.cpp:410] invlstm <- inv_lstm_input
I0406 18:08:01.552978 86686 net.cpp:410] invlstm <- clip_marker_data_2_split_2
I0406 18:08:01.552983 86686 net.cpp:368] invlstm -> inv_lstm
I0406 18:08:01.552994 86686 net.cpp:120] Setting up invlstm
I0406 18:08:01.553005 86686 net.cpp:127] Top shape: 16 16 512 (131072)
I0406 18:08:01.553014 86686 layer_factory.hpp:74] Creating layer inv_lstm_drop
I0406 18:08:01.553023 86686 net.cpp:90] Creating Layer inv_lstm_drop
I0406 18:08:01.553026 86686 net.cpp:410] inv_lstm_drop <- inv_lstm
I0406 18:08:01.553035 86686 net.cpp:368] inv_lstm_drop -> inv_lstm_drop
I0406 18:08:01.553040 86686 net.cpp:120] Setting up inv_lstm_drop
I0406 18:08:01.553046 86686 net.cpp:127] Top shape: 16 16 512 (131072)
I0406 18:08:01.553050 86686 layer_factory.hpp:74] Creating layer reverse
I0406 18:08:01.553056 86686 net.cpp:90] Creating Layer reverse
I0406 18:08:01.553059 86686 net.cpp:410] reverse <- clip_marker_data_2_split_3
I0406 18:08:01.553063 86686 net.cpp:410] reverse <- inv_lstm_drop
I0406 18:08:01.553068 86686 net.cpp:368] reverse -> inv_lstm_output
I0406 18:08:01.553073 86686 net.cpp:120] Setting up reverse
I0406 18:08:01.553078 86686 net.cpp:127] Top shape: 16 16 512 (131072)
I0406 18:08:01.553082 86686 layer_factory.hpp:74] Creating layer concat
I0406 18:08:01.553091 86686 net.cpp:90] Creating Layer concat
I0406 18:08:01.553095 86686 net.cpp:410] concat <- lstm_drop
I0406 18:08:01.553100 86686 net.cpp:410] concat <- inv_lstm_output
I0406 18:08:01.553104 86686 net.cpp:368] concat -> lstm_concat
I0406 18:08:01.553112 86686 net.cpp:120] Setting up concat
I0406 18:08:01.553123 86686 net.cpp:127] Top shape: 16 16 1024 (262144)
I0406 18:08:01.553128 86686 layer_factory.hpp:74] Creating layer fc8_final
I0406 18:08:01.553138 86686 net.cpp:90] Creating Layer fc8_final
I0406 18:08:01.553143 86686 net.cpp:410] fc8_final <- lstm_concat
I0406 18:08:01.553149 86686 net.cpp:368] fc8_final -> fc8_final
I0406 18:08:01.553155 86686 net.cpp:120] Setting up fc8_final
I0406 18:08:01.553578 86686 net.cpp:127] Top shape: 16 16 12 (3072)
I0406 18:08:01.553586 86686 layer_factory.hpp:74] Creating layer fc8_final_fc8_final_0_split
I0406 18:08:01.553592 86686 net.cpp:90] Creating Layer fc8_final_fc8_final_0_split
I0406 18:08:01.553597 86686 net.cpp:410] fc8_final_fc8_final_0_split <- fc8_final
I0406 18:08:01.553602 86686 net.cpp:368] fc8_final_fc8_final_0_split -> fc8_final_fc8_final_0_split_0
I0406 18:08:01.553609 86686 net.cpp:368] fc8_final_fc8_final_0_split -> fc8_final_fc8_final_0_split_1
I0406 18:08:01.553617 86686 net.cpp:368] fc8_final_fc8_final_0_split -> fc8_final_fc8_final_0_split_2
I0406 18:08:01.553622 86686 net.cpp:120] Setting up fc8_final_fc8_final_0_split
I0406 18:08:01.553627 86686 net.cpp:127] Top shape: 16 16 12 (3072)
I0406 18:08:01.553632 86686 net.cpp:127] Top shape: 16 16 12 (3072)
I0406 18:08:01.553635 86686 net.cpp:127] Top shape: 16 16 12 (3072)
I0406 18:08:01.553648 86686 layer_factory.hpp:74] Creating layer loss
I0406 18:08:01.553658 86686 net.cpp:90] Creating Layer loss
I0406 18:08:01.553663 86686 net.cpp:410] loss <- fc8_final_fc8_final_0_split_0
I0406 18:08:01.553668 86686 net.cpp:410] loss <- label_data_1_split_0
I0406 18:08:01.553673 86686 net.cpp:368] loss -> loss
I0406 18:08:01.553683 86686 net.cpp:120] Setting up loss
…
I0406 18:08:01.554395 86686 net.cpp:194] label_data_1_split does not need backward computation.
I0406 18:08:01.554400 86686 net.cpp:194] data does not need backward computation.
I0406 18:08:01.554404 86686 net.cpp:235] This network produces output accuracy
I0406 18:08:01.554409 86686 net.cpp:235] This network produces output accuracy_top2
I0406 18:08:01.554411 86686 net.cpp:235] This network produces output loss
I0406 18:08:01.554442 86686 net.cpp:482] Collecting Learning Rate and Weight Decay.
I0406 18:08:01.554455 86686 net.cpp:247] Network initialization done.
I0406 18:08:01.554460 86686 net.cpp:248] Memory required for data: 6095228940
I0406 18:08:01.555322 86685 net.cpp:127] Top shape: 256 4096 (1048576)
I0406 18:08:01.555357 86685 layer_factory.hpp:74] Creating layer relu6
I0406 18:08:01.555374 86685 net.cpp:90] Creating Layer relu6
I0406 18:08:01.555383 86685 net.cpp:410] relu6 <- fc6
I0406 18:08:01.555392 86685 net.cpp:357] relu6 -> fc6 (in-place)
I0406 18:08:01.555398 86685 net.cpp:120] Setting up relu6
I0406 18:08:01.555853 86686 solver.cpp:170] Creating test net (#0) specified by net file: train_test_lstm.prototxt
I0406 18:08:01.555912 86685 net.cpp:127] Top shape: 256 4096 (1048576)
I0406 18:08:01.555919 86685 layer_factory.hpp:74] Creating layer drop6
I0406 18:08:01.555940 86685 net.cpp:90] Creating Layer drop6
I0406 18:08:01.555944 86685 net.cpp:410] drop6 <- fc6
I0406 18:08:01.555951 86685 net.cpp:357] drop6 -> fc6 (in-place)
I0406 18:08:01.555954 86686 net.cpp:287] The NetState phase (1) differed from the phase (0) specified by a rule in layer data
I0406 18:08:01.555963 86685 net.cpp:120] Setting up drop6
I0406 18:08:01.555971 86685 net.cpp:127] Top shape: 256 4096 (1048576)
I0406 18:08:01.555975 86685 layer_factory.hpp:74] Creating layer reshape_data
I0406 18:08:01.555986 86685 net.cpp:90] Creating Layer reshape_data
I0406 18:08:01.555992 86685 net.cpp:410] reshape_data <- fc6
I0406 18:08:01.556000 86685 net.cpp:368] reshape_data -> data_reshape
I0406 18:08:01.556010 86685 net.cpp:120] Setting up reshape_data
I0406 18:08:01.556017 86685 net.cpp:127] Top shape: 16 16 4096 (1048576)
I0406 18:08:01.556021 86685 layer_factory.hpp:74] Creating layer data_reshape_reshape_data_0_split
I0406 18:08:01.556026 86685 net.cpp:90] Creating Layer data_reshape_reshape_data_0_split
I0406 18:08:01.556030 86685 net.cpp:410] data_reshape_reshape_data_0_split <- data_reshape
I0406 18:08:01.556036 86685 net.cpp:368] data_reshape_reshape_data_0_split -> data_reshape_reshape_data_0_split_0
I0406 18:08:01.556044 86685 net.cpp:368] data_reshape_reshape_data_0_split -> data_reshape_reshape_data_0_split_1
I0406 18:08:01.556051 86685 net.cpp:120] Setting up data_reshape_reshape_data_0_split
I0406 18:08:01.556056 86685 net.cpp:127] Top shape: 16 16 4096 (1048576)
I0406 18:08:01.556061 86685 net.cpp:127] Top shape: 16 16 4096 (1048576)
I0406 18:08:01.556063 86685 layer_factory.hpp:74] Creating layer lstm
I0406 18:08:01.556076 86685 net.cpp:90] Creating Layer lstm
I0406 18:08:01.556082 86685 net.cpp:410] lstm <- data_reshape_reshape_data_0_split_0
I0406 18:08:01.556087 86685 net.cpp:410] lstm <- clip_marker_data_2_split_0
I0406 18:08:01.556098 86685 net.cpp:368] lstm -> lstm
I0406 18:08:01.556121 86685 net.cpp:120] Setting up lstm
I0406 18:08:01.556257 86686 net.cpp:42] Initializing net from parameters: 
name: "lstm_joints"
state {
  phase: TEST
  stage: "test-on-test"
}
layer {
  name: "data"
  type: "VideoDataRNN"
  top: "data"
  top: "label"
  top: "clip_marker"
  include {
    phase: TEST
    stage: "test-on-test"
  }
  transform_param {
    mirror: false
    crop_size: 227
    mean_value: 103.939
    mean_value: 116.779
    mean_value: 123.68
    fix_crop: true
    is_flow: false
  }
  video_data_param {
    source: "/data2/action/rgb/list/test_video.txt"
    batch_size: 2
    shuffle: true
    new_height: 240
    new_width: 320
    modality: RGB
    root_folder: "/data2/action/rgb/"
    seq_length: 16
    stride_seq: 6
    eval_last: true
  }
}
layer {
  name: "conv1"
  type: "ConvolutionData"
  bottom: "data"
  top: "conv1"
  param {
    lr_mult: 1
    decay_mult: 1
  }
  param {
    lr_mult: 2
    decay_mult: 0
  }
  convolution_param {
    num_output: 96
    kernel_size: 7
    stride: 2
    weight_filler {
      type: "gaussian"
      std: 0.01
    }
    bias_filler {
      type: "constant"
      value: 0.1
    }
  }
}
layer {
  name: "bn1"
  type: "BNData"
  bottom: "conv1"
  top: "conv1/bn"
  param {
    lr_mult: 1
    decay_mult: 0
  }
  param {
    lr_mult: 1
    decay_mult: 0
  }
  param {
    lr_mult: 0
    decay_mult: 0
  }
  param {
    lr_mult: 0
    decay_mult: 0
  }
  bn_param {
    scale_filler {
      type: "constant"
      value: 1
    }
    shift_filler {
      type: "constant"
      value: 0
    }
    moving_average: true
    decay: 0.05
  }
}
layer {
  name: "relu1"
  type: "ReLU"
  bottom: "conv1/bn"
  top: "conv1/bn"
}
layer {
  name: "pool1"
  type: "Pooling"
  bottom: "conv1/bn"
  top: "pool1"
  pooling_param {
    pool: MAX
    kernel_size: 3
    stride: 2
  }
}
layer {
  name: "norm1"
  type: "LRN"
  bottom: "pool1"
  top: "norm1"
  lrn_param {
    local_size: 5
    alpha: 0.0001
    beta: 0.75
  }
}
layer {
  name: "conv2"
  type: "ConvolutionData"
  bottom: "norm1"
  top: "conv2"
  param {
    lr_mult: 1
    decay_mult: 1
  }
  param {
    lr_mult: 2
    decay_mult: 0
  }
  convolution_param {
    num_output: 384
    kernel_size: 5
    group: 2
    stride: 2
    weight_filler {
      type: "gaussian"
      std: 0.01
    }
    bias_filler {
      type: "constant"
      value: 0.1
    }
  }
}
layer {
  name: "bn2"
  type: "BNData"
  bottom: "conv2"
  top: "conv2/bn"
  param {
    lr_mult: 1
    decay_mult: 0
  }
  param {
    lr_mult: 1
    decay_mult: 0
  }
  param {
    lr_mult: 0
    decay_mult: 0
  }
  param {
    lr_mult: 0
    decay_mult: 0
  }
  bn_param {
    scale_filler {
      type: "constant"
      value: 1
    }
    shift_filler {
      type: "constant"
      value: 0
    }
    moving_average: true
    decay: 0.05
  }
}
layer {
  name: "relu2"
  type: "ReLU"
  bottom: "conv2/bn"
  top: "conv2/bn"
}
layer {
  name: "pool2"
  type: "Pooling"
  bottom: "conv2/bn"
  top: "pool2"
  pooling_param {
    pool: MAX
    kernel_size: 3
    stride: 2
  }
}
layer {
  name: "norm2"
  type: "LRN"
  bottom: "pool2"
  top: "norm2"
  lrn_param {
    local_size: 5
    alpha: 0.0001
    beta: 0.75
  }
}
layer {
  name: "conv3"
  type: "ConvolutionData"
  bottom: "norm2"
  top: "conv3"
  param {
    lr_mult: 1
    decay_mult: 1
  }
  param {
    lr_mult: 2
    decay_mult: 0
  }
  convolution_param {
    num_output: 512
    pad: 1
    kernel_size: 3
    weight_filler {
      type: "gaussian"
      std: 0.01
    }
    bias_filler {
      type: "constant"
      value: 0.1
    }
  }
}
layer {
  name: "bn3"
  type: "BNData"
  bottom: "conv3"
  top: "conv3/bn"
  param {
    lr_mult: 1
    decay_mult: 0
  }
  param {
    lr_mult: 1
    decay_mult: 0
  }
  param {
    lr_mult: 0
    decay_mult: 0
  }
  param {
    lr_mult: 0
    decay_mult: 0
  }
  bn_param {
    scale_filler {
      type: "constant"
      value: 1
    }
    shift_filler {
      type: "constant"
      value: 0
    }
    moving_average: true
    decay: 0.05
  }
}
layer {
  name: "relu3"
  type: "ReLU"
  bottom: "conv3/bn"
  top: "conv3/bn"
}
layer {
  name: "conv4"
  type: "ConvolutionData"
  bottom: "conv3/bn"
  top: "conv4"
  param {
    lr_mult: 1
    decay_mult: 1
  }
  param {
    lr_mult: 2
    decay_mult: 0
  }
  convolution_param {
    num_output: 512
    pad: 1
    kernel_size: 3
    group: 2
    weight_filler {
      type: "gaussian"
      std: 0.01
    }
    bias_filler {
      type: "constant"
      value: 0.1
    }
  }
}
layer {
  name: "bn4"
  type: "BNData"
  bottom: "conv4"
  top: "conv4/bn"
  param {
    lr_mult: 1
    decay_mult: 0
  }
  param {
    lr_mult: 1
    decay_mult: 0
  }
  param {
    lr_mult: 0
    decay_mult: 0
  }
  param {
    lr_mult: 0
    decay_mult: 0
  }
  bn_param {
    scale_filler {
      type: "constant"
      value: 1
    }
    shift_filler {
      type: "constant"
      value: 0
    }
    moving_average: true
    decay: 0.05
  }
}
layer {
  name: "relu4"
  type: "ReLU"
  bottom: "conv4/bn"
  top: "conv4/bn"
}
layer {
  name: "conv5"
  type: "ConvolutionData"
  bottom: "conv4/bn"
  top: "conv5"
  param {
    lr_mult: 1
    decay_mult: 1
  }
  param {
    lr_mult: 2
    decay_mult: 0
  }
  convolution_param {
    num_output: 384
    pad: 1
    kernel_size: 3
    group: 2
    weight_filler {
      type: "gaussian"
      std: 0.01
    }
    bias_filler {
      type: "constant"
      value: 0.1
    }
  }
}
layer {
  name: "bn5"
  type: "BNData"
  bottom: "conv5"
  top: "conv5/bn"
  param {
    lr_mult: 1
    decay_mult: 0
  }
  param {
    lr_mult: 1
    decay_mult: 0
  }
  param {
    lr_mult: 0
    decay_mult: 0
  }
  param {
    lr_mult: 0
    decay_mult: 0
  }
  bn_param {
    scale_filler {
      type: "constant"
      value: 1
    }
    shift_filler {
      type: "constant"
      value: 0
    }
    moving_average: true
    decay: 0.05
  }
}
layer {
  name: "relu5"
  type: "ReLU"
  bottom: "conv5/bn"
  top: "conv5/bn"
}
layer {
  name: "pool5"
  type: "Pooling"
  bottom: "conv5/bn"
  top: "pool5"
  pooling_param {
    pool: MAX
    kernel_size: 3
    stride: 2
  }
}
layer {
  name: "fc6"
  type: "InnerProduct"
  bottom: "pool5"
  top: "fc6"
  param {
    lr_mult: 1
    decay_mult: 1
  }
  param {
    lr_mult: 2
    decay_mult: 0
  }
  inner_product_param {
    num_output: 4096
    weight_filler {
      type: "gaussian"
      std: 0.01
    }
    bias_filler {
      type: "constant"
      value: 0.1
    }
  }
}
layer {
  name: "relu6"
  type: "ReLU"
  bottom: "fc6"
  top: "fc6"
}
layer {
  name: "drop6"
  type: "Dropout"
  bottom: "fc6"
  top: "fc6"
  dropout_param {
    dropout_ratio: 0.5
  }
}
layer {
  name: "reshape_data"
  type: "Reshape"
  bottom: "fc6"
  top: "data_reshape"
  reshape_param {
    shape {
      dim: 16
      dim: -1
      dim: 4096
    }
  }
}
layer {
  name: "lstm"
  type: "SLLSTM"
  bottom: "data_reshape"
  bottom: "clip_marker"
  top: "lstm"
  param {
    lr_mult: 1
    decay_mult: 1
  }
  param {
    lr_mult: 2
    decay_mult: 0
  }
  param {
    lr_mult: 1
    decay_mult: 1
  }
  recurrent_param {
    num_output: 512
    weight_filler {
      type: "gaussian"
      std: 0.01
    }
    bias_filler {
      type: "constant"
      value: 0
    }
  }
}
layer {
  name: "lstm_drop"
  type: "Dropout"
  bottom: "lstm"
  top: "lstm_drop"
  dropout_param {
    dropout_ratio: 0.5
  }
}
layer {
  name: "reverse"
  type: "Reverse"
  bottom: "clip_marker"
  bottom: "data_reshape"
  top: "inv_lstm_input"
}
layer {
  name: "invlstm"
  type: "SLLSTM"
  bottom: "inv_lstm_input"
  bottom: "clip_marker"
  top: "inv_lstm"
  param {
    lr_mult: 1
    decay_mult: 1
  }
  param {
    lr_mult: 2
    decay_mult: 0
  }
  param {
    lr_mult: 1
    decay_mult: 1
  }
  recurrent_param {
    num_output: 512
    weight_filler {
      type: "gaussian"
      std: 0.01
    }
    bias_filler {
      type: "constant"
      value: 0
    }
  }
}
layer {
  name: "inv_lstm_drop"
  type: "Dropout"
  bottom: "inv_lstm"
  top: "inv_lstm_drop"
  dropout_param {
    dropout_ratio: 0.5
  }
}
layer {
  name: "reverse"
  type: "Reverse"
  bottom: "clip_marker"
  bottom: "inv_lstm_drop"
  top: "inv_lstm_output"
}
layer {
  name: "concat"
  type: "Concat"
  bottom: "lstm_drop"
  bottom: "inv_lstm_output"
  top: "lstm_concat"
  concat_param {
    axis: 2
  }
}
layer {
  name: "fc8_final"
  type: "InnerProduct"
  bottom: "lstm_concat"
  top: "fc8_final"
  param {
    lr_mult: 1
    decay_mult: 1
  }
  param {
    lr_mult: 2
    decay_mult: 0
  }
  inner_product_param {
    num_output: 12
    weight_filler {
      type: "gaussian"
      std: 0.01
    }
    bias_filler {
      type: "constant"
      value: 0
    }
    axis: 2
  }
}
layer {
  name: "loss"
  type: "SoftmaxWithLoss"
  bottom: "fc8_final"
  bottom: "label"
  top: "loss"
  loss_param {
    ignore_label: -1
  }
  softmax_param {
    axis: 2
  }
}
layer {
  name: "accuracy"
  type: "Accuracy"
  bottom: "fc8_final"
  bottom: "label"
  top: "accuracy"
  accuracy_param {
    axis: 2
    ignore_label: -1
  }
}
layer {
  name: "accuracy_top2"
  type: "Accuracy"
  bottom: "fc8_final"
  bottom: "label"
  top: "accuracy_top2"
  accuracy_param {
    top_k: 2
    axis: 2
    ignore_label: -1
  }
}
I0406 18:08:01.556453 86686 layer_factory.hpp:74] Creating layer data
I0406 18:08:01.556468 86686 net.cpp:90] Creating Layer data
I0406 18:08:01.556475 86686 net.cpp:368] data -> data
I0406 18:08:01.556485 86686 net.cpp:368] data -> label
I0406 18:08:01.556494 86686 net.cpp:368] data -> clip_marker
I0406 18:08:01.556500 86686 net.cpp:120] Setting up data
I0406 18:08:01.556506 86686 video_data_rnn_layer.cpp:42] Opening file: /data2/action/rgb/list/test_video.txt
I0406 18:08:01.556627 86686 video_data_rnn_layer.cpp:58] A total of 180 videos.
I0406 18:08:01.562860 86686 net.cpp:127] Top shape: 16 3 227 227 (2473392)
I0406 18:08:01.562909 86686 net.cpp:127] Top shape: 16 1 1 (16)
I0406 18:08:01.562918 86686 net.cpp:127] Top shape: 16 1 1 (16)
I0406 18:08:01.562928 86686 layer_factory.hpp:74] Creating layer label_data_1_split
I0406 18:08:01.562945 86686 net.cpp:90] Creating Layer label_data_1_split
I0406 18:08:01.562952 86686 net.cpp:410] label_data_1_split <- label
I0406 18:08:01.562965 86686 net.cpp:368] label_data_1_split -> label_data_1_split_0
I0406 18:08:01.563002 86686 net.cpp:368] label_data_1_split -> label_data_1_split_1
I0406 18:08:01.563019 86686 net.cpp:368] label_data_1_split -> label_data_1_split_2
I0406 18:08:01.563030 86686 net.cpp:120] Setting up label_data_1_split
I0406 18:08:01.563048 86686 net.cpp:127] Top shape: 16 1 1 (16)
I0406 18:08:01.563062 86686 net.cpp:127] Top shape: 16 1 1 (16)
I0406 18:08:01.563072 86686 net.cpp:127] Top shape: 16 1 1 (16)
I0406 18:08:01.563083 86686 layer_factory.hpp:74] Creating layer clip_marker_data_2_split
I0406 18:08:01.563097 86686 net.cpp:90] Creating Layer clip_marker_data_2_split
I0406 18:08:01.563107 86686 net.cpp:410] clip_marker_data_2_split <- clip_marker
I0406 18:08:01.563118 86686 net.cpp:368] clip_marker_data_2_split -> clip_marker_data_2_split_0
I0406 18:08:01.563160 86686 net.cpp:368] clip_marker_data_2_split -> clip_marker_data_2_split_1
I0406 18:08:01.563177 86686 net.cpp:368] clip_marker_data_2_split -> clip_marker_data_2_split_2
I0406 18:08:01.563194 86686 net.cpp:368] clip_marker_data_2_split -> clip_marker_data_2_split_3
I0406 18:08:01.563208 86686 net.cpp:120] Setting up clip_marker_data_2_split
I0406 18:08:01.563223 86686 net.cpp:127] Top shape: 16 1 1 (16)
I0406 18:08:01.563236 86686 net.cpp:127] Top shape: 16 1 1 (16)
I0406 18:08:01.563246 86686 net.cpp:127] Top shape: 16 1 1 (16)
I0406 18:08:01.563257 86686 net.cpp:127] Top shape: 16 1 1 (16)
I0406 18:08:01.563266 86686 layer_factory.hpp:74] Creating layer conv1
I0406 18:08:01.563283 86686 net.cpp:90] Creating Layer conv1
I0406 18:08:01.563294 86686 net.cpp:410] conv1 <- data
I0406 18:08:01.563308 86686 net.cpp:368] conv1 -> conv1
I0406 18:08:01.563325 86686 net.cpp:120] Setting up conv1
I0406 18:08:01.825242 86685 net.cpp:127] Top shape: 16 16 512 (131072)
I0406 18:08:01.825291 86685 layer_factory.hpp:74] Creating layer lstm_drop
I0406 18:08:01.825304 86685 net.cpp:90] Creating Layer lstm_drop
I0406 18:08:01.825309 86685 net.cpp:410] lstm_drop <- lstm
I0406 18:08:01.825317 86685 net.cpp:368] lstm_drop -> lstm_drop
I0406 18:08:01.825327 86685 net.cpp:120] Setting up lstm_drop
I0406 18:08:01.825347 86685 net.cpp:127] Top shape: 16 16 512 (131072)
I0406 18:08:01.825358 86685 layer_factory.hpp:74] Creating layer reverse
I0406 18:08:01.825366 86685 net.cpp:90] Creating Layer reverse
I0406 18:08:01.825371 86685 net.cpp:410] reverse <- clip_marker_data_2_split_1
I0406 18:08:01.825376 86685 net.cpp:410] reverse <- data_reshape_reshape_data_0_split_1
I0406 18:08:01.825382 86685 net.cpp:368] reverse -> inv_lstm_input
I0406 18:08:01.825388 86685 net.cpp:120] Setting up reverse
I0406 18:08:01.825394 86685 net.cpp:127] Top shape: 16 16 4096 (1048576)
I0406 18:08:01.825397 86685 layer_factory.hpp:74] Creating layer invlstm
I0406 18:08:01.825420 86685 net.cpp:90] Creating Layer invlstm
I0406 18:08:01.825426 86685 net.cpp:410] invlstm <- inv_lstm_input
I0406 18:08:01.825431 86685 net.cpp:410] invlstm <- clip_marker_data_2_split_2
I0406 18:08:01.825438 86685 net.cpp:368] invlstm -> inv_lstm
I0406 18:08:01.825448 86685 net.cpp:120] Setting up invlstm
I0406 18:08:02.086694 86685 net.cpp:127] Top shape: 16 16 512 (131072)
I0406 18:08:02.086736 86685 layer_factory.hpp:74] Creating layer inv_lstm_drop
I0406 18:08:02.086750 86685 net.cpp:90] Creating Layer inv_lstm_drop
I0406 18:08:02.086756 86685 net.cpp:410] inv_lstm_drop <- inv_lstm
I0406 18:08:02.086766 86685 net.cpp:368] inv_lstm_drop -> inv_lstm_drop
I0406 18:08:02.086776 86685 net.cpp:120] Setting up inv_lstm_drop
I0406 18:08:02.086796 86685 net.cpp:127] Top shape: 16 16 512 (131072)
I0406 18:08:02.086805 86685 layer_factory.hpp:74] Creating layer reverse
I0406 18:08:02.086812 86685 net.cpp:90] Creating Layer reverse
I0406 18:08:02.086818 86685 net.cpp:410] reverse <- clip_marker_data_2_split_3
I0406 18:08:02.086823 86685 net.cpp:410] reverse <- inv_lstm_drop
I0406 18:08:02.086829 86685 net.cpp:368] reverse -> inv_lstm_output
I0406 18:08:02.086834 86685 net.cpp:120] Setting up reverse
I0406 18:08:02.086840 86685 net.cpp:127] Top shape: 16 16 512 (131072)
I0406 18:08:02.086843 86685 layer_factory.hpp:74] Creating layer concat
I0406 18:08:02.086850 86685 net.cpp:90] Creating Layer concat
I0406 18:08:02.086869 86685 net.cpp:410] concat <- lstm_drop
I0406 18:08:02.086885 86685 net.cpp:410] concat <- inv_lstm_output
I0406 18:08:02.086891 86685 net.cpp:368] concat -> lstm_concat
I0406 18:08:02.086900 86685 net.cpp:120] Setting up concat
I0406 18:08:02.086921 86685 net.cpp:127] Top shape: 16 16 1024 (262144)
I0406 18:08:02.086927 86685 layer_factory.hpp:74] Creating layer fc8_final
I0406 18:08:02.086937 86685 net.cpp:90] Creating Layer fc8_final
I0406 18:08:02.086942 86685 net.cpp:410] fc8_final <- lstm_concat
I0406 18:08:02.086948 86685 net.cpp:368] fc8_final -> fc8_final
I0406 18:08:02.086956 86685 net.cpp:120] Setting up fc8_final
I0406 18:08:02.087371 86685 net.cpp:127] Top shape: 16 16 12 (3072)
I0406 18:08:02.087379 86685 layer_factory.hpp:74] Creating layer fc8_final_fc8_final_0_split
I0406 18:08:02.087398 86685 net.cpp:90] Creating Layer fc8_final_fc8_final_0_split
I0406 18:08:02.087401 86685 net.cpp:410] fc8_final_fc8_final_0_split <- fc8_final
I0406 18:08:02.087407 86685 net.cpp:368] fc8_final_fc8_final_0_split -> fc8_final_fc8_final_0_split_0
I0406 18:08:02.087415 86685 net.cpp:368] fc8_final_fc8_final_0_split -> fc8_final_fc8_final_0_split_1
I0406 18:08:02.087422 86685 net.cpp:368] fc8_final_fc8_final_0_split -> fc8_final_fc8_final_0_split_2
I0406 18:08:02.087440 86685 net.cpp:120] Setting up fc8_final_fc8_final_0_split
I0406 18:08:02.087452 86685 net.cpp:127] Top shape: 16 16 12 (3072)
I0406 18:08:02.087456 86685 net.cpp:127] Top shape: 16 16 12 (3072)
I0406 18:08:02.087460 86685 net.cpp:127] Top shape: 16 16 12 (3072)
I0406 18:08:02.087491 86685 layer_factory.hpp:74] Creating layer loss
I0406 18:08:02.087501 86685 net.cpp:90] Creating Layer loss
I0406 18:08:02.087504 86685 net.cpp:410] loss <- fc8_final_fc8_final_0_split_0
I0406 18:08:02.087520 86685 net.cpp:410] loss <- label_data_1_split_0
I0406 18:08:02.087527 86685 net.cpp:368] loss -> loss
I0406 18:08:02.087549 86685 net.cpp:120] Setting up loss
…
  type: "VideoDataRNN"
  top: "data"
  top: "label"
  top: "clip_marker"
  include {
    phase: TEST
    stage: "test-on-test"
  }
  transform_param {
    mirror: false
    crop_size: 227
    mean_value: 103.939
    mean_value: 116.779
    mean_value: 123.68
    fix_crop: true
    is_flow: false
  }
  video_data_param {
    source: "/data2/action/rgb/list/test_video.txt"
    batch_size: 2
    shuffle: true
    new_height: 240
    new_width: 320
    modality: RGB
    root_folder: "/data2/action/rgb/"
    seq_length: 16
    stride_seq: 6
    eval_last: true
  }
}
layer {
  name: "conv1"
  type: "ConvolutionData"
  bottom: "data"
  top: "conv1"
  param {
    lr_mult: 1
    decay_mult: 1
  }
  param {
    lr_mult: 2
    decay_mult: 0
  }
  convolution_param {
    num_output: 96
    kernel_size: 7
    stride: 2
    weight_filler {
      type: "gaussian"
      std: 0.01
    }
    bias_filler {
      type: "constant"
      value: 0.1
    }
  }
}
layer {
  name: "bn1"
  type: "BNData"
  bottom: "conv1"
  top: "conv1/bn"
  param {
    lr_mult: 1
    decay_mult: 0
  }
  param {
    lr_mult: 1
    decay_mult: 0
  }
  param {
    lr_mult: 0
    decay_mult: 0
  }
  param {
    lr_mult: 0
    decay_mult: 0
  }
  bn_param {
    scale_filler {
      type: "constant"
      value: 1
    }
    shift_filler {
      type: "constant"
      value: 0
    }
    moving_average: true
    decay: 0.05
  }
}
layer {
  name: "relu1"
  type: "ReLU"
  bottom: "conv1/bn"
  top: "conv1/bn"
}
layer {
  name: "pool1"
  type: "Pooling"
  bottom: "conv1/bn"
  top: "pool1"
  pooling_param {
    pool: MAX
    kernel_size: 3
    stride: 2
  }
}
layer {
  name: "norm1"
  type: "LRN"
  bottom: "pool1"
  top: "norm1"
  lrn_param {
    local_size: 5
    alpha: 0.0001
    beta: 0.75
  }
}
layer {
  name: "conv2"
  type: "ConvolutionData"
  bottom: "norm1"
  top: "conv2"
  param {
    lr_mult: 1
    decay_mult: 1
  }
  param {
    lr_mult: 2
    decay_mult: 0
  }
  convolution_param {
    num_output: 384
    kernel_size: 5
    group: 2
    stride: 2
    weight_filler {
      type: "gaussian"
      std: 0.01
    }
    bias_filler {
      type: "constant"
      value: 0.1
    }
  }
}
layer {
  name: "bn2"
  type: "BNData"
  bottom: "conv2"
  top: "conv2/bn"
  param {
    lr_mult: 1
    decay_mult: 0
  }
  param {
    lr_mult: 1
    decay_mult: 0
  }
  param {
    lr_mult: 0
    decay_mult: 0
  }
  param {
    lr_mult: 0
    decay_mult: 0
  }
  bn_param {
    scale_filler {
      type: "constant"
      value: 1
    }
    shift_filler {
      type: "constant"
      value: 0
    }
    moving_average: true
    decay: 0.05
  }
}
layer {
  name: "relu2"
  type: "ReLU"
  bottom: "conv2/bn"
  top: "conv2/bn"
}
layer {
  name: "pool2"
  type: "Pooling"
  bottom: "conv2/bn"
  top: "pool2"
  pooling_param {
    pool: MAX
    kernel_size: 3
    stride: 2
  }
}
layer {
  name: "norm2"
  type: "LRN"
  bottom: "pool2"
  top: "norm2"
  lrn_param {
    local_size: 5
    alpha: 0.0001
    beta: 0.75
  }
}
layer {
  name: "conv3"
  type: "ConvolutionData"
  bottom: "norm2"
  top: "conv3"
  param {
    lr_mult: 1
    decay_mult: 1
  }
  param {
    lr_mult: 2
    decay_mult: 0
  }
  convolution_param {
    num_output: 512
    pad: 1
    kernel_size: 3
    weight_filler {
      type: "gaussian"
      std: 0.01
    }
    bias_filler {
      type: "constant"
      value: 0.1
    }
  }
}
layer {
  name: "bn3"
  type: "BNData"
  bottom: "conv3"
  top: "conv3/bn"
  param {
    lr_mult: 1
    decay_mult: 0
  }
  param {
    lr_mult: 1
    decay_mult: 0
  }
  param {
    lr_mult: 0
    decay_mult: 0
  }
  param {
    lr_mult: 0
    decay_mult: 0
  }
  bn_param {
    scale_filler {
      type: "constant"
      value: 1
    }
    shift_filler {
      type: "constant"
      value: 0
    }
    moving_average: true
    decay: 0.05
  }
}
layer {
  name: "relu3"
  type: "ReLU"
  bottom: "conv3/bn"
  top: "conv3/bn"
}
layer {
  name: "conv4"
  type: "ConvolutionData"
  bottom: "conv3/bn"
  top: "conv4"
  param {
    lr_mult: 1
    decay_mult: 1
  }
  param {
    lr_mult: 2
    decay_mult: 0
  }
  convolution_param {
    num_output: 512
    pad: 1
    kernel_size: 3
    group: 2
    weight_filler {
      type: "gaussian"
      std: 0.01
    }
    bias_filler {
      type: "constant"
      value: 0.1
    }
  }
}
layer {
  name: "bn4"
  type: "BNData"
  bottom: "conv4"
  top: "conv4/bn"
  param {
    lr_mult: 1
    decay_mult: 0
  }
  param {
    lr_mult: 1
    decay_mult: 0
  }
  param {
    lr_mult: 0
    decay_mult: 0
  }
  param {
    lr_mult: 0
    decay_mult: 0
  }
  bn_param {
    scale_filler {
      type: "constant"
      value: 1
    }
    shift_filler {
      type: "constant"
      value: 0
    }
    moving_average: true
    decay: 0.05
  }
}
layer {
  name: "relu4"
  type: "ReLU"
  bottom: "conv4/bn"
  top: "conv4/bn"
}
layer {
  name: "conv5"
  type: "ConvolutionData"
  bottom: "conv4/bn"
  top: "conv5"
  param {
    lr_mult: 1
    decay_mult: 1
  }
  param {
    lr_mult: 2
    decay_mult: 0
  }
  convolution_param {
    num_output: 384
    pad: 1
    kernel_size: 3
    group: 2
    weight_filler {
      type: "gaussian"
      std: 0.01
    }
    bias_filler {
      type: "constant"
      value: 0.1
    }
  }
}
layer {
  name: "bn5"
  type: "BNData"
  bottom: "conv5"
  top: "conv5/bn"
  param {
    lr_mult: 1
    decay_mult: 0
  }
  param {
    lr_mult: 1
    decay_mult: 0
  }
  param {
    lr_mult: 0
    decay_mult: 0
  }
  param {
    lr_mult: 0
    decay_mult: 0
  }
  bn_param {
    scale_filler {
      type: "constant"
      value: 1
    }
    shift_filler {
      type: "constant"
      value: 0
    }
    moving_average: true
    decay: 0.05
  }
}
layer {
  name: "relu5"
  type: "ReLU"
  bottom: "conv5/bn"
  top: "conv5/bn"
}
layer {
  name: "pool5"
  type: "Pooling"
  bottom: "conv5/bn"
  top: "pool5"
  pooling_param {
    pool: MAX
    kernel_size: 3
    stride: 2
  }
}
layer {
  name: "fc6"
  type: "InnerProduct"
  bottom: "pool5"
  top: "fc6"
  param {
    lr_mult: 1
    decay_mult: 1
  }
  param {
    lr_mult: 2
    decay_mult: 0
  }
  inner_product_param {
    num_output: 4096
    weight_filler {
      type: "gaussian"
      std: 0.01
    }
    bias_filler {
      type: "constant"
      value: 0.1
    }
  }
}
layer {
  name: "relu6"
  type: "ReLU"
  bottom: "fc6"
  top: "fc6"
}
layer {
  name: "drop6"
  type: "Dropout"
  bottom: "fc6"
  top: "fc6"
  dropout_param {
    dropout_ratio: 0.5
  }
}
layer {
  name: "reshape_data"
  type: "Reshape"
  bottom: "fc6"
  top: "data_reshape"
  reshape_param {
    shape {
      dim: 16
      dim: -1
      dim: 4096
    }
  }
}
layer {
  name: "lstm"
  type: "SLLSTM"
  bottom: "data_reshape"
  bottom: "clip_marker"
  top: "lstm"
  param {
    lr_mult: 1
    decay_mult: 1
  }
  param {
    lr_mult: 2
    decay_mult: 0
  }
  param {
    lr_mult: 1
    decay_mult: 1
  }
  recurrent_param {
    num_output: 512
    weight_filler {
      type: "gaussian"
      std: 0.01
    }
    bias_filler {
      type: "constant"
      value: 0
    }
  }
}
layer {
  name: "lstm_drop"
  type: "Dropout"
  bottom: "lstm"
  top: "lstm_drop"
  dropout_param {
    dropout_ratio: 0.5
  }
}
layer {
  name: "reverse"
  type: "Reverse"
  bottom: "clip_marker"
  bottom: "data_reshape"
  top: "inv_lstm_input"
}
layer {
  name: "invlstm"
  type: "SLLSTM"
  bottom: "inv_lstm_input"
  bottom: "clip_marker"
  top: "inv_lstm"
  param {
    lr_mult: 1
    decay_mult: 1
  }
  param {
    lr_mult: 2
    decay_mult: 0
  }
  param {
    lr_mult: 1
    decay_mult: 1
  }
  recurrent_param {
    num_output: 512
    weight_filler {
      type: "gaussian"
      std: 0.01
    }
    bias_filler {
      type: "constant"
      value: 0
    }
  }
}
layer {
  name: "inv_lstm_drop"
  type: "Dropout"
  bottom: "inv_lstm"
  top: "inv_lstm_drop"
  dropout_param {
    dropout_ratio: 0.5
  }
}
layer {
  name: "reverse"
  type: "Reverse"
  bottom: "clip_marker"
  bottom: "inv_lstm_drop"
  top: "inv_lstm_output"
}
layer {
  name: "concat"
  type: "Concat"
  bottom: "lstm_drop"
  bottom: "inv_lstm_output"
  top: "lstm_concat"
  concat_param {
    axis: 2
  }
}
layer {
  name: "fc8_final"
  type: "InnerProduct"
  bottom: "lstm_concat"
  top: "fc8_final"
  param {
    lr_mult: 1
    decay_mult: 1
  }
  param {
    lr_mult: 2
    decay_mult: 0
  }
  inner_product_param {
    num_output: 12
    weight_filler {
      type: "gaussian"
      std: 0.01
    }
    bias_filler {
      type: "constant"
      value: 0
    }
    axis: 2
  }
}
layer {
  name: "loss"
  type: "SoftmaxWithLoss"
  bottom: "fc8_final"
  bottom: "label"
  top: "loss"
  loss_param {
    ignore_label: -1
  }
  softmax_param {
    axis: 2
  }
}
layer {
  name: "accuracy"
  type: "Accuracy"
  bottom: "fc8_final"
  bottom: "label"
  top: "accuracy"
  accuracy_param {
    axis: 2
    ignore_label: -1
  }
}
layer {
  name: "accuracy_top2"
  type: "Accuracy"
  bottom: "fc8_final"
  bottom: "label"
  top: "accuracy_top2"
  accuracy_param {
    top_k: 2
    axis: 2
    ignore_label: -1
  }
}
I0406 18:08:02.090715 86685 layer_factory.hpp:74] Creating layer data
I0406 18:08:02.090741 86685 net.cpp:90] Creating Layer data
I0406 18:08:02.090747 86685 net.cpp:368] data -> data
I0406 18:08:02.090771 86685 net.cpp:368] data -> label
I0406 18:08:02.090790 86685 net.cpp:368] data -> clip_marker
I0406 18:08:02.090808 86685 net.cpp:120] Setting up data
I0406 18:08:02.090814 86685 video_data_rnn_layer.cpp:42] Opening file: /data2/action/rgb/list/test_video.txt
I0406 18:08:02.090966 86685 video_data_rnn_layer.cpp:58] A total of 180 videos.
I0406 18:08:02.097151 86685 net.cpp:127] Top shape: 16 3 227 227 (2473392)
I0406 18:08:02.097178 86685 net.cpp:127] Top shape: 16 1 1 (16)
I0406 18:08:02.097187 86685 net.cpp:127] Top shape: 16 1 1 (16)
I0406 18:08:02.097193 86685 layer_factory.hpp:74] Creating layer label_data_1_split
I0406 18:08:02.097215 86685 net.cpp:90] Creating Layer label_data_1_split
I0406 18:08:02.097223 86685 net.cpp:410] label_data_1_split <- label
I0406 18:08:02.097244 86685 net.cpp:368] label_data_1_split -> label_data_1_split_0
I0406 18:08:02.097266 86685 net.cpp:368] label_data_1_split -> label_data_1_split_1
I0406 18:08:02.097297 86685 net.cpp:368] label_data_1_split -> label_data_1_split_2
I0406 18:08:02.097311 86685 net.cpp:120] Setting up label_data_1_split
I0406 18:08:02.097340 86685 net.cpp:127] Top shape: 16 1 1 (16)
I0406 18:08:02.097349 86685 net.cpp:127] Top shape: 16 1 1 (16)
I0406 18:08:02.097357 86685 net.cpp:127] Top shape: 16 1 1 (16)
I0406 18:08:02.097363 86685 layer_factory.hpp:74] Creating layer clip_marker_data_2_split
I0406 18:08:02.097373 86685 net.cpp:90] Creating Layer clip_marker_data_2_split
I0406 18:08:02.097380 86685 net.cpp:410] clip_marker_data_2_split <- clip_marker
I0406 18:08:02.097390 86685 net.cpp:368] clip_marker_data_2_split -> clip_marker_data_2_split_0
I0406 18:08:02.097421 86685 net.cpp:368] clip_marker_data_2_split -> clip_marker_data_2_split_1
I0406 18:08:02.097436 86685 net.cpp:368] clip_marker_data_2_split -> clip_marker_data_2_split_2
I0406 18:08:02.097451 86685 net.cpp:368] clip_marker_data_2_split -> clip_marker_data_2_split_3
I0406 18:08:02.097465 86685 net.cpp:120] Setting up clip_marker_data_2_split
I0406 18:08:02.097476 86685 net.cpp:127] Top shape: 16 1 1 (16)
I0406 18:08:02.097484 86685 net.cpp:127] Top shape: 16 1 1 (16)
I0406 18:08:02.097492 86685 net.cpp:127] Top shape: 16 1 1 (16)
I0406 18:08:02.097501 86685 net.cpp:127] Top shape: 16 1 1 (16)
I0406 18:08:02.097506 86685 layer_factory.hpp:74] Creating layer conv1
I0406 18:08:02.097518 86685 net.cpp:90] Creating Layer conv1
I0406 18:08:02.097527 86685 net.cpp:410] conv1 <- data
I0406 18:08:02.097537 86685 net.cpp:368] conv1 -> conv1
I0406 18:08:02.097551 86685 net.cpp:120] Setting up conv1
I0406 18:08:02.099385 86686 cudnn_conv_data_layer.cpp:184] Reallocating workspace storage: 221796
I0406 18:08:02.099447 86686 net.cpp:127] Top shape: 16 96 111 111 (18925056)
I0406 18:08:02.099483 86686 layer_factory.hpp:74] Creating layer bn1
I0406 18:08:02.099495 86686 net.cpp:90] Creating Layer bn1
I0406 18:08:02.099501 86686 net.cpp:410] bn1 <- conv1
I0406 18:08:02.099509 86686 net.cpp:368] bn1 -> conv1/bn
I0406 18:08:02.099519 86686 net.cpp:120] Setting up bn1
I0406 18:08:02.099658 86685 cudnn_conv_data_layer.cpp:184] Reallocating workspace storage: 221796
I0406 18:08:02.099728 86685 net.cpp:127] Top shape: 16 96 111 111 (18925056)
I0406 18:08:02.099746 86685 layer_factory.hpp:74] Creating layer bn1
I0406 18:08:02.099773 86685 net.cpp:90] Creating Layer bn1
I0406 18:08:02.099781 86685 net.cpp:410] bn1 <- conv1
I0406 18:08:02.099792 86685 net.cpp:368] bn1 -> conv1/bn
I0406 18:08:02.099805 86685 net.cpp:120] Setting up bn1
I0406 18:08:02.099844 86686 bn_data_layer.cpp:60] scale: 1 1 1
I0406 18:08:02.099875 86686 bn_data_layer.cpp:71] shift: 0 0 0
I0406 18:08:02.099911 86686 bn_data_layer.cpp:80] mean: 0 0 0
I0406 18:08:02.099923 86686 bn_data_layer.cpp:89] variance: 0 0 0
I0406 18:08:02.099844 86685 bn_data_layer.cpp:60] scale: 1 1 1
I0406 18:08:02.099875 86685 bn_data_layer.cpp:71] shift: 0 0 0
I0406 18:08:02.099911 86685 bn_data_layer.cpp:80] mean: 0 0 0
I0406 18:08:02.099922 86685 bn_data_layer.cpp:89] variance: 0 0 0
I0406 18:08:02.099930 86686 net.cpp:127] Top shape: 16 96 111 111 (18925056)
I0406 18:08:02.099932 86685 net.cpp:127] Top shape: 16 96 111 111 (18925056)
I0406 18:08:02.099939 86686 layer_factory.hpp:74] Creating layer relu1
I0406 18:08:02.099958 86686 net.cpp:90] Creating Layer relu1
I0406 18:08:02.099961 86685 layer_factory.hpp:74] Creating layer relu1
I0406 18:08:02.099962 86686 net.cpp:410] relu1 <- conv1/bn
I0406 18:08:02.099968 86686 net.cpp:357] relu1 -> conv1/bn (in-place)
I0406 18:08:02.099969 86685 net.cpp:90] Creating Layer relu1
I0406 18:08:02.099974 86686 net.cpp:120] Setting up relu1
I0406 18:08:02.099975 86685 net.cpp:410] relu1 <- conv1/bn
I0406 18:08:02.099983 86685 net.cpp:357] relu1 -> conv1/bn (in-place)
I0406 18:08:02.099994 86685 net.cpp:120] Setting up relu1
I0406 18:08:02.100153 86686 net.cpp:127] Top shape: 16 96 111 111 (18925056)
I0406 18:08:02.100162 86686 layer_factory.hpp:74] Creating layer pool1
I0406 18:08:02.100181 86686 net.cpp:90] Creating Layer pool1
I0406 18:08:02.100185 86686 net.cpp:410] pool1 <- conv1/bn
I0406 18:08:02.100190 86686 net.cpp:368] pool1 -> pool1
I0406 18:08:02.100198 86686 net.cpp:120] Setting up pool1
I0406 18:08:02.100253 86685 net.cpp:127] Top shape: 16 96 111 111 (18925056)
I0406 18:08:02.100265 86685 layer_factory.hpp:74] Creating layer pool1
I0406 18:08:02.100276 86685 net.cpp:90] Creating Layer pool1
I0406 18:08:02.100282 86685 net.cpp:410] pool1 <- conv1/bn
I0406 18:08:02.100291 86685 net.cpp:368] pool1 -> pool1
I0406 18:08:02.100301 86685 net.cpp:120] Setting up pool1
I0406 18:08:02.100507 86686 net.cpp:127] Top shape: 16 96 55 55 (4646400)
I0406 18:08:02.100519 86686 layer_factory.hpp:74] Creating layer norm1
I0406 18:08:02.100528 86686 net.cpp:90] Creating Layer norm1
I0406 18:08:02.100531 86686 net.cpp:410] norm1 <- pool1
I0406 18:08:02.100538 86686 net.cpp:368] norm1 -> norm1
I0406 18:08:02.100543 86686 net.cpp:120] Setting up norm1
I0406 18:08:02.100550 86686 net.cpp:127] Top shape: 16 96 55 55 (4646400)
I0406 18:08:02.100554 86686 layer_factory.hpp:74] Creating layer conv2
I0406 18:08:02.100564 86686 net.cpp:90] Creating Layer conv2
I0406 18:08:02.100569 86686 net.cpp:410] conv2 <- norm1
I0406 18:08:02.100575 86686 net.cpp:368] conv2 -> conv2
I0406 18:08:02.100584 86686 net.cpp:120] Setting up conv2
I0406 18:08:02.100675 86685 net.cpp:127] Top shape: 16 96 55 55 (4646400)
I0406 18:08:02.100690 86685 layer_factory.hpp:74] Creating layer norm1
I0406 18:08:02.100702 86685 net.cpp:90] Creating Layer norm1
I0406 18:08:02.100709 86685 net.cpp:410] norm1 <- pool1
I0406 18:08:02.100718 86685 net.cpp:368] norm1 -> norm1
I0406 18:08:02.100730 86685 net.cpp:120] Setting up norm1
I0406 18:08:02.100744 86685 net.cpp:127] Top shape: 16 96 55 55 (4646400)
I0406 18:08:02.100751 86685 layer_factory.hpp:74] Creating layer conv2
I0406 18:08:02.100764 86685 net.cpp:90] Creating Layer conv2
I0406 18:08:02.100771 86685 net.cpp:410] conv2 <- norm1
I0406 18:08:02.100781 86685 net.cpp:368] conv2 -> conv2
I0406 18:08:02.100792 86685 net.cpp:120] Setting up conv2
I0406 18:08:02.121603 86686 cudnn_conv_data_layer.cpp:184] Reallocating workspace storage: 37392
I0406 18:08:02.121639 86686 net.cpp:127] Top shape: 16 384 26 26 (4153344)
I0406 18:08:02.121646 86686 layer_factory.hpp:74] Creating layer bn2
I0406 18:08:02.121659 86686 net.cpp:90] Creating Layer bn2
I0406 18:08:02.121662 86686 net.cpp:410] bn2 <- conv2
I0406 18:08:02.121680 86686 net.cpp:368] bn2 -> conv2/bn
I0406 18:08:02.121688 86686 net.cpp:120] Setting up bn2
I0406 18:08:02.122278 86685 cudnn_conv_data_layer.cpp:184] Reallocating workspace storage: 37392
I0406 18:08:02.122323 86685 net.cpp:127] Top shape: 16 384 26 26 (4153344)
I0406 18:08:02.122349 86685 layer_factory.hpp:74] Creating layer bn2
I0406 18:08:02.122361 86685 net.cpp:90] Creating Layer bn2
I0406 18:08:02.122372 86685 net.cpp:410] bn2 <- conv2
I0406 18:08:02.122386 86685 net.cpp:368] bn2 -> conv2/bn
I0406 18:08:02.122400 86685 net.cpp:120] Setting up bn2
I0406 18:08:02.122447 86685 bn_data_layer.cpp:60] scale: 1 1 1
I0406 18:08:02.122475 86685 bn_data_layer.cpp:71] shift: 0 0 0
I0406 18:08:02.122489 86685 bn_data_layer.cpp:80] mean: 0 0 0
I0406 18:08:02.122447 86686 bn_data_layer.cpp:60] scale: 1 1 1
I0406 18:08:02.122475 86686 bn_data_layer.cpp:71] shift: 0 0 0
I0406 18:08:02.122488 86686 bn_data_layer.cpp:80] mean: 0 0 0
I0406 18:08:02.122503 86685 bn_data_layer.cpp:89] variance: 0 0 0
I0406 18:08:02.122503 86686 bn_data_layer.cpp:89] variance: 0 0 0
I0406 18:08:02.122512 86686 net.cpp:127] Top shape: 16 384 26 26 (4153344)
I0406 18:08:02.122512 86685 net.cpp:127] Top shape: 16 384 26 26 (4153344)
I0406 18:08:02.122534 86686 layer_factory.hpp:74] Creating layer relu2
I0406 18:08:02.122555 86686 net.cpp:90] Creating Layer relu2
I0406 18:08:02.122540 86685 layer_factory.hpp:74] Creating layer relu2
I0406 18:08:02.122560 86686 net.cpp:410] relu2 <- conv2/bn
I0406 18:08:02.122565 86685 net.cpp:90] Creating Layer relu2
I0406 18:08:02.122566 86686 net.cpp:357] relu2 -> conv2/bn (in-place)
I0406 18:08:02.122572 86686 net.cpp:120] Setting up relu2
I0406 18:08:02.122572 86685 net.cpp:410] relu2 <- conv2/bn
I0406 18:08:02.122583 86685 net.cpp:357] relu2 -> conv2/bn (in-place)
I0406 18:08:02.122596 86685 net.cpp:120] Setting up relu2
I0406 18:08:02.122943 86686 net.cpp:127] Top shape: 16 384 26 26 (4153344)
I0406 18:08:02.122954 86686 layer_factory.hpp:74] Creating layer pool2
I0406 18:08:02.122974 86686 net.cpp:90] Creating Layer pool2
I0406 18:08:02.122979 86686 net.cpp:410] pool2 <- conv2/bn
I0406 18:08:02.122985 86686 net.cpp:368] pool2 -> pool2
I0406 18:08:02.123003 86686 net.cpp:120] Setting up pool2
I0406 18:08:02.123116 86685 net.cpp:127] Top shape: 16 384 26 26 (4153344)
I0406 18:08:02.123131 86685 layer_factory.hpp:74] Creating layer pool2
I0406 18:08:02.123154 86685 net.cpp:90] Creating Layer pool2
I0406 18:08:02.123162 86685 net.cpp:410] pool2 <- conv2/bn
I0406 18:08:02.123169 86685 net.cpp:368] pool2 -> pool2
I0406 18:08:02.123204 86685 net.cpp:120] Setting up pool2
I0406 18:08:02.123230 86686 net.cpp:127] Top shape: 16 384 13 13 (1038336)
I0406 18:08:02.123239 86686 layer_factory.hpp:74] Creating layer norm2
I0406 18:08:02.123247 86686 net.cpp:90] Creating Layer norm2
I0406 18:08:02.123251 86686 net.cpp:410] norm2 <- pool2
I0406 18:08:02.123257 86686 net.cpp:368] norm2 -> norm2
I0406 18:08:02.123265 86686 net.cpp:120] Setting up norm2
I0406 18:08:02.123272 86686 net.cpp:127] Top shape: 16 384 13 13 (1038336)
I0406 18:08:02.123276 86686 layer_factory.hpp:74] Creating layer conv3
I0406 18:08:02.123296 86686 net.cpp:90] Creating Layer conv3
I0406 18:08:02.123298 86686 net.cpp:410] conv3 <- norm2
I0406 18:08:02.123306 86686 net.cpp:368] conv3 -> conv3
I0406 18:08:02.123311 86686 net.cpp:120] Setting up conv3
I0406 18:08:02.123471 86685 net.cpp:127] Top shape: 16 384 13 13 (1038336)
I0406 18:08:02.123482 86685 layer_factory.hpp:74] Creating layer norm2
I0406 18:08:02.123505 86685 net.cpp:90] Creating Layer norm2
I0406 18:08:02.123512 86685 net.cpp:410] norm2 <- pool2
I0406 18:08:02.123531 86685 net.cpp:368] norm2 -> norm2
I0406 18:08:02.123541 86685 net.cpp:120] Setting up norm2
I0406 18:08:02.123564 86685 net.cpp:127] Top shape: 16 384 13 13 (1038336)
I0406 18:08:02.123579 86685 layer_factory.hpp:74] Creating layer conv3
I0406 18:08:02.123592 86685 net.cpp:90] Creating Layer conv3
I0406 18:08:02.123600 86685 net.cpp:410] conv3 <- norm2
I0406 18:08:02.123612 86685 net.cpp:368] conv3 -> conv3
I0406 18:08:02.123625 86685 net.cpp:120] Setting up conv3
I0406 18:08:02.191517 86686 cudnn_conv_data_layer.cpp:184] Reallocating workspace storage: 9588
I0406 18:08:02.191604 86686 net.cpp:127] Top shape: 16 512 13 13 (1384448)
I0406 18:08:02.191609 86685 cudnn_conv_data_layer.cpp:184] Reallocating workspace storage: 9588
I0406 18:08:02.191634 86686 layer_factory.hpp:74] Creating layer bn3
I0406 18:08:02.191649 86686 net.cpp:90] Creating Layer bn3
I0406 18:08:02.191668 86686 net.cpp:410] bn3 <- conv3
I0406 18:08:02.191679 86686 net.cpp:368] bn3 -> conv3/bn
I0406 18:08:02.191692 86686 net.cpp:120] Setting up bn3
I0406 18:08:02.191700 86685 net.cpp:127] Top shape: 16 512 13 13 (1384448)
I0406 18:08:02.191711 86685 layer_factory.hpp:74] Creating layer bn3
I0406 18:08:02.191722 86685 net.cpp:90] Creating Layer bn3
I0406 18:08:02.191732 86685 net.cpp:410] bn3 <- conv3
I0406 18:08:02.191741 86685 net.cpp:368] bn3 -> conv3/bn
I0406 18:08:02.191751 86685 net.cpp:120] Setting up bn3
I0406 18:08:02.191776 86686 bn_data_layer.cpp:60] scale: 1 1 1
I0406 18:08:02.191776 86685 bn_data_layer.cpp:60] scale: 1 1 1
I0406 18:08:02.191797 86685 bn_data_layer.cpp:71] shift: 0 0 0
I0406 18:08:02.191802 86686 bn_data_layer.cpp:71] shift: 0 0 0
I0406 18:08:02.191809 86685 bn_data_layer.cpp:80] mean: 0 0 0
I0406 18:08:02.191813 86686 bn_data_layer.cpp:80] mean: 0 0 0
I0406 18:08:02.191822 86685 bn_data_layer.cpp:89] variance: 0 0 0
I0406 18:08:02.191823 86686 bn_data_layer.cpp:89] variance: 0 0 0
I0406 18:08:02.191829 86685 net.cpp:127] Top shape: 16 512 13 13 (1384448)
I0406 18:08:02.191831 86686 net.cpp:127] Top shape: 16 512 13 13 (1384448)
I0406 18:08:02.191843 86685 layer_factory.hpp:74] Creating layer relu3
I0406 18:08:02.191843 86686 layer_factory.hpp:74] Creating layer relu3
I0406 18:08:02.191849 86685 net.cpp:90] Creating Layer relu3
I0406 18:08:02.191849 86686 net.cpp:90] Creating Layer relu3
I0406 18:08:02.191854 86686 net.cpp:410] relu3 <- conv3/bn
I0406 18:08:02.191854 86685 net.cpp:410] relu3 <- conv3/bn
I0406 18:08:02.191860 86685 net.cpp:357] relu3 -> conv3/bn (in-place)
I0406 18:08:02.191861 86686 net.cpp:357] relu3 -> conv3/bn (in-place)
I0406 18:08:02.191866 86685 net.cpp:120] Setting up relu3
I0406 18:08:02.191867 86686 net.cpp:120] Setting up relu3
I0406 18:08:02.192260 86685 net.cpp:127] Top shape: 16 512 13 13 (1384448)
I0406 18:08:02.192275 86685 layer_factory.hpp:74] Creating layer conv4
I0406 18:08:02.192299 86685 net.cpp:90] Creating Layer conv4
I0406 18:08:02.192303 86685 net.cpp:410] conv4 <- conv3/bn
I0406 18:08:02.192297 86686 net.cpp:127] Top shape: 16 512 13 13 (1384448)
I0406 18:08:02.192307 86686 layer_factory.hpp:74] Creating layer conv4
I0406 18:08:02.192311 86685 net.cpp:368] conv4 -> conv4
I0406 18:08:02.192329 86686 net.cpp:90] Creating Layer conv4
I0406 18:08:02.192330 86685 net.cpp:120] Setting up conv4
I0406 18:08:02.192334 86686 net.cpp:410] conv4 <- conv3/bn
I0406 18:08:02.192342 86686 net.cpp:368] conv4 -> conv4
I0406 18:08:02.192351 86686 net.cpp:120] Setting up conv4
I0406 18:08:02.227746 86686 cudnn_conv_data_layer.cpp:184] Reallocating workspace storage: 19176
I0406 18:08:02.227784 86686 net.cpp:127] Top shape: 16 512 13 13 (1384448)
I0406 18:08:02.227792 86686 layer_factory.hpp:74] Creating layer bn4
I0406 18:08:02.227792 86685 cudnn_conv_data_layer.cpp:184] Reallocating workspace storage: 19176
I0406 18:08:02.227802 86686 net.cpp:90] Creating Layer bn4
I0406 18:08:02.227819 86686 net.cpp:410] bn4 <- conv4
I0406 18:08:02.227831 86685 net.cpp:127] Top shape: 16 512 13 13 (1384448)
I0406 18:08:02.227828 86686 net.cpp:368] bn4 -> conv4/bn
I0406 18:08:02.227854 86686 net.cpp:120] Setting up bn4
I0406 18:08:02.227854 86685 layer_factory.hpp:74] Creating layer bn4
I0406 18:08:02.227864 86685 net.cpp:90] Creating Layer bn4
I0406 18:08:02.227874 86685 net.cpp:410] bn4 <- conv4
I0406 18:08:02.227880 86685 net.cpp:368] bn4 -> conv4/bn
I0406 18:08:02.227887 86685 net.cpp:120] Setting up bn4
I0406 18:08:02.227911 86685 bn_data_layer.cpp:60] scale: 1 1 1
I0406 18:08:02.227912 86686 bn_data_layer.cpp:60] scale: 1 1 1
I0406 18:08:02.227927 86686 bn_data_layer.cpp:71] shift: 0 0 0
I0406 18:08:02.227931 86685 bn_data_layer.cpp:71] shift: 0 0 0
I0406 18:08:02.227946 86686 bn_data_layer.cpp:80] mean: 0 0 0
I0406 18:08:02.227942 86685 bn_data_layer.cpp:80] mean: 0 0 0
I0406 18:08:02.227958 86685 bn_data_layer.cpp:89] variance: 0 0 0
I0406 18:08:02.227958 86686 bn_data_layer.cpp:89] variance: 0 0 0
I0406 18:08:02.227969 86685 net.cpp:127] Top shape: 16 512 13 13 (1384448)
I0406 18:08:02.227969 86686 net.cpp:127] Top shape: 16 512 13 13 (1384448)
I0406 18:08:02.227977 86685 layer_factory.hpp:74] Creating layer relu4
I0406 18:08:02.227977 86686 layer_factory.hpp:74] Creating layer relu4
I0406 18:08:02.227983 86685 net.cpp:90] Creating Layer relu4
I0406 18:08:02.227988 86685 net.cpp:410] relu4 <- conv4/bn
I0406 18:08:02.227984 86686 net.cpp:90] Creating Layer relu4
I0406 18:08:02.227988 86686 net.cpp:410] relu4 <- conv4/bn
I0406 18:08:02.227994 86686 net.cpp:357] relu4 -> conv4/bn (in-place)
I0406 18:08:02.227994 86685 net.cpp:357] relu4 -> conv4/bn (in-place)
I0406 18:08:02.228000 86686 net.cpp:120] Setting up relu4
I0406 18:08:02.228001 86685 net.cpp:120] Setting up relu4
I0406 18:08:02.228346 86686 net.cpp:127] Top shape: 16 512 13 13 (1384448)
I0406 18:08:02.228370 86686 layer_factory.hpp:74] Creating layer conv5
I0406 18:08:02.228392 86686 net.cpp:90] Creating Layer conv5
I0406 18:08:02.228396 86686 net.cpp:410] conv5 <- conv4/bn
I0406 18:08:02.228405 86686 net.cpp:368] conv5 -> conv5
I0406 18:08:02.228392 86685 net.cpp:127] Top shape: 16 512 13 13 (1384448)
I0406 18:08:02.228412 86686 net.cpp:120] Setting up conv5
I0406 18:08:02.228427 86685 layer_factory.hpp:74] Creating layer conv5
I0406 18:08:02.228451 86685 net.cpp:90] Creating Layer conv5
I0406 18:08:02.228458 86685 net.cpp:410] conv5 <- conv4/bn
I0406 18:08:02.228467 86685 net.cpp:368] conv5 -> conv5
I0406 18:08:02.228476 86685 net.cpp:120] Setting up conv5
I0406 18:08:02.255333 86686 cudnn_conv_data_layer.cpp:184] Reallocating workspace storage: 19176
I0406 18:08:02.255373 86686 net.cpp:127] Top shape: 16 384 13 13 (1038336)
I0406 18:08:02.255383 86686 layer_factory.hpp:74] Creating layer bn5
I0406 18:08:02.255393 86686 net.cpp:90] Creating Layer bn5
I0406 18:08:02.255409 86686 net.cpp:410] bn5 <- conv5
I0406 18:08:02.255416 86686 net.cpp:368] bn5 -> conv5/bn
I0406 18:08:02.255424 86686 net.cpp:120] Setting up bn5
I0406 18:08:02.255446 86685 cudnn_conv_data_layer.cpp:184] Reallocating workspace storage: 19176
I0406 18:08:02.255472 86685 net.cpp:127] Top shape: 16 384 13 13 (1038336)
I0406 18:08:02.255484 86685 layer_factory.hpp:74] Creating layer bn5
I0406 18:08:02.255496 86685 net.cpp:90] Creating Layer bn5
I0406 18:08:02.255504 86685 net.cpp:410] bn5 <- conv5
I0406 18:08:02.255511 86685 net.cpp:368] bn5 -> conv5/bn
I0406 18:08:02.255518 86685 net.cpp:120] Setting up bn5
I0406 18:08:02.255537 86685 bn_data_layer.cpp:60] scale: 1 1 1
I0406 18:08:02.255538 86686 bn_data_layer.cpp:60] scale: 1 1 1
I0406 18:08:02.255551 86686 bn_data_layer.cpp:71] shift: 0 0 0
I0406 18:08:02.255553 86685 bn_data_layer.cpp:71] shift: 0 0 0
I0406 18:08:02.255565 86686 bn_data_layer.cpp:80] mean: 0 0 0
I0406 18:08:02.255563 86685 bn_data_layer.cpp:80] mean: 0 0 0
I0406 18:08:02.255574 86686 bn_data_layer.cpp:89] variance: 0 0 0
I0406 18:08:02.255574 86685 bn_data_layer.cpp:89] variance: 0 0 0
I0406 18:08:02.255581 86685 net.cpp:127] Top shape: 16 384 13 13 (1038336)
I0406 18:08:02.255581 86686 net.cpp:127] Top shape: 16 384 13 13 (1038336)
I0406 18:08:02.255589 86685 layer_factory.hpp:74] Creating layer relu5
I0406 18:08:02.255589 86686 layer_factory.hpp:74] Creating layer relu5
I0406 18:08:02.255596 86685 net.cpp:90] Creating Layer relu5
I0406 18:08:02.255595 86686 net.cpp:90] Creating Layer relu5
I0406 18:08:02.255599 86686 net.cpp:410] relu5 <- conv5/bn
I0406 18:08:02.255599 86685 net.cpp:410] relu5 <- conv5/bn
I0406 18:08:02.255606 86686 net.cpp:357] relu5 -> conv5/bn (in-place)
I0406 18:08:02.255606 86685 net.cpp:357] relu5 -> conv5/bn (in-place)
I0406 18:08:02.255612 86685 net.cpp:120] Setting up relu5
I0406 18:08:02.255612 86686 net.cpp:120] Setting up relu5
I0406 18:08:02.255782 86685 net.cpp:127] Top shape: 16 384 13 13 (1038336)
I0406 18:08:02.255791 86685 layer_factory.hpp:74] Creating layer pool5
I0406 18:08:02.255811 86685 net.cpp:90] Creating Layer pool5
I0406 18:08:02.255816 86685 net.cpp:410] pool5 <- conv5/bn
I0406 18:08:02.255811 86686 net.cpp:127] Top shape: 16 384 13 13 (1038336)
I0406 18:08:02.255820 86686 layer_factory.hpp:74] Creating layer pool5
I0406 18:08:02.255822 86685 net.cpp:368] pool5 -> pool5
I0406 18:08:02.255830 86685 net.cpp:120] Setting up pool5
I0406 18:08:02.255827 86686 net.cpp:90] Creating Layer pool5
I0406 18:08:02.255831 86686 net.cpp:410] pool5 <- conv5/bn
I0406 18:08:02.255838 86686 net.cpp:368] pool5 -> pool5
I0406 18:08:02.255846 86686 net.cpp:120] Setting up pool5
I0406 18:08:02.256181 86685 net.cpp:127] Top shape: 16 384 6 6 (221184)
I0406 18:08:02.256191 86685 layer_factory.hpp:74] Creating layer fc6
I0406 18:08:02.256237 86685 net.cpp:90] Creating Layer fc6
I0406 18:08:02.256240 86685 net.cpp:410] fc6 <- pool5
I0406 18:08:02.256247 86685 net.cpp:368] fc6 -> fc6
I0406 18:08:02.256253 86685 net.cpp:120] Setting up fc6
I0406 18:08:02.256270 86686 net.cpp:127] Top shape: 16 384 6 6 (221184)
I0406 18:08:02.256283 86686 layer_factory.hpp:74] Creating layer fc6
I0406 18:08:02.256294 86686 net.cpp:90] Creating Layer fc6
I0406 18:08:02.256299 86686 net.cpp:410] fc6 <- pool5
I0406 18:08:02.256307 86686 net.cpp:368] fc6 -> fc6
I0406 18:08:02.256316 86686 net.cpp:120] Setting up fc6
I0406 18:08:03.816103 86686 net.cpp:127] Top shape: 16 4096 (65536)
I0406 18:08:03.816159 86686 layer_factory.hpp:74] Creating layer relu6
I0406 18:08:03.816177 86686 net.cpp:90] Creating Layer relu6
I0406 18:08:03.816189 86686 net.cpp:410] relu6 <- fc6
I0406 18:08:03.816197 86686 net.cpp:357] relu6 -> fc6 (in-place)
I0406 18:08:03.816217 86686 net.cpp:120] Setting up relu6
I0406 18:08:03.816764 86686 net.cpp:127] Top shape: 16 4096 (65536)
I0406 18:08:03.816774 86686 layer_factory.hpp:74] Creating layer drop6
I0406 18:08:03.816797 86686 net.cpp:90] Creating Layer drop6
I0406 18:08:03.816800 86686 net.cpp:410] drop6 <- fc6
I0406 18:08:03.816805 86686 net.cpp:357] drop6 -> fc6 (in-place)
I0406 18:08:03.816823 86686 net.cpp:120] Setting up drop6
I0406 18:08:03.816829 86686 net.cpp:127] Top shape: 16 4096 (65536)
I0406 18:08:03.816851 86686 layer_factory.hpp:74] Creating layer reshape_data
I0406 18:08:03.816860 86686 net.cpp:90] Creating Layer reshape_data
I0406 18:08:03.816869 86686 net.cpp:410] reshape_data <- fc6
I0406 18:08:03.816887 86686 net.cpp:368] reshape_data -> data_reshape
I0406 18:08:03.816900 86686 net.cpp:120] Setting up reshape_data
I0406 18:08:03.816907 86686 net.cpp:127] Top shape: 16 1 4096 (65536)
I0406 18:08:03.816911 86686 layer_factory.hpp:74] Creating layer data_reshape_reshape_data_0_split
I0406 18:08:03.816917 86686 net.cpp:90] Creating Layer data_reshape_reshape_data_0_split
I0406 18:08:03.816932 86686 net.cpp:410] data_reshape_reshape_data_0_split <- data_reshape
I0406 18:08:03.816939 86686 net.cpp:368] data_reshape_reshape_data_0_split -> data_reshape_reshape_data_0_split_0
I0406 18:08:03.816946 86686 net.cpp:368] data_reshape_reshape_data_0_split -> data_reshape_reshape_data_0_split_1
I0406 18:08:03.816963 86686 net.cpp:120] Setting up data_reshape_reshape_data_0_split
I0406 18:08:03.816970 86686 net.cpp:127] Top shape: 16 1 4096 (65536)
I0406 18:08:03.816974 86686 net.cpp:127] Top shape: 16 1 4096 (65536)
I0406 18:08:03.817008 86686 layer_factory.hpp:74] Creating layer lstm
I0406 18:08:03.817021 86686 net.cpp:90] Creating Layer lstm
I0406 18:08:03.817037 86686 net.cpp:410] lstm <- data_reshape_reshape_data_0_split_0
I0406 18:08:03.817056 86686 net.cpp:410] lstm <- clip_marker_data_2_split_0
I0406 18:08:03.817067 86686 net.cpp:368] lstm -> lstm
I0406 18:08:03.817085 86686 net.cpp:120] Setting up lstm
I0406 18:08:03.817114 86686 net.cpp:127] Top shape: 16 1 512 (8192)
I0406 18:08:03.817131 86686 layer_factory.hpp:74] Creating layer lstm_drop
I0406 18:08:03.817140 86686 net.cpp:90] Creating Layer lstm_drop
I0406 18:08:03.817144 86686 net.cpp:410] lstm_drop <- lstm
I0406 18:08:03.817152 86686 net.cpp:368] lstm_drop -> lstm_drop
I0406 18:08:03.817157 86686 net.cpp:120] Setting up lstm_drop
I0406 18:08:03.817163 86686 net.cpp:127] Top shape: 16 1 512 (8192)
I0406 18:08:03.817167 86686 layer_factory.hpp:74] Creating layer reverse
I0406 18:08:03.817173 86686 net.cpp:90] Creating Layer reverse
I0406 18:08:03.817178 86686 net.cpp:410] reverse <- clip_marker_data_2_split_1
I0406 18:08:03.817183 86686 net.cpp:410] reverse <- data_reshape_reshape_data_0_split_1
I0406 18:08:03.817188 86686 net.cpp:368] reverse -> inv_lstm_input
I0406 18:08:03.817193 86686 net.cpp:120] Setting up reverse
I0406 18:08:03.817209 86686 net.cpp:127] Top shape: 16 1 4096 (65536)
I0406 18:08:03.817211 86686 layer_factory.hpp:74] Creating layer invlstm
I0406 18:08:03.817221 86686 net.cpp:90] Creating Layer invlstm
I0406 18:08:03.817226 86686 net.cpp:410] invlstm <- inv_lstm_input
I0406 18:08:03.817230 86686 net.cpp:410] invlstm <- clip_marker_data_2_split_2
I0406 18:08:03.817237 86686 net.cpp:368] invlstm -> inv_lstm
I0406 18:08:03.817245 86686 net.cpp:120] Setting up invlstm
I0406 18:08:03.817257 86686 net.cpp:127] Top shape: 16 1 512 (8192)
I0406 18:08:03.817265 86686 layer_factory.hpp:74] Creating layer inv_lstm_drop
I0406 18:08:03.817277 86686 net.cpp:90] Creating Layer inv_lstm_drop
I0406 18:08:03.817282 86686 net.cpp:410] inv_lstm_drop <- inv_lstm
I0406 18:08:03.817287 86686 net.cpp:368] inv_lstm_drop -> inv_lstm_drop
I0406 18:08:03.817292 86686 net.cpp:120] Setting up inv_lstm_drop
I0406 18:08:03.817298 86686 net.cpp:127] Top shape: 16 1 512 (8192)
I0406 18:08:03.817313 86686 layer_factory.hpp:74] Creating layer reverse
I0406 18:08:03.817322 86686 net.cpp:90] Creating Layer reverse
I0406 18:08:03.817327 86686 net.cpp:410] reverse <- clip_marker_data_2_split_3
I0406 18:08:03.817332 86686 net.cpp:410] reverse <- inv_lstm_drop
I0406 18:08:03.817337 86686 net.cpp:368] reverse -> inv_lstm_output
I0406 18:08:03.817342 86686 net.cpp:120] Setting up reverse
I0406 18:08:03.817348 86686 net.cpp:127] Top shape: 16 1 512 (8192)
I0406 18:08:03.817351 86686 layer_factory.hpp:74] Creating layer concat
I0406 18:08:03.817360 86686 net.cpp:90] Creating Layer concat
I0406 18:08:03.817364 86686 net.cpp:410] concat <- lstm_drop
I0406 18:08:03.817369 86686 net.cpp:410] concat <- inv_lstm_output
I0406 18:08:03.817374 86686 net.cpp:368] concat -> lstm_concat
I0406 18:08:03.817379 86686 net.cpp:120] Setting up concat
I0406 18:08:03.817396 86686 net.cpp:127] Top shape: 16 1 1024 (16384)
I0406 18:08:03.817400 86686 layer_factory.hpp:74] Creating layer fc8_final
I0406 18:08:03.817411 86686 net.cpp:90] Creating Layer fc8_final
I0406 18:08:03.817416 86686 net.cpp:410] fc8_final <- lstm_concat
I0406 18:08:03.817421 86686 net.cpp:368] fc8_final -> fc8_final
I0406 18:08:03.817428 86686 net.cpp:120] Setting up fc8_final
I0406 18:08:03.817832 86686 net.cpp:127] Top shape: 16 1 12 (192)
I0406 18:08:03.817868 86686 layer_factory.hpp:74] Creating layer fc8_final_fc8_final_0_split
I0406 18:08:03.817874 86686 net.cpp:90] Creating Layer fc8_final_fc8_final_0_split
I0406 18:08:03.817879 86686 net.cpp:410] fc8_final_fc8_final_0_split <- fc8_final
I0406 18:08:03.817884 86686 net.cpp:368] fc8_final_fc8_final_0_split -> fc8_final_fc8_final_0_split_0
I0406 18:08:03.817894 86686 net.cpp:368] fc8_final_fc8_final_0_split -> fc8_final_fc8_final_0_split_1
I0406 18:08:03.817901 86686 net.cpp:368] fc8_final_fc8_final_0_split -> fc8_final_fc8_final_0_split_2
I0406 18:08:03.817919 86686 net.cpp:120] Setting up fc8_final_fc8_final_0_split
I0406 18:08:03.817927 86686 net.cpp:127] Top shape: 16 1 12 (192)
I0406 18:08:03.817931 86686 net.cpp:127] Top shape: 16 1 12 (192)
I0406 18:08:03.817936 86686 net.cpp:127] Top shape: 16 1 12 (192)
I0406 18:08:03.817951 86686 layer_factory.hpp:74] Creating layer loss
I0406 18:08:03.817960 86686 net.cpp:90] Creating Layer loss
I0406 18:08:03.817965 86686 net.cpp:410] loss <- fc8_final_fc8_final_0_split_0
I0406 18:08:03.817968 86686 net.cpp:410] loss <- label_data_1_split_0
I0406 18:08:03.817988 86686 net.cpp:368] loss -> loss
I0406 18:08:03.817996 86686 net.cpp:120] Setting up loss
…
I0406 18:08:03.818800 86686 net.cpp:235] This network produces output accuracy
I0406 18:08:03.818804 86686 net.cpp:235] This network produces output accuracy_top2
I0406 18:08:03.818809 86686 net.cpp:235] This network produces output loss
I0406 18:08:03.818841 86686 net.cpp:482] Collecting Learning Rate and Weight Decay.
I0406 18:08:03.818851 86686 net.cpp:247] Network initialization done.
I0406 18:08:03.818855 86686 net.cpp:248] Memory required for data: 380951820
I0406 18:08:03.819097 86686 solver.cpp:58] Solver scaffolding done.
I0406 18:08:03.819213 86686 caffe.cpp:94] Finetuning from rgb.caffemodel
I0406 18:08:03.828330 86685 net.cpp:127] Top shape: 16 4096 (65536)
I0406 18:08:03.828377 86685 layer_factory.hpp:74] Creating layer relu6
I0406 18:08:03.828393 86685 net.cpp:90] Creating Layer relu6
I0406 18:08:03.828402 86685 net.cpp:410] relu6 <- fc6
I0406 18:08:03.828423 86685 net.cpp:357] relu6 -> fc6 (in-place)
I0406 18:08:03.828436 86685 net.cpp:120] Setting up relu6
I0406 18:08:03.828987 86685 net.cpp:127] Top shape: 16 4096 (65536)
I0406 18:08:03.828997 86685 layer_factory.hpp:74] Creating layer drop6
I0406 18:08:03.829020 86685 net.cpp:90] Creating Layer drop6
I0406 18:08:03.829035 86685 net.cpp:410] drop6 <- fc6
I0406 18:08:03.829042 86685 net.cpp:357] drop6 -> fc6 (in-place)
I0406 18:08:03.829048 86685 net.cpp:120] Setting up drop6
I0406 18:08:03.829054 86685 net.cpp:127] Top shape: 16 4096 (65536)
I0406 18:08:03.829058 86685 layer_factory.hpp:74] Creating layer reshape_data
I0406 18:08:03.829078 86685 net.cpp:90] Creating Layer reshape_data
I0406 18:08:03.829082 86685 net.cpp:410] reshape_data <- fc6
I0406 18:08:03.829102 86685 net.cpp:368] reshape_data -> data_reshape
I0406 18:08:03.829109 86685 net.cpp:120] Setting up reshape_data
I0406 18:08:03.829116 86685 net.cpp:127] Top shape: 16 1 4096 (65536)
I0406 18:08:03.829128 86685 layer_factory.hpp:74] Creating layer data_reshape_reshape_data_0_split
I0406 18:08:03.829134 86685 net.cpp:90] Creating Layer data_reshape_reshape_data_0_split
I0406 18:08:03.829138 86685 net.cpp:410] data_reshape_reshape_data_0_split <- data_reshape
I0406 18:08:03.829144 86685 net.cpp:368] data_reshape_reshape_data_0_split -> data_reshape_reshape_data_0_split_0
I0406 18:08:03.829152 86685 net.cpp:368] data_reshape_reshape_data_0_split -> data_reshape_reshape_data_0_split_1
I0406 18:08:03.829162 86685 net.cpp:120] Setting up data_reshape_reshape_data_0_split
I0406 18:08:03.829169 86685 net.cpp:127] Top shape: 16 1 4096 (65536)
I0406 18:08:03.829174 86685 net.cpp:127] Top shape: 16 1 4096 (65536)
I0406 18:08:03.829203 86685 layer_factory.hpp:74] Creating layer lstm
I0406 18:08:03.829216 86685 net.cpp:90] Creating Layer lstm
I0406 18:08:03.829221 86685 net.cpp:410] lstm <- data_reshape_reshape_data_0_split_0
I0406 18:08:03.829226 86685 net.cpp:410] lstm <- clip_marker_data_2_split_0
I0406 18:08:03.829247 86685 net.cpp:368] lstm -> lstm
I0406 18:08:03.829255 86685 net.cpp:120] Setting up lstm
I0406 18:08:04.090374 86685 net.cpp:127] Top shape: 16 1 512 (8192)
I0406 18:08:04.090425 86685 layer_factory.hpp:74] Creating layer lstm_drop
I0406 18:08:04.090435 86685 net.cpp:90] Creating Layer lstm_drop
I0406 18:08:04.090441 86685 net.cpp:410] lstm_drop <- lstm
I0406 18:08:04.090450 86685 net.cpp:368] lstm_drop -> lstm_drop
I0406 18:08:04.090461 86685 net.cpp:120] Setting up lstm_drop
I0406 18:08:04.090468 86685 net.cpp:127] Top shape: 16 1 512 (8192)
I0406 18:08:04.090483 86685 layer_factory.hpp:74] Creating layer reverse
I0406 18:08:04.090492 86685 net.cpp:90] Creating Layer reverse
I0406 18:08:04.090504 86685 net.cpp:410] reverse <- clip_marker_data_2_split_1
I0406 18:08:04.090510 86685 net.cpp:410] reverse <- data_reshape_reshape_data_0_split_1
I0406 18:08:04.090528 86685 net.cpp:368] reverse -> inv_lstm_input
I0406 18:08:04.090533 86685 net.cpp:120] Setting up reverse
I0406 18:08:04.090539 86685 net.cpp:127] Top shape: 16 1 4096 (65536)
I0406 18:08:04.090543 86685 layer_factory.hpp:74] Creating layer invlstm
I0406 18:08:04.090555 86685 net.cpp:90] Creating Layer invlstm
I0406 18:08:04.090560 86685 net.cpp:410] invlstm <- inv_lstm_input
I0406 18:08:04.090565 86685 net.cpp:410] invlstm <- clip_marker_data_2_split_2
I0406 18:08:04.090574 86685 net.cpp:368] invlstm -> inv_lstm
I0406 18:08:04.090582 86685 net.cpp:120] Setting up invlstm
E0406 18:08:04.306231 86686 upgrade_proto.cpp:609] Attempting to upgrade input file specified using deprecated V0LayerParameter: rgb.caffemodel
I0406 18:08:04.349462 86685 net.cpp:127] Top shape: 16 1 512 (8192)
I0406 18:08:04.349510 86685 layer_factory.hpp:74] Creating layer inv_lstm_drop
I0406 18:08:04.349526 86685 net.cpp:90] Creating Layer inv_lstm_drop
I0406 18:08:04.349532 86685 net.cpp:410] inv_lstm_drop <- inv_lstm
I0406 18:08:04.349540 86685 net.cpp:368] inv_lstm_drop -> inv_lstm_drop
I0406 18:08:04.349552 86685 net.cpp:120] Setting up inv_lstm_drop
I0406 18:08:04.349560 86685 net.cpp:127] Top shape: 16 1 512 (8192)
I0406 18:08:04.349563 86685 layer_factory.hpp:74] Creating layer reverse
I0406 18:08:04.349584 86685 net.cpp:90] Creating Layer reverse
I0406 18:08:04.349596 86685 net.cpp:410] reverse <- clip_marker_data_2_split_3
I0406 18:08:04.349601 86685 net.cpp:410] reverse <- inv_lstm_drop
I0406 18:08:04.349606 86685 net.cpp:368] reverse -> inv_lstm_output
I0406 18:08:04.349612 86685 net.cpp:120] Setting up reverse
I0406 18:08:04.349629 86685 net.cpp:127] Top shape: 16 1 512 (8192)
I0406 18:08:04.349633 86685 layer_factory.hpp:74] Creating layer concat
I0406 18:08:04.349644 86685 net.cpp:90] Creating Layer concat
I0406 18:08:04.349650 86685 net.cpp:410] concat <- lstm_drop
I0406 18:08:04.349654 86685 net.cpp:410] concat <- inv_lstm_output
I0406 18:08:04.349660 86685 net.cpp:368] concat -> lstm_concat
I0406 18:08:04.349666 86685 net.cpp:120] Setting up concat
I0406 18:08:04.349673 86685 net.cpp:127] Top shape: 16 1 1024 (16384)
I0406 18:08:04.349676 86685 layer_factory.hpp:74] Creating layer fc8_final
I0406 18:08:04.349686 86685 net.cpp:90] Creating Layer fc8_final
I0406 18:08:04.349691 86685 net.cpp:410] fc8_final <- lstm_concat
I0406 18:08:04.349697 86685 net.cpp:368] fc8_final -> fc8_final
I0406 18:08:04.349704 86685 net.cpp:120] Setting up fc8_final
I0406 18:08:04.350114 86685 net.cpp:127] Top shape: 16 1 12 (192)
I0406 18:08:04.350123 86685 layer_factory.hpp:74] Creating layer fc8_final_fc8_final_0_split
I0406 18:08:04.350142 86685 net.cpp:90] Creating Layer fc8_final_fc8_final_0_split
I0406 18:08:04.350147 86685 net.cpp:410] fc8_final_fc8_final_0_split <- fc8_final
I0406 18:08:04.350152 86685 net.cpp:368] fc8_final_fc8_final_0_split -> fc8_final_fc8_final_0_split_0
I0406 18:08:04.350162 86685 net.cpp:368] fc8_final_fc8_final_0_split -> fc8_final_fc8_final_0_split_1
I0406 18:08:04.350179 86685 net.cpp:368] fc8_final_fc8_final_0_split -> fc8_final_fc8_final_0_split_2
I0406 18:08:04.350201 86685 net.cpp:120] Setting up fc8_final_fc8_final_0_split
I0406 18:08:04.350209 86685 net.cpp:127] Top shape: 16 1 12 (192)
I0406 18:08:04.350214 86685 net.cpp:127] Top shape: 16 1 12 (192)
I0406 18:08:04.350217 86685 net.cpp:127] Top shape: 16 1 12 (192)
I0406 18:08:04.350220 86685 layer_factory.hpp:74] Creating layer loss
I0406 18:08:04.350230 86685 net.cpp:90] Creating Layer loss
I0406 18:08:04.350234 86685 net.cpp:410] loss <- fc8_final_fc8_final_0_split_0
I0406 18:08:04.350239 86685 net.cpp:410] loss <- label_data_1_split_0
I0406 18:08:04.350245 86685 net.cpp:368] loss -> loss
I0406 18:08:04.350252 86685 net.cpp:120] Setting up loss
…
