…
  transform_param {
    mirror: true
    crop_size: 224
    mean_value: 128
    fix_crop: false
    multi_scale: true
    scale_ratios: 1
    scale_ratios: 0.875
    scale_ratios: 0.75
    max_distort: 1
    is_flow: true
    num_segments: 20
  }
  video_data_param {
    source: "/data1/wangjiang/datasets/ucf101_list/train_list_split1.txt"
    batch_size: 128
    shuffle: true
    new_height: 256
    new_width: 352
    new_length: 10
    num_segments: 1
    modality: FLOW
    root_folder: "/data1/wangjiang/data/ucf101_flow_tvl1_340_256/"
    rep_label: 1
  }
}
layer {
  name: "Gather_label"
  type: "Gather"
  bottom: "label_single"
  top: "label"
}
layer {
  name: "conv1/7x7_s2"
  type: "ConvolutionData"
  bottom: "data"
  top: "conv1/7x7_s2"
  param {
    lr_mult: 1
    decay_mult: 1
  }
  convolution_param {
    num_output: 64
    bias_term: false
    pad: 3
    kernel_size: 7
    stride: 2
    weight_filler {
      type: "xavier"
    }
  }
}
layer {
  name: "conv1/7x7_s2/bn"
  type: "BNData"
  bottom: "conv1/7x7_s2"
  top: "conv1/7x7_s2/bn"
  param {
    lr_mult: 1
    decay_mult: 0
  }
  param {
    lr_mult: 1
    decay_mult: 0
  }
  param {
    lr_mult: 0
    decay_mult: 0
  }
  param {
    lr_mult: 0
    decay_mult: 0
  }
  bn_param {
    scale_filler {
      type: "constant"
      value: 1
    }
    shift_filler {
      type: "constant"
      value: 0
    }
    moving_average: true
    decay: 0.05
  }
}
layer {
  name: "conv1/relu_7x7"
  type: "ReLU"
  bottom: "conv1/7x7_s2/bn"
  top: "conv1/7x7_s2/bn"
}
layer {
  name: "pool1/3x3_s2"
  type: "Pooling"
  bottom: "conv1/7x7_s2/bn"
  top: "pool1/3x3_s2"
  pooling_param {
    pool: MAX
    kernel_size: 3
    stride: 2
  }
}
layer {
  name: "conv2/3x3_reduce"
  type: "ConvolutionData"
  bottom: "pool1/3x3_s2"
  top: "conv2/3x3_reduce"
  param {
    lr_mult: 1
    decay_mult: 1
  }
  convolution_param {
    num_output: 64
    bias_term: false
    kernel_size: 1
    weight_filler {
      type: "xavier"
    }
  }
}
layer {
  name: "conv2/3x3_reduce/bn"
  type: "BNData"
  bottom: "conv2/3x3_reduce"
  top: "conv2/3x3_reduce/bn"
  param {
    lr_mult: 1
    decay_mult: 0
  }
  param {
    lr_mult: 1
    decay_mult: 0
  }
  param {
    lr_mult: 0
    decay_mult: 0
  }
  param {
    lr_mult: 0
    decay_mult: 0
  }
  bn_param {
    scale_filler {
      type: "constant"
      value: 1
    }
    shift_filler {
      type: "constant"
      value: 0
    }
    moving_average: true
    decay: 0.05
  }
}
layer {
  name: "conv2/relu_3x3_reduce"
  type: "ReLU"
  bottom: "conv2/3x3_reduce/bn"
  top: "conv2/3x3_reduce/bn"
}
layer {
  name: "conv2/3x3"
  type: "ConvolutionData"
  bottom: "conv2/3x3_reduce/bn"
  top: "conv2/3x3"
  param {
    lr_mult: 1
    decay_mult: 1
  }
  convolution_param {
    num_output: 192
    bias_term: false
    pad: 1
    kernel_size: 3
    weight_filler {
      type: "xavier"
    }
  }
}
layer {
  name: "conv2/3x3/bn"
  type: "BNData"
  bottom: "conv2/3x3"
  top: "conv2/3x3/bn"
  param {
    lr_mult: 1
    decay_mult: 0
  }
  param {
    lr_mult: 1
    decay_mult: 0
  }
  param {
    lr_mult: 0
    decay_mult: 0
  }
  param {
    lr_mult: 0
    decay_mult: 0
  }
  bn_param {
    scale_filler {
      type: "constant"
      value: 1
    }
    shift_filler {
      type: "constant"
      value: 0
    }
    moving_average: true
    decay: 0.05
  }
}
layer {
  name: "conv2/relu_3x3"
  type: "ReLU"
  bottom: "conv2/3x3/bn"
  top: "conv2/3x3/bn"
}
layer {
  name: "pool2/3x3_s2"
  type: "Pooling"
  bottom: "conv2/3x3/bn"
  top: "pool2/3x3_s2"
  pooling_param {
    pool: MAX
    kernel_size: 3
    stride: 2
  }
}
layer {
  name: "inception_3a/1x1"
  type: "ConvolutionData"
  bottom: "pool2/3x3_s2"
  top: "inception_3a/1x1"
  param {
    lr_mult: 1
    decay_mult: 1
  }
  convolution_param {
    num_output: 64
    bias_term: false
    kernel_size: 1
    weight_filler {
      type: "xavier"
    }
  }
}
layer {
  name: "inception_3a/1x1/bn"
  type: "BNData"
  bottom: "inception_3a/1x1"
  top: "inception_3a/1x1/bn"
  param {
    lr_mult: 1
    decay_mult: 0
  }
  param {
    lr_mult: 1
    decay_mult: 0
  }
  param {
    lr_mult: 0
    decay_mult: 0
  }
  param {
    lr_mult: 0
    decay_mult: 0
  }
  bn_param {
    scale_filler {
      type: "constant"
      value: 1
    }
    shift_filler {
      type: "constant"
      value: 0
    }
    moving_average: true
    decay: 0.05
  }
}
layer {
  name: "inception_3a/relu_1x1"
  type: "ReLU"
  bottom: "inception_3a/1x1/bn"
  top: "inception_3a/1x1/bn"
}
layer {
  name: "inception_3a/3x3_reduce"
  type: "ConvolutionData"
  bottom: "pool2/3x3_s2"
  top: "inception_3a/3x3_reduce"
  param {
    lr_mult: 1
    decay_mult: 1
  }
  convolution_param {
    num_output: 64
    bias_term: false
    kernel_size: 1
    weight_filler {
      type: "xavier"
    }
  }
}
layer {
  name: "inception_3a/3x3_reduce/bn"
  type: "BNData"
  bottom: "inception_3a/3x3_reduce"
  top: "inception_3a/3x3_reduce/bn"
  param {
    lr_mult: 1
    decay_mult: 0
  }
  param {
    lr_mult: 1
    decay_mult: 0
  }
  param {
    lr_mult: 0
    decay_mult: 0
  }
  param {
    lr_mult: 0
    decay_mult: 0
  }
  bn_param {
    scale_filler {
      type: "constant"
      value: 1
    }
    shift_filler {
      type: "constant"
      value: 0
    }
    moving_average: true
    decay: 0.05
  }
}
layer {
  name: "inception_3a/relu_3x3_reduce"
  type: "ReLU"
  bottom: "inception_3a/3x3_reduce/bn"
  top: "inception_3a/3x3_reduce/bn"
}
layer {
  name: "inception_3a/3x3"
  type: "ConvolutionData"
  bottom: "inception_3a/3x3_reduce/bn"
  top: "inception_3a/3x3"
  param {
    lr_mult: 1
    decay_mult: 1
  }
  convolution_param {
    num_output: 64
    bias_term: false
    pad: 1
    kernel_size: 3
    weight_filler {
      type: "xavier"
    }
  }
}
layer {
  name: "inception_3a/3x3/bn"
  type: "BNData"
  bottom: "inception_3a/3x3"
  top: "inception_3a/3x3/bn"
  param {
    lr_mult: 1
    decay_mult: 0
  }
  param {
    lr_mult: 1
    decay_mult: 0
  }
  param {
    lr_mult: 0
    decay_mult: 0
  }
  param {
    lr_mult: 0
    decay_mult: 0
  }
  bn_param {
    scale_filler {
      type: "constant"
      value: 1
    }
    shift_filler {
      type: "constant"
      value: 0
    }
    moving_average: true
    decay: 0.05
  }
}
layer {
  name: "inception_3a/relu_3x3"
  type: "ReLU"
  bottom: "inception_3a/3x3/bn"
  top: "inception_3a/3x3/bn"
}
layer {
  name: "inception_3a/double3x3_reduce"
  type: "ConvolutionData"
  bottom: "pool2/3x3_s2"
  top: "inception_3a/double3x3_reduce"
  param {
    lr_mult: 1
    decay_mult: 1
  }
  convolution_param {
    num_output: 64
    bias_term: false
    kernel_size: 1
    weight_filler {
      type: "xavier"
    }
  }
}
layer {
  name: "inception_3a/double3x3_reduce/bn"
  type: "BNData"
  bottom: "inception_3a/double3x3_reduce"
  top: "inception_3a/double3x3_reduce/bn"
  param {
    lr_mult: 1
    decay_mult: 0
  }
  param {
    lr_mult: 1
    decay_mult: 0
  }
  param {
    lr_mult: 0
    decay_mult: 0
  }
  param {
    lr_mult: 0
    decay_mult: 0
  }
  bn_param {
    scale_filler {
      type: "constant"
      value: 1
    }
    shift_filler {
      type: "constant"
      value: 0
    }
    moving_average: true
    decay: 0.05
  }
}
layer {
  name: "inception_3a/relu_double3x3_reduce"
  type: "ReLU"
  bottom: "inception_3a/double3x3_reduce/bn"
  top: "inception_3a/double3x3_reduce/bn"
}
layer {
  name: "inception_3a/double3x3a"
  type: "ConvolutionData"
  bottom: "inception_3a/double3x3_reduce/bn"
  top: "inception_3a/double3x3a"
  param {
    lr_mult: 1
    decay_mult: 1
  }
  convolution_param {
    num_output: 96
    bias_term: false
    pad: 1
    kernel_size: 3
    weight_filler {
      type: "xavier"
    }
  }
}
layer {
  name: "inception_3a/double3x3a/bn"
  type: "BNData"
  bottom: "inception_3a/double3x3a"
  top: "inception_3a/double3x3a/bn"
  param {
    lr_mult: 1
    decay_mult: 0
  }
  param {
    lr_mult: 1
    decay_mult: 0
  }
  param {
    lr_mult: 0
    decay_mult: 0
  }
  param {
    lr_mult: 0
    decay_mult: 0
  }
  bn_param {
    scale_filler {
      type: "constant"
      value: 1
    }
    shift_filler {
      type: "constant"
      value: 0
    }
    moving_average: true
    decay: 0.05
  }
}
layer {
  name: "inception_3a/relu_double3x3a"
  type: "ReLU"
  bottom: "inception_3a/double3x3a/bn"
  top: "inception_3a/double3x3a/bn"
}
layer {
  name: "inception_3a/double3x3b"
  type: "ConvolutionData"
  bottom: "inception_3a/double3x3a/bn"
  top: "inception_3a/double3x3b"
  param {
    lr_mult: 1
    decay_mult: 1
  }
  convolution_param {
    num_output: 96
    bias_term: false
    pad: 1
    kernel_size: 3
    weight_filler {
      type: "xavier"
    }
  }
}
layer {
  name: "inception_3a/double3x3b/bn"
  type: "BNData"
  bottom: "inception_3a/double3x3b"
  top: "inception_3a/double3x3b/bn"
  param {
    lr_mult: 1
    decay_mult: 0
  }
  param {
    lr_mult: 1
    decay_mult: 0
  }
  param {
    lr_mult: 0
  }
  param {
    lr_mult: 0
  }
  bn_param {
    scale_filler {
      type: "constant"
      value: 1
    }
    shift_filler {
      type: "constant"
      value: 0
    }
    moving_average: true
    decay: 0.05
  }
}
layer {
  name: "inception_3a/relu_double3x3b"
  type: "ReLU"
  bottom: "inception_3a/double3x3b/bn"
  top: "inception_3a/double3x3b/bn"
}
layer {
  name: "inception_3a/pool"
  type: "Pooling"
  bottom: "pool2/3x3_s2"
  top: "inception_3a/pool"
  pooling_param {
    pool: AVE
    kernel_size: 3
    stride: 1
    pad: 1
  }
}
layer {
  name: "inception_3a/pool_proj"
  type: "ConvolutionData"
  bottom: "inception_3a/pool"
  top: "inception_3a/pool_proj"
  param {
    lr_mult: 1
    decay_mult: 1
  }
  convolution_param {
    num_output: 32
    bias_term: false
    kernel_size: 1
    weight_filler {
      type: "xavier"
    }
  }
}
layer {
  name: "inception_3a/pool_proj/bn"
  type: "BNData"
  bottom: "inception_3a/pool_proj"
  top: "inception_3a/pool_proj/bn"
  param {
    lr_mult: 1
    decay_mult: 0
  }
  param {
    lr_mult: 1
    decay_mult: 0
  }
  param {
    lr_mult: 0
    decay_mult: 0
  }
  param {
    lr_mult: 0
    decay_mult: 0
  }
  bn_param {
    scale_filler {
      type: "constant"
      value: 1
    }
    shift_filler {
      type: "constant"
      value: 0
    }
    moving_average: true
    decay: 0.05
  }
}
layer {
  name: "inception_3a/relu_pool_proj"
  type: "ReLU"
  bottom: "inception_3a/pool_proj/bn"
  top: "inception_3a/pool_proj/bn"
}
layer {
  name: "inception_3a/output"
  type: "Concat"
  bottom: "inception_3a/1x1/bn"
  bottom: "inception_3a/3x3/bn"
  bottom: "inception_3a/double3x3b/bn"
  bottom: "inception_3a/pool_proj/bn"
  top: "inception_3a/output"
}
layer {
  name: "inception_3b/1x1"
  type: "ConvolutionData"
  bottom: "inception_3a/output"
  top: "inception_3b/1x1"
  param {
    lr_mult: 1
    decay_mult: 1
  }
  convolution_param {
    num_output: 64
    bias_term: false
    kernel_size: 1
    weight_filler {
      type: "xavier"
    }
  }
}
layer {
  name: "inception_3b/1x1/bn"
  type: "BNData"
  bottom: "inception_3b/1x1"
  top: "inception_3b/1x1/bn"
  param {
    lr_mult: 1
    decay_mult: 0
  }
  param {
    lr_mult: 1
    decay_mult: 0
  }
  param {
    lr_mult: 0
    decay_mult: 0
  }
  param {
    lr_mult: 0
    decay_mult: 0
  }
  bn_param {
    scale_filler {
      type: "constant"
      value: 1
    }
    shift_filler {
      type: "constant"
      value: 0
    }
    moving_average: true
    decay: 0.05
  }
}
layer {
  name: "inception_3b/relu_1x1"
  type: "ReLU"
  bottom: "inception_3b/1x1/bn"
  top: "inception_3b/1x1/bn"
}
layer {
  name: "inception_3b/3x3_reduce"
  type: "ConvolutionData"
  bottom: "inception_3a/output"
  top: "inception_3b/3x3_reduce"
  param {
    lr_mult: 1
    decay_mult: 1
  }
  convolution_param {
    num_output: 64
    bias_term: false
    kernel_size: 1
    weight_filler {
      type: "xavier"
    }
  }
}
layer {
  name: "inception_3b/3x3_reduce/bn"
  type: "BNData"
  bottom: "inception_3b/3x3_reduce"
  top: "inception_3b/3x3_reduce/bn"
  param {
    lr_mult: 1
    decay_mult: 0
  }
  param {
    lr_mult: 1
    decay_mult: 0
  }
  param {
    lr_mult: 0
    decay_mult: 0
  }
  param {
    lr_mult: 0
    decay_mult: 0
  }
  bn_param {
    scale_filler {
      type: "constant"
      value: 1
    }
    shift_filler {
      type: "constant"
      value: 0
    }
    moving_average: true
    decay: 0.05
  }
}
layer {
  name: "inception_3b/relu_3x3_reduce"
  type: "ReLU"
  bottom: "inception_3b/3x3_reduce/bn"
  top: "inception_3b/3x3_reduce/bn"
}
layer {
  name: "inception_3b/3x3"
  type: "ConvolutionData"
  bottom: "inception_3b/3x3_reduce/bn"
  top: "inception_3b/3x3"
  param {
    lr_mult: 1
    decay_mult: 1
  }
  convolution_param {
    num_output: 96
    bias_term: false
    pad: 1
    kernel_size: 3
    weight_filler {
      type: "xavier"
    }
  }
}
layer {
  name: "inception_3b/3x3/bn"
  type: "BNData"
  bottom: "inception_3b/3x3"
  top: "inception_3b/3x3/bn"
  param {
    lr_mult: 1
    decay_mult: 0
  }
  param {
    lr_mult: 1
    decay_mult: 0
  }
  param {
    lr_mult: 0
    decay_mult: 0
  }
  param {
    lr_mult: 0
    decay_mult: 0
  }
  bn_param {
    scale_filler {
      type: "constant"
      value: 1
    }
    shift_filler {
      type: "constant"
      value: 0
    }
    moving_average: true
    decay: 0.05
  }
}
layer {
  name: "inception_3b/relu_3x3"
  type: "ReLU"
  bottom: "inception_3b/3x3/bn"
  top: "inception_3b/3x3/bn"
}
layer {
  name: "inception_3b/double3x3_reduce"
  type: "ConvolutionData"
  bottom: "inception_3a/output"
  top: "inception_3b/double3x3_reduce"
  param {
    lr_mult: 1
    decay_mult: 1
  }
  convolution_param {
    num_output: 64
    bias_term: false
    kernel_size: 1
    weight_filler {
      type: "xavier"
    }
  }
}
layer {
  name: "inception_3b/double3x3_reduce/bn"
  type: "BNData"
  bottom: "inception_3b/double3x3_reduce"
  top: "inception_3b/double3x3_reduce/bn"
  param {
    lr_mult: 1
    decay_mult: 0
  }
  param {
    lr_mult: 1
    decay_mult: 0
  }
  param {
    lr_mult: 0
    decay_mult: 0
  }
  param {
    lr_mult: 0
    decay_mult: 0
  }
  bn_param {
    scale_filler {
      type: "constant"
      value: 1
    }
    shift_filler {
      type: "constant"
      value: 0
    }
    moving_average: true
    decay: 0.05
  }
}
layer {
  name: "inception_3b/relu_double3x3_reduce"
  type: "ReLU"
  bottom: "inception_3b/double3x3_reduce/bn"
  top: "inception_3b/double3x3_reduce/bn"
}
layer {
  name: "inception_3b/double3x3a"
  type: "ConvolutionData"
  bottom: "inception_3b/double3x3_reduce/bn"
  top: "inception_3b/double3x3a"
  param {
    lr_mult: 1
    decay_mult: 1
  }
  convolution_param {
    num_output: 96
    bias_term: false
    pad: 1
    kernel_size: 3
    weight_filler {
      type: "xavier"
    }
  }
}
layer {
  name: "inception_3b/double3x3a/bn"
  type: "BNData"
  bottom: "inception_3b/double3x3a"
  top: "inception_3b/double3x3a/bn"
  param {
    lr_mult: 1
    decay_mult: 0
  }
  param {
    lr_mult: 1
    decay_mult: 0
  }
  param {
    lr_mult: 0
    decay_mult: 0
  }
  param {
    lr_mult: 0
    decay_mult: 0
  }
  bn_param {
    scale_filler {
      type: "constant"
      value: 1
    }
    shift_filler {
      type: "constant"
      value: 0
    }
    moving_average: true
    decay: 0.05
  }
}
layer {
  name: "inception_3b/relu_double3x3a"
  type: "ReLU"
  bottom: "inception_3b/double3x3a/bn"
  top: "inception_3b/double3x3a/bn"
}
layer {
  name: "inception_3b/double3x3b"
  type: "ConvolutionData"
  bottom: "inception_3b/double3x3a/bn"
  top: "inception_3b/double3x3b"
  param {
    lr_mult: 1
    decay_mult: 1
  }
  convolution_param {
    num_output: 96
    bias_term: false
    pad: 1
    kernel_size: 3
    weight_filler {
      type: "xavier"
    }
  }
}
layer {
  name: "inception_3b/double3x3b/bn"
  type: "BNData"
  bottom: "inception_3b/double3x3b"
  top: "inception_3b/double3x3b/bn"
  param {
    lr_mult: 1
    decay_mult: 0
  }
  param {
    lr_mult: 1
    decay_mult: 0
  }
  param {
    lr_mult: 0
    decay_mult: 0
  }
  param {
    lr_mult: 0
    decay_mult: 0
  }
  bn_param {
    scale_filler {
      type: "constant"
      value: 1
    }
    shift_filler {
      type: "constant"
      value: 0
    }
    moving_average: true
    decay: 0.05
  }
}
layer {
  name: "inception_3b/relu_double3x3b"
  type: "ReLU"
  bottom: "inception_3b/double3x3b/bn"
  top: "inception_3b/double3x3b/bn"
}
layer {
  name: "inception_3b/pool"
  type: "Pooling"
  bottom: "inception_3a/output"
  top: "inception_3b/pool"
  pooling_param {
    pool: AVE
    kernel_size: 3
    stride: 1
    pad: 1
  }
}
layer {
  name: "inception_3b/pool_proj"
  type: "ConvolutionData"
  bottom: "inception_3b/pool"
  top: "inception_3b/pool_proj"
  param {
    lr_mult: 1
    decay_mult: 1
  }
  convolution_param {
    num_output: 64
    bias_term: false
    kernel_size: 1
    weight_filler {
      type: "xavier"
    }
  }
}
layer {
  name: "inception_3b/pool_proj/bn"
  type: "BNData"
  bottom: "inception_3b/pool_proj"
  top: "inception_3b/pool_proj/bn"
  param {
    lr_mult: 1
    decay_mult: 0
  }
  param {
    lr_mult: 1
    decay_mult: 0
  }
  param {
    lr_mult: 0
    decay_mult: 0
  }
  param {
    lr_mult: 0
    decay_mult: 0
  }
  bn_param {
    scale_filler {
      type: "constant"
      value: 1
    }
    shift_filler {
      type: "constant"
      value: 0
    }
    moving_average: true
    decay: 0.05
  }
}
layer {
  name: "inception_3b/relu_pool_proj"
  type: "ReLU"
  bottom: "inception_3b/pool_proj/bn"
  top: "inception_3b/pool_proj/bn"
}
layer {
  name: "inception_3b/output"
  type: "Concat"
  bottom: "inception_3b/1x1/bn"
  bottom: "inception_3b/3x3/bn"
  bottom: "inception_3b/double3x3b/bn"
  bottom: "inception_3b/pool_proj/bn"
  top: "inception_3b/output"
}
layer {
  name: "inception_3c/3x3_reduce"
  type: "ConvolutionData"
  bottom: "inception_3b/output"
  top: "inception_3c/3x3_reduce"
  param {
    lr_mult: 1
    decay_mult: 1
  }
  convolution_param {
    num_output: 128
    bias_term: false
    kernel_size: 1
    weight_filler {
      type: "xavier"
    }
  }
}
layer {
  name: "inception_3c/3x3_reduce/bn"
  type: "BNData"
  bottom: "inception_3c/3x3_reduce"
  top: "inception_3c/3x3_reduce/bn"
  param {
    lr_mult: 1
    decay_mult: 0
  }
  param {
    lr_mult: 1
    decay_mult: 0
  }
  param {
    lr_mult: 0
    decay_mult: 0
  }
  param {
    lr_mult: 0
    decay_mult: 0
  }
  bn_param {
    scale_filler {
      type: "constant"
      value: 1
    }
    shift_filler {
      type: "constant"
      value: 0
    }
    moving_average: true
    decay: 0.05
  }
}
layer {
  name: "inception_3c/relu_3x3_reduce"
  type: "ReLU"
  bottom: "inception_3c/3x3_reduce/bn"
  top: "inception_3c/3x3_reduce/bn"
}
layer {
  name: "inception_3c/3x3"
  type: "ConvolutionData"
  bottom: "inception_3c/3x3_reduce/bn"
  top: "inception_3c/3x3"
  param {
    lr_mult: 1
    decay_mult: 1
  }
  convolution_param {
    num_output: 160
    bias_term: false
    pad: 1
    kernel_size: 3
    stride: 2
    weight_filler {
      type: "xavier"
    }
  }
}
layer {
  name: "inception_3c/3x3/bn"
  type: "BNData"
  bottom: "inception_3c/3x3"
  top: "inception_3c/3x3/bn"
  param {
    lr_mult: 1
    decay_mult: 0
  }
  param {
    lr_mult: 1
    decay_mult: 0
  }
  param {
    lr_mult: 0
    decay_mult: 0
  }
  param {
    lr_mult: 0
    decay_mult: 0
  }
  bn_param {
    scale_filler {
      type: "constant"
      value: 1
    }
    shift_filler {
      type: "constant"
      value: 0
    }
    moving_average: true
    decay: 0.05
  }
}
layer {
  name: "inception_3c/relu_3x3"
  type: "ReLU"
  bottom: "inception_3c/3x3/bn"
  top: "inception_3c/3x3/bn"
}
layer {
  name: "inception_3c/double3x3_reduce"
  type: "ConvolutionData"
  bottom: "inception_3b/output"
  top: "inception_3c/double3x3_reduce"
  param {
    lr_mult: 1
    decay_mult: 1
  }
  convolution_param {
    num_output: 64
    bias_term: false
    kernel_size: 1
    weight_filler {
      type: "xavier"
    }
  }
}
layer {
  name: "inception_3c/double3x3_reduce/bn"
  type: "BNData"
  bottom: "inception_3c/double3x3_reduce"
  top: "inception_3c/double3x3_reduce/bn"
  param {
    lr_mult: 1
    decay_mult: 0
  }
  param {
    lr_mult: 1
    decay_mult: 0
  }
  param {
    lr_mult: 0
    decay_mult: 0
  }
  param {
    lr_mult: 0
    decay_mult: 0
  }
  bn_param {
    scale_filler {
      type: "constant"
      value: 1
    }
    shift_filler {
      type: "constant"
      value: 0
    }
    moving_average: true
    decay: 0.05
  }
}
layer {
  name: "inception_3c/relu_double3x3_reduce"
  type: "ReLU"
  bottom: "inception_3c/double3x3_reduce/bn"
  top: "inception_3c/double3x3_reduce/bn"
}
layer {
  name: "inception_3c/double3x3a"
  type: "ConvolutionData"
  bottom: "inception_3c/double3x3_reduce/bn"
  top: "inception_3c/double3x3a"
  param {
    lr_mult: 1
    decay_mult: 1
  }
  convolution_param {
    num_output: 96
    bias_term: false
    pad: 1
    kernel_size: 3
    weight_filler {
      type: "xavier"
    }
  }
}
layer {
  name: "inception_3c/double3x3a/bn"
  type: "BNData"
  bottom: "inception_3c/double3x3a"
  top: "inception_3c/double3x3a/bn"
  param {
    lr_mult: 1
    decay_mult: 0
  }
  param {
    lr_mult: 1
    decay_mult: 0
  }
  param {
    lr_mult: 0
    decay_mult: 0
  }
  param {
    lr_mult: 0
    decay_mult: 0
  }
  bn_param {
    scale_filler {
      type: "constant"
      value: 1
    }
    shift_filler {
      type: "constant"
      value: 0
    }
    moving_average: true
    decay: 0.05
  }
}
layer {
  name: "inception_3c/relu_double3x3a"
  type: "ReLU"
  bottom: "inception_3c/double3x3a/bn"
  top: "inception_3c/double3x3a/bn"
}
layer {
  name: "inception_3c/double3x3b"
  type: "ConvolutionData"
  bottom: "inception_3c/double3x3a/bn"
  top: "inception_3c/double3x3b"
  param {
    lr_mult: 1
    decay_mult: 1
  }
  convolution_param {
    num_output: 96
    bias_term: false
    pad: 1
    kernel_size: 3
    stride: 2
    weight_filler {
      type: "xavier"
    }
  }
}
layer {
  name: "inception_3c/double3x3b/bn"
  type: "BNData"
  bottom: "inception_3c/double3x3b"
  top: "inception_3c/double3x3b/bn"
  param {
    lr_mult: 1
    decay_mult: 0
  }
  param {
    lr_mult: 1
    decay_mult: 0
  }
  param {
    lr_mult: 0
    decay_mult: 0
  }
  param {
    lr_mult: 0
    decay_mult: 0
  }
  bn_param {
    scale_filler {
      type: "constant"
      value: 1
    }
    shift_filler {
      type: "constant"
      value: 0
    }
    moving_average: true
    decay: 0.05
  }
}
layer {
  name: "inception_3c/relu_double3x3b"
  type: "ReLU"
  bottom: "inception_3c/double3x3b/bn"
  top: "inception_3c/double3x3b/bn"
}
layer {
  name: "inception_3c/pool/3x3_s2"
  type: "Pooling"
  bottom: "inception_3b/output"
  top: "inception_3c/pool/3x3_s2"
  pooling_param {
    pool: MAX
    kernel_size: 3
    stride: 2
  }
}
layer {
  name: "inception_3c/output"
  type: "Concat"
  bottom: "inception_3c/3x3/bn"
  bottom: "inception_3c/double3x3b/bn"
  bottom: "inception_3c/pool/3x3_s2"
  top: "inception_3c/output"
}
layer {
  name: "inception_4a/1x1"
  type: "ConvolutionData"
  bottom: "inception_3c/output"
  top: "inception_4a/1x1"
  param {
    lr_mult: 1
    decay_mult: 1
  }
  convolution_param {
    num_output: 224
    bias_term: false
    kernel_size: 1
    weight_filler {
      type: "xavier"
    }
  }
}
layer {
  name: "inception_4a/1x1/bn"
  type: "BNData"
  bottom: "inception_4a/1x1"
  top: "inception_4a/1x1/bn"
  param {
    lr_mult: 1
    decay_mult: 0
  }
  param {
    lr_mult: 1
    decay_mult: 0
  }
  param {
    lr_mult: 0
    decay_mult: 0
  }
  param {
    lr_mult: 0
    decay_mult: 0
  }
  bn_param {
    scale_filler {
      type: "constant"
      value: 1
    }
    shift_filler {
      type: "constant"
      value: 0
    }
    moving_average: true
    decay: 0.05
  }
}
layer {
  name: "inception_4a/relu_1x1"
  type: "ReLU"
  bottom: "inception_4a/1x1/bn"
  top: "inception_4a/1x1/bn"
}
layer {
  name: "inception_4a/3x3_reduce"
  type: "ConvolutionData"
  bottom: "inception_3c/output"
  top: "inception_4a/3x3_reduce"
  param {
    lr_mult: 1
    decay_mult: 1
  }
  convolution_param {
    num_output: 64
    bias_term: false
    kernel_size: 1
    weight_filler {
      type: "xavier"
    }
  }
}
layer {
  name: "inception_4a/3x3_reduce/bn"
  type: "BNData"
  bottom: "inception_4a/3x3_reduce"
  top: "inception_4a/3x3_reduce/bn"
  param {
    lr_mult: 1
    decay_mult: 0
  }
  param {
    lr_mult: 1
    decay_mult: 0
  }
  param {
    lr_mult: 0
    decay_mult: 0
  }
  param {
    lr_mult: 0
    decay_mult: 0
  }
  bn_param {
    scale_filler {
      type: "constant"
      value: 1
    }
    shift_filler {
      type: "constant"
      value: 0
    }
    moving_average: true
    decay: 0.05
  }
}
layer {
  name: "inception_4a/relu_3x3_reduce"
  type: "ReLU"
  bottom: "inception_4a/3x3_reduce/bn"
  top: "inception_4a/3x3_reduce/bn"
}
layer {
  name: "inception_4a/3x3"
  type: "ConvolutionData"
  bottom: "inception_4a/3x3_reduce/bn"
  top: "inception_4a/3x3"
  param {
    lr_mult: 1
    decay_mult: 1
  }
  convolution_param {
    num_output: 96
    bias_term: false
    pad: 1
    kernel_size: 3
    weight_filler {
      type: "xavier"
    }
  }
}
layer {
  name: "inception_4a/3x3/bn"
  type: "BNData"
  bottom: "inception_4a/3x3"
  top: "inception_4a/3x3/bn"
  param {
    lr_mult: 1
    decay_mult: 0
  }
  param {
    lr_mult: 1
    decay_mult: 0
  }
  param {
    lr_mult: 0
    decay_mult: 0
  }
  param {
    lr_mult: 0
    decay_mult: 0
  }
  bn_param {
    scale_filler {
      type: "constant"
      value: 1
    }
    shift_filler {
      type: "constant"
      value: 0
    }
    moving_average: true
    decay: 0.05
  }
}
layer {
  name: "inception_4a/relu_3x3"
  type: "ReLU"
  bottom: "inception_4a/3x3/bn"
  top: "inception_4a/3x3/bn"
}
layer {
  name: "inception_4a/double3x3_reduce"
  type: "ConvolutionData"
  bottom: "inception_3c/output"
  top: "inception_4a/double3x3_reduce"
  param {
    lr_mult: 1
    decay_mult: 1
  }
  convolution_param {
    num_output: 96
    bias_term: false
    kernel_size: 1
    weight_filler {
      type: "xavier"
    }
  }
}
layer {
  name: "inception_4a/double3x3_reduce/bn"
  type: "BNData"
  bottom: "inception_4a/double3x3_reduce"
  top: "inception_4a/double3x3_reduce/bn"
  param {
    lr_mult: 1
    decay_mult: 0
  }
  param {
    lr_mult: 1
    decay_mult: 0
  }
  param {
    lr_mult: 0
    decay_mult: 0
  }
  param {
    lr_mult: 0
    decay_mult: 0
  }
  bn_param {
    scale_filler {
      type: "constant"
      value: 1
    }
    shift_filler {
      type: "constant"
      value: 0
    }
    moving_average: true
    decay: 0.05
  }
}
layer {
  name: "inception_4a/relu_double3x3_reduce"
  type: "ReLU"
  bottom: "inception_4a/double3x3_reduce/bn"
  top: "inception_4a/double3x3_reduce/bn"
}
layer {
  name: "inception_4a/double3x3a"
  type: "ConvolutionData"
  bottom: "inception_4a/double3x3_reduce/bn"
  top: "inception_4a/double3x3a"
  param {
    lr_mult: 1
    decay_mult: 1
  }
  convolution_param {
    num_output: 128
    bias_term: false
    pad: 1
    kernel_size: 3
    weight_filler {
      type: "xavier"
    }
  }
}
layer {
  name: "inception_4a/double3x3a/bn"
  type: "BNData"
  bottom: "inception_4a/double3x3a"
  top: "inception_4a/double3x3a/bn"
  param {
    lr_mult: 1
    decay_mult: 0
  }
  param {
    lr_mult: 1
    decay_mult: 0
  }
  param {
    lr_mult: 0
    decay_mult: 0
  }
  param {
    lr_mult: 0
    decay_mult: 0
  }
  bn_param {
    scale_filler {
      type: "constant"
      value: 1
    }
    shift_filler {
      type: "constant"
      value: 0
    }
    moving_average: true
    decay: 0.05
  }
}
layer {
  name: "inception_4a/relu_double3x3a"
  type: "ReLU"
  bottom: "inception_4a/double3x3a/bn"
  top: "inception_4a/double3x3a/bn"
}
layer {
  name: "inception_4a/double3x3b"
  type: "ConvolutionData"
  bottom: "inception_4a/double3x3a/bn"
  top: "inception_4a/double3x3b"
  param {
    lr_mult: 1
    decay_mult: 1
  }
  convolution_param {
    num_output: 128
    bias_term: false
    pad: 1
    kernel_size: 3
    weight_filler {
      type: "xavier"
    }
  }
}
layer {
  name: "inception_4a/double3x3b/bn"
  type: "BNData"
  bottom: "inception_4a/double3x3b"
  top: "inception_4a/double3x3b/bn"
  param {
    lr_mult: 1
    decay_mult: 0
  }
  param {
    lr_mult: 1
    decay_mult: 0
  }
  param {
    lr_mult: 0
    decay_mult: 0
  }
  param {
    lr_mult: 0
    decay_mult: 0
  }
  bn_param {
    scale_filler {
      type: "constant"
      value: 1
    }
    shift_filler {
      type: "constant"
      value: 0
    }
    moving_average: true
    decay: 0.05
  }
}
layer {
  name: "inception_4a/relu_double3x3b"
  type: "ReLU"
  bottom: "inception_4a/double3x3b/bn"
  top: "inception_4a/double3x3b/bn"
}
layer {
  name: "inception_4a/pool"
  type: "Pooling"
  bottom: "inception_3c/output"
  top: "inception_4a/pool"
  pooling_param {
    pool: AVE
    kernel_size: 3
    stride: 1
    pad: 1
  }
}
layer {
  name: "inception_4a/pool_proj"
  type: "ConvolutionData"
  bottom: "inception_4a/pool"
  top: "inception_4a/pool_proj"
  param {
    lr_mult: 1
    decay_mult: 1
  }
  convolution_param {
    num_output: 128
    bias_term: false
    kernel_size: 1
    weight_filler {
      type: "xavier"
    }
  }
}
layer {
  name: "inception_4a/pool_proj/bn"
  type: "BNData"
  bottom: "inception_4a/pool_proj"
  top: "inception_4a/pool_proj/bn"
  param {
    lr_mult: 1
    decay_mult: 0
  }
  param {
    lr_mult: 1
    decay_mult: 0
  }
  param {
    lr_mult: 0
    decay_mult: 0
  }
  param {
    lr_mult: 0
    decay_mult: 0
  }
  bn_param {
    scale_filler {
      type: "constant"
  
I0304 23:04:46.789665  2301 layer_factory.hpp:74] Creating layer data
I0304 23:04:46.789702  2301 net.cpp:90] Creating Layer data
…
  transform_param {
    mirror: true
    crop_size: 224
    mean_value: 128
    fix_crop: false
    multi_scale: true
    scale_ratios: 1
    scale_ratios: 0.875
    scale_ratios: 0.75
    max_distort: 1
    is_flow: true
    num_segments: 20
  }
  video_data_param {
    source: "/data1/wangjiang/datasets/ucf101_list/train_list_split1.txt"
    batch_size: 128
    shuffle: true
    new_height: 256
    new_width: 352
    new_length: 10
    num_segments: 1
    modality: FLOW
    root_folder: "/data1/wangjiang/data/ucf101_flow_tvl1_340_256/"
    rep_label: 1
  }
}
layer {
  name: "Gather_label"
  type: "Gather"
  bottom: "label_single"
  top: "label"
}
layer {
  name: "conv1/7x7_s2"
  type: "ConvolutionData"
  bottom: "data"
  top: "conv1/7x7_s2"
  param {
    lr_mult: 1
    decay_mult: 1
  }
  convolution_param {
    num_output: 64
    bias_term: false
    pad: 3
    kernel_size: 7
    stride: 2
    weight_filler {
      type: "xavier"
    }
  }
}
layer {
  name: "conv1/7x7_s2/bn"
  type: "BNData"
  bottom: "conv1/7x7_s2"
  top: "conv1/7x7_s2/bn"
  param {
    lr_mult: 1
    decay_mult: 0
  }
  param {
    lr_mult: 1
    decay_mult: 0
  }
  param {
    lr_mult: 0
    decay_mult: 0
  }
  param {
    lr_mult: 0
    decay_mult: 0
  }
  bn_param {
    scale_filler {
      type: "constant"
      value: 1
    }
    shift_filler {
      type: "constant"
      value: 0
    }
    moving_average: true
    decay: 0.05
  }
}
layer {
  name: "conv1/relu_7x7"
  type: "ReLU"
  bottom: "conv1/7x7_s2/bn"
  top: "conv1/7x7_s2/bn"
}
layer {
  name: "pool1/3x3_s2"
  type: "Pooling"
  bottom: "conv1/7x7_s2/bn"
  top: "pool1/3x3_s2"
  pooling_param {
    pool: MAX
    kernel_size: 3
    stride: 2
  }
}
layer {
  name: "conv2/3x3_reduce"
  type: "ConvolutionData"
  bottom: "pool1/3x3_s2"
  top: "conv2/3x3_reduce"
  param {
    lr_mult: 1
    decay_mult: 1
  }
  convolution_param {
    num_output: 64
    bias_term: false
    kernel_size: 1
    weight_filler {
      type: "xavier"
    }
  }
}
layer {
  name: "conv2/3x3_reduce/bn"
  type: "BNData"
  bottom: "conv2/3x3_reduce"
  top: "conv2/3x3_reduce/bn"
  param {
    lr_mult: 1
    decay_mult: 0
  }
  param {
    lr_mult: 1
    decay_mult: 0
  }
  param {
    lr_mult: 0
    decay_mult: 0
  }
  param {
    lr_mult: 0
    decay_mult: 0
  }
  bn_param {
    scale_filler {
      type: "constant"
      value: 1
    }
    shift_filler {
      type: "constant"
      value: 0
    }
    moving_average: true
    decay: 0.05
  }
}
layer {
  name: "conv2/relu_3x3_reduce"
  type: "ReLU"
  bottom: "conv2/3x3_reduce/bn"
  top: "conv2/3x3_reduce/bn"
}
layer {
  name: "conv2/3x3"
  type: "ConvolutionData"
  bottom: "conv2/3x3_reduce/bn"
  top: "conv2/3x3"
  param {
    lr_mult: 1
    decay_mult: 1
  }
  convolution_param {
    num_output: 192
    bias_term: false
    pad: 1
    kernel_size: 3
    weight_filler {
      type: "xavier"
    }
  }
}
layer {
  name: "conv2/3x3/bn"
  type: "BNData"
  bottom: "conv2/3x3"
  top: "conv2/3x3/bn"
  param {
    lr_mult: 1
    decay_mult: 0
  }
  param {
    lr_mult: 1
    decay_mult: 0
  }
  param {
    lr_mult: 0
    decay_mult: 0
  }
  param {
    lr_mult: 0
    decay_mult: 0
  }
  bn_param {
    scale_filler {
      type: "constant"
      value: 1
    }
    shift_filler {
      type: "constant"
      value: 0
    }
    moving_average: true
    decay: 0.05
  }
}
layer {
  name: "conv2/relu_3x3"
  type: "ReLU"
  bottom: "conv2/3x3/bn"
  top: "conv2/3x3/bn"
}
layer {
  name: "pool2/3x3_s2"
  type: "Pooling"
  bottom: "conv2/3x3/bn"
  top: "pool2/3x3_s2"
  pooling_param {
    pool: MAX
    kernel_size: 3
    stride: 2
  }
}
layer {
  name: "inception_3a/1x1"
  type: "ConvolutionData"
  bottom: "pool2/3x3_s2"
  top: "inception_3a/1x1"
  param {
    lr_mult: 1
    decay_mult: 1
  }
  convolution_param {
    num_output: 64
    bias_term: false
    kernel_size: 1
    weight_filler {
      type: "xavier"
    }
  }
}
layer {
  name: "inception_3a/1x1/bn"
  type: "BNData"
  bottom: "inception_3a/1x1"
  top: "inception_3a/1x1/bn"
  param {
    lr_mult: 1
    decay_mult: 0
  }
  param {
    lr_mult: 1
    decay_mult: 0
  }
  param {
    lr_mult: 0
    decay_mult: 0
  }
  param {
    lr_mult: 0
    decay_mult: 0
  }
  bn_param {
    scale_filler {
      type: "constant"
      value: 1
    }
    shift_filler {
      type: "constant"
      value: 0
    }
    moving_average: true
    decay: 0.05
  }
}
layer {
  name: "inception_3a/relu_1x1"
  type: "ReLU"
  bottom: "inception_3a/1x1/bn"
  top: "inception_3a/1x1/bn"
}
layer {
  name: "inception_3a/3x3_reduce"
  type: "ConvolutionData"
  bottom: "pool2/3x3_s2"
  top: "inception_3a/3x3_reduce"
  param {
    lr_mult: 1
    decay_mult: 1
  }
  convolution_param {
    num_output: 64
    bias_term: false
    kernel_size: 1
    weight_filler {
      type: "xavier"
    }
  }
}
layer {
  name: "inception_3a/3x3_reduce/bn"
  type: "BNData"
  bottom: "inception_3a/3x3_reduce"
  top: "inception_3a/3x3_reduce/bn"
  param {
    lr_mult: 1
    decay_mult: 0
  }
  param {
    lr_mult: 1
    decay_mult: 0
  }
  param {
    lr_mult: 0
    decay_mult: 0
  }
  param {
    lr_mult: 0
    decay_mult: 0
  }
  bn_param {
    scale_filler {
      type: "constant"
      value: 1
    }
    shift_filler {
      type: "constant"
      value: 0
    }
    moving_average: true
    decay: 0.05
  }
}
layer {
  name: "inception_3a/relu_3x3_reduce"
  type: "ReLU"
  bottom: "inception_3a/3x3_reduce/bn"
  top: "inception_3a/3x3_reduce/bn"
}
layer {
  name: "inception_3a/3x3"
  type: "ConvolutionData"
  bottom: "inception_3a/3x3_reduce/bn"
  top: "inception_3a/3x3"
  param {
    lr_mult: 1
    decay_mult: 1
  }
  convolution_param {
    num_output: 64
    bias_term: false
    pad: 1
    kernel_size: 3
    weight_filler {
      type: "xavier"
    }
  }
}
layer {
  name: "inception_3a/3x3/bn"
  type: "BNData"
  bottom: "inception_3a/3x3"
  top: "inception_3a/3x3/bn"
  param {
    lr_mult: 1
    decay_mult: 0
  }
  param {
    lr_mult: 1
    decay_mult: 0
  }
  param {
    lr_mult: 0
    decay_mult: 0
  }
  param {
    lr_mult: 0
    decay_mult: 0
  }
  bn_param {
    scale_filler {
      type: "constant"
      value: 1
    }
    shift_filler {
      type: "constant"
      value: 0
    }
    moving_average: true
    decay: 0.05
  }
}
layer {
  name: "inception_3a/relu_3x3"
  type: "ReLU"
  bottom: "inception_3a/3x3/bn"
  top: "inception_3a/3x3/bn"
}
layer {
  name: "inception_3a/double3x3_reduce"
  type: "ConvolutionData"
  bottom: "pool2/3x3_s2"
  top: "inception_3a/double3x3_reduce"
  param {
    lr_mult: 1
    decay_mult: 1
  }
  convolution_param {
    num_output: 64
    bias_term: false
    kernel_size: 1
    weight_filler {
      type: "xavier"
    }
  }
}
layer {
  name: "inception_3a/double3x3_reduce/bn"
  type: "BNData"
  bottom: "inception_3a/double3x3_reduce"
  top: "inception_3a/double3x3_reduce/bn"
  param {
    lr_mult: 1
    decay_mult: 0
  }
  param {
    lr_mult: 1
    decay_mult: 0
  }
  param {
    lr_mult: 0
    decay_mult: 0
  }
  param {
    lr_mult: 0
    decay_mult: 0
  }
  bn_param {
    scale_filler {
      type: "constant"
      value: 1
    }
    shift_filler {
      type: "constant"
      value: 0
    }
    moving_average: true
    decay: 0.05
  }
}
layer {
  name: "inception_3a/relu_double3x3_reduce"
  type: "ReLU"
  bottom: "inception_3a/double3x3_reduce/bn"
  top: "inception_3a/double3x3_reduce/bn"
}
layer {
  name: "inception_3a/double3x3a"
  type: "ConvolutionData"
  bottom: "inception_3a/double3x3_reduce/bn"
  top: "inception_3a/double3x3a"
  param {
    lr_mult: 1
    decay_mult: 1
  }
  convolution_param {
    num_output: 96
    bias_term: false
    pad: 1
    kernel_size: 3
    weight_filler {
      type: "xavier"
    }
  }
}
layer {
  name: "inception_3a/double3x3a/bn"
  type: "BNData"
  bottom: "inception_3a/double3x3a"
  top: "inception_3a/double3x3a/bn"
  param {
    lr_mult: 1
    decay_mult: 0
  }
  param {
    lr_mult: 1
    decay_mult: 0
  }
  param {
    lr_mult: 0
    decay_mult: 0
  }
  param {
    lr_mult: 0
    decay_mult: 0
  }
  bn_param {
    scale_filler {
      type: "constant"
      value: 1
    }
    shift_filler {
      type: "constant"
      value: 0
    }
    moving_average: true
    decay: 0.05
  }
}
layer {
  name: "inception_3a/relu_double3x3a"
  type: "ReLU"
  bottom: "inception_3a/double3x3a/bn"
  top: "inception_3a/double3x3a/bn"
}
layer {
  name: "inception_3a/double3x3b"
  type: "ConvolutionData"
  bottom: "inception_3a/double3x3a/bn"
  top: "inception_3a/double3x3b"
  param {
    lr_mult: 1
    decay_mult: 1
  }
  convolution_param {
    num_output: 96
    bias_term: false
    pad: 1
    kernel_size: 3
    weight_filler {
      type: "xavier"
    }
  }
}
layer {
  name: "inception_3a/double3x3b/bn"
  type: "BNData"
  bottom: "inception_3a/double3x3b"
  top: "inception_3a/double3x3b/bn"
  param {
    lr_mult: 1
    decay_mult: 0
  }
  param {
    lr_mult: 1
    decay_mult: 0
  }
  param {
    lr_mult: 0
  }
  param {
    lr_mult: 0
  }
  bn_param {
    scale_filler {
      type: "constant"
      value: 1
    }
    shift_filler {
      type: "constant"
      value: 0
    }
    moving_average: true
    decay: 0.05
  }
}
layer {
  name: "inception_3a/relu_double3x3b"
  type: "ReLU"
  bottom: "inception_3a/double3x3b/bn"
  top: "inception_3a/double3x3b/bn"
}
layer {
  name: "inception_3a/pool"
  type: "Pooling"
  bottom: "pool2/3x3_s2"
  top: "inception_3a/pool"
  pooling_param {
    pool: AVE
    kernel_size: 3
    stride: 1
    pad: 1
  }
}
layer {
  name: "inception_3a/pool_proj"
  type: "ConvolutionData"
  bottom: "inception_3a/pool"
  top: "inception_3a/pool_proj"
  param {
    lr_mult: 1
    decay_mult: 1
  }
  convolution_param {
    num_output: 32
    bias_term: false
    kernel_size: 1
    weight_filler {
      type: "xavier"
    }
  }
}
layer {
  name: "inception_3a/pool_proj/bn"
  type: "BNData"
  bottom: "inception_3a/pool_proj"
  top: "inception_3a/pool_proj/bn"
  param {
    lr_mult: 1
    decay_mult: 0
  }
  param {
    lr_mult: 1
    decay_mult: 0
  }
  param {
    lr_mult: 0
    decay_mult: 0
  }
  param {
    lr_mult: 0
    decay_mult: 0
  }
  bn_param {
    scale_filler {
      type: "constant"
      value: 1
    }
    shift_filler {
      type: "constant"
      value: 0
    }
    moving_average: true
    decay: 0.05
  }
}
layer {
  name: "inception_3a/relu_pool_proj"
  type: "ReLU"
  bottom: "inception_3a/pool_proj/bn"
  top: "inception_3a/pool_proj/bn"
}
layer {
  name: "inception_3a/output"
  type: "Concat"
  bottom: "inception_3a/1x1/bn"
  bottom: "inception_3a/3x3/bn"
  bottom: "inception_3a/double3x3b/bn"
  bottom: "inception_3a/pool_proj/bn"
  top: "inception_3a/output"
}
layer {
  name: "inception_3b/1x1"
  type: "ConvolutionData"
  bottom: "inception_3a/output"
  top: "inception_3b/1x1"
  param {
    lr_mult: 1
    decay_mult: 1
  }
  convolution_param {
    num_output: 64
    bias_term: false
    kernel_size: 1
    weight_filler {
      type: "xavier"
    }
  }
}
layer {
  name: "inception_3b/1x1/bn"
  type: "BNData"
  bottom: "inception_3b/1x1"
  top: "inception_3b/1x1/bn"
  param {
    lr_mult: 1
    decay_mult: 0
  }
  param {
    lr_mult: 1
    decay_mult: 0
  }
  param {
    lr_mult: 0
    decay_mult: 0
  }
  param {
    lr_mult: 0
    decay_mult: 0
  }
  bn_param {
    scale_filler {
      type: "constant"
      value: 1
    }
    shift_filler {
      type: "constant"
      value: 0
    }
    moving_average: true
    decay: 0.05
  }
}
layer {
  name: "inception_3b/relu_1x1"
  type: "ReLU"
  bottom: "inception_3b/1x1/bn"
  top: "inception_3b/1x1/bn"
}
layer {
  name: "inception_3b/3x3_reduce"
  type: "ConvolutionData"
  bottom: "inception_3a/output"
  top: "inception_3b/3x3_reduce"
  param {
    lr_mult: 1
    decay_mult: 1
  }
  convolution_param {
    num_output: 64
    bias_term: false
    kernel_size: 1
    weight_filler {
      type: "xavier"
    }
  }
}
layer {
  name: "inception_3b/3x3_reduce/bn"
  type: "BNData"
  bottom: "inception_3b/3x3_reduce"
  top: "inception_3b/3x3_reduce/bn"
  param {
    lr_mult: 1
    decay_mult: 0
  }
  param {
    lr_mult: 1
    decay_mult: 0
  }
  param {
    lr_mult: 0
    decay_mult: 0
  }
  param {
    lr_mult: 0
    decay_mult: 0
  }
  bn_param {
    scale_filler {
      type: "constant"
      value: 1
    }
    shift_filler {
      type: "constant"
      value: 0
    }
    moving_average: true
    decay: 0.05
  }
}
layer {
  name: "inception_3b/relu_3x3_reduce"
  type: "ReLU"
  bottom: "inception_3b/3x3_reduce/bn"
  top: "inception_3b/3x3_reduce/bn"
}
layer {
  name: "inception_3b/3x3"
  type: "ConvolutionData"
  bottom: "inception_3b/3x3_reduce/bn"
  top: "inception_3b/3x3"
  param {
    lr_mult: 1
    decay_mult: 1
  }
  convolution_param {
    num_output: 96
    bias_term: false
    pad: 1
    kernel_size: 3
    weight_filler {
      type: "xavier"
    }
  }
}
layer {
  name: "inception_3b/3x3/bn"
  type: "BNData"
  bottom: "inception_3b/3x3"
  top: "inception_3b/3x3/bn"
  param {
    lr_mult: 1
    decay_mult: 0
  }
  param {
    lr_mult: 1
    decay_mult: 0
  }
  param {
    lr_mult: 0
    decay_mult: 0
  }
  param {
    lr_mult: 0
    decay_mult: 0
  }
  bn_param {
    scale_filler {
      type: "constant"
      value: 1
    }
    shift_filler {
      type: "constant"
      value: 0
    }
    moving_average: true
    decay: 0.05
  }
}
layer {
  name: "inception_3b/relu_3x3"
  type: "ReLU"
  bottom: "inception_3b/3x3/bn"
  top: "inception_3b/3x3/bn"
}
layer {
  name: "inception_3b/double3x3_reduce"
  type: "ConvolutionData"
  bottom: "inception_3a/output"
  top: "inception_3b/double3x3_reduce"
  param {
    lr_mult: 1
    decay_mult: 1
  }
  convolution_param {
    num_output: 64
    bias_term: false
    kernel_size: 1
    weight_filler {
      type: "xavier"
    }
  }
}
layer {
  name: "inception_3b/double3x3_reduce/bn"
  type: "BNData"
  bottom: "inception_3b/double3x3_reduce"
  top: "inception_3b/double3x3_reduce/bn"
  param {
    lr_mult: 1
    decay_mult: 0
  }
  param {
    lr_mult: 1
    decay_mult: 0
  }
  param {
    lr_mult: 0
    decay_mult: 0
  }
  param {
    lr_mult: 0
    decay_mult: 0
  }
  bn_param {
    scale_filler {
      type: "constant"
      value: 1
    }
    shift_filler {
      type: "constant"
      value: 0
    }
    moving_average: true
    decay: 0.05
  }
}
layer {
  name: "inception_3b/relu_double3x3_reduce"
  type: "ReLU"
  bottom: "inception_3b/double3x3_reduce/bn"
  top: "inception_3b/double3x3_reduce/bn"
}
layer {
  name: "inception_3b/double3x3a"
  type: "ConvolutionData"
  bottom: "inception_3b/double3x3_reduce/bn"
  top: "inception_3b/double3x3a"
  param {
    lr_mult: 1
    decay_mult: 1
  }
  convolution_param {
    num_output: 96
    bias_term: false
    pad: 1
    kernel_size: 3
    weight_filler {
      type: "xavier"
    }
  }
}
layer {
  name: "inception_3b/double3x3a/bn"
  type: "BNData"
  bottom: "inception_3b/double3x3a"
  top: "inception_3b/double3x3a/bn"
  param {
    lr_mult: 1
    decay_mult: 0
  }
  param {
    lr_mult: 1
    decay_mult: 0
  }
  param {
    lr_mult: 0
    decay_mult: 0
  }
  param {
    lr_mult: 0
    decay_mult: 0
  }
  bn_param {
    scale_filler {
      type: "constant"
      value: 1
    }
    shift_filler {
      type: "constant"
      value: 0
    }
    moving_average: true
    decay: 0.05
  }
}
layer {
  name: "inception_3b/relu_double3x3a"
  type: "ReLU"
  bottom: "inception_3b/double3x3a/bn"
  top: "inception_3b/double3x3a/bn"
}
layer {
  name: "inception_3b/double3x3b"
  type: "ConvolutionData"
  bottom: "inception_3b/double3x3a/bn"
  top: "inception_3b/double3x3b"
  param {
    lr_mult: 1
    decay_mult: 1
  }
  convolution_param {
    num_output: 96
    bias_term: false
    pad: 1
    kernel_size: 3
    weight_filler {
      type: "xavier"
    }
  }
}
layer {
  name: "inception_3b/double3x3b/bn"
  type: "BNData"
  bottom: "inception_3b/double3x3b"
  top: "inception_3b/double3x3b/bn"
  param {
    lr_mult: 1
    decay_mult: 0
  }
  param {
    lr_mult: 1
    decay_mult: 0
  }
  param {
    lr_mult: 0
    decay_mult: 0
  }
  param {
    lr_mult: 0
    decay_mult: 0
  }
  bn_param {
    scale_filler {
      type: "constant"
      value: 1
    }
    shift_filler {
      type: "constant"
      value: 0
    }
    moving_average: true
    decay: 0.05
  }
}
layer {
  name: "inception_3b/relu_double3x3b"
  type: "ReLU"
  bottom: "inception_3b/double3x3b/bn"
  top: "inception_3b/double3x3b/bn"
}
layer {
  name: "inception_3b/pool"
  type: "Pooling"
  bottom: "inception_3a/output"
  top: "inception_3b/pool"
  pooling_param {
    pool: AVE
    kernel_size: 3
    stride: 1
    pad: 1
  }
}
layer {
  name: "inception_3b/pool_proj"
  type: "ConvolutionData"
  bottom: "inception_3b/pool"
  top: "inception_3b/pool_proj"
  param {
    lr_mult: 1
    decay_mult: 1
  }
  convolution_param {
    num_output: 64
    bias_term: false
    kernel_size: 1
    weight_filler {
      type: "xavier"
    }
  }
}
layer {
  name: "inception_3b/pool_proj/bn"
  type: "BNData"
  bottom: "inception_3b/pool_proj"
  top: "inception_3b/pool_proj/bn"
  param {
    lr_mult: 1
    decay_mult: 0
  }
  param {
    lr_mult: 1
    decay_mult: 0
  }
  param {
    lr_mult: 0
    decay_mult: 0
  }
  param {
    lr_mult: 0
    decay_mult: 0
  }
  bn_param {
    scale_filler {
      type: "constant"
      value: 1
    }
    shift_filler {
      type: "constant"
      value: 0
    }
    moving_average: true
    decay: 0.05
  }
}
layer {
  name: "inception_3b/relu_pool_proj"
  type: "ReLU"
  bottom: "inception_3b/pool_proj/bn"
  top: "inception_3b/pool_proj/bn"
}
layer {
  name: "inception_3b/output"
  type: "Concat"
  bottom: "inception_3b/1x1/bn"
  bottom: "inception_3b/3x3/bn"
  bottom: "inception_3b/double3x3b/bn"
  bottom: "inception_3b/pool_proj/bn"
  top: "inception_3b/output"
}
layer {
  name: "inception_3c/3x3_reduce"
  type: "ConvolutionData"
  bottom: "inception_3b/output"
  top: "inception_3c/3x3_reduce"
  param {
    lr_mult: 1
    decay_mult: 1
  }
  convolution_param {
    num_output: 128
    bias_term: false
    kernel_size: 1
    weight_filler {
      type: "xavier"
    }
  }
}
layer {
  name: "inception_3c/3x3_reduce/bn"
  type: "BNData"
  bottom: "inception_3c/3x3_reduce"
  top: "inception_3c/3x3_reduce/bn"
  param {
    lr_mult: 1
    decay_mult: 0
  }
  param {
    lr_mult: 1
    decay_mult: 0
  }
  param {
    lr_mult: 0
    decay_mult: 0
  }
  param {
    lr_mult: 0
    decay_mult: 0
  }
  bn_param {
    scale_filler {
      type: "constant"
      value: 1
    }
    shift_filler {
      type: "constant"
      value: 0
    }
    moving_average: true
    decay: 0.05
  }
}
layer {
  name: "inception_3c/relu_3x3_reduce"
  type: "ReLU"
  bottom: "inception_3c/3x3_reduce/bn"
  top: "inception_3c/3x3_reduce/bn"
}
layer {
  name: "inception_3c/3x3"
  type: "ConvolutionData"
  bottom: "inception_3c/3x3_reduce/bn"
  top: "inception_3c/3x3"
  param {
    lr_mult: 1
    decay_mult: 1
  }
  convolution_param {
    num_output: 160
    bias_term: false
    pad: 1
    kernel_size: 3
    stride: 2
    weight_filler {
      type: "xavier"
    }
  }
}
layer {
  name: "inception_3c/3x3/bn"
  type: "BNData"
  bottom: "inception_3c/3x3"
  top: "inception_3c/3x3/bn"
  param {
    lr_mult: 1
    decay_mult: 0
  }
  param {
    lr_mult: 1
    decay_mult: 0
  }
  param {
    lr_mult: 0
    decay_mult: 0
  }
  param {
    lr_mult: 0
    decay_mult: 0
  }
  bn_param {
    scale_filler {
      type: "constant"
      value: 1
    }
    shift_filler {
      type: "constant"
      value: 0
    }
    moving_average: true
    decay: 0.05
  }
}
layer {
  name: "inception_3c/relu_3x3"
  type: "ReLU"
  bottom: "inception_3c/3x3/bn"
  top: "inception_3c/3x3/bn"
}
layer {
  name: "inception_3c/double3x3_reduce"
  type: "ConvolutionData"
  bottom: "inception_3b/output"
  top: "inception_3c/double3x3_reduce"
  param {
    lr_mult: 1
    decay_mult: 1
  }
  convolution_param {
    num_output: 64
    bias_term: false
    kernel_size: 1
    weight_filler {
      type: "xavier"
    }
  }
}
layer {
  name: "inception_3c/double3x3_reduce/bn"
  type: "BNData"
  bottom: "inception_3c/double3x3_reduce"
  top: "inception_3c/double3x3_reduce/bn"
  param {
    lr_mult: 1
    decay_mult: 0
  }
  param {
    lr_mult: 1
    decay_mult: 0
  }
  param {
    lr_mult: 0
    decay_mult: 0
  }
  param {
    lr_mult: 0
    decay_mult: 0
  }
  bn_param {
    scale_filler {
      type: "constant"
      value: 1
    }
    shift_filler {
      type: "constant"
      value: 0
    }
    moving_average: true
    decay: 0.05
  }
}
layer {
  name: "inception_3c/relu_double3x3_reduce"
  type: "ReLU"
  bottom: "inception_3c/double3x3_reduce/bn"
  top: "inception_3c/double3x3_reduce/bn"
}
layer {
  name: "inception_3c/double3x3a"
  type: "ConvolutionData"
  bottom: "inception_3c/double3x3_reduce/bn"
  top: "inception_3c/double3x3a"
  param {
    lr_mult: 1
    decay_mult: 1
  }
  convolution_param {
    num_output: 96
    bias_term: false
    pad: 1
    kernel_size: 3
    weight_filler {
      type: "xavier"
    }
  }
}
layer {
  name: "inception_3c/double3x3a/bn"
  type: "BNData"
  bottom: "inception_3c/double3x3a"
  top: "inception_3c/double3x3a/bn"
  param {
    lr_mult: 1
    decay_mult: 0
  }
  param {
    lr_mult: 1
    decay_mult: 0
  }
  param {
    lr_mult: 0
    decay_mult: 0
  }
  param {
    lr_mult: 0
    decay_mult: 0
  }
  bn_param {
    scale_filler {
      type: "constant"
      value: 1
    }
    shift_filler {
      type: "constant"
      value: 0
    }
    moving_average: true
    decay: 0.05
  }
}
layer {
  name: "inception_3c/relu_double3x3a"
  type: "ReLU"
  bottom: "inception_3c/double3x3a/bn"
  top: "inception_3c/double3x3a/bn"
}
layer {
  name: "inception_3c/double3x3b"
  type: "ConvolutionData"
  bottom: "inception_3c/double3x3a/bn"
  top: "inception_3c/double3x3b"
  param {
    lr_mult: 1
    decay_mult: 1
  }
  convolution_param {
    num_output: 96
    bias_term: false
    pad: 1
    kernel_size: 3
    stride: 2
    weight_filler {
      type: "xavier"
    }
  }
}
layer {
  name: "inception_3c/double3x3b/bn"
  type: "BNData"
  bottom: "inception_3c/double3x3b"
  top: "inception_3c/double3x3b/bn"
  param {
    lr_mult: 1
    decay_mult: 0
  }
  param {
    lr_mult: 1
    decay_mult: 0
  }
  param {
    lr_mult: 0
    decay_mult: 0
  }
  param {
    lr_mult: 0
    decay_mult: 0
  }
  bn_param {
    scale_filler {
      type: "constant"
      value: 1
    }
    shift_filler {
      type: "constant"
      value: 0
    }
    moving_average: true
    decay: 0.05
  }
}
layer {
  name: "inception_3c/relu_double3x3b"
  type: "ReLU"
  bottom: "inception_3c/double3x3b/bn"
  top: "inception_3c/double3x3b/bn"
}
layer {
  name: "inception_3c/pool/3x3_s2"
  type: "Pooling"
  bottom: "inception_3b/output"
  top: "inception_3c/pool/3x3_s2"
  pooling_param {
    pool: MAX
    kernel_size: 3
    stride: 2
  }
}
layer {
  name: "inception_3c/output"
  type: "Concat"
  bottom: "inception_3c/3x3/bn"
  bottom: "inception_3c/double3x3b/bn"
  bottom: "inception_3c/pool/3x3_s2"
  top: "inception_3c/output"
}
layer {
  name: "inception_4a/1x1"
  type: "ConvolutionData"
  bottom: "inception_3c/output"
  top: "inception_4a/1x1"
  param {
    lr_mult: 1
    decay_mult: 1
  }
  convolution_param {
    num_output: 224
    bias_term: false
    kernel_size: 1
    weight_filler {
      type: "xavier"
    }
  }
}
layer {
  name: "inception_4a/1x1/bn"
  type: "BNData"
  bottom: "inception_4a/1x1"
  top: "inception_4a/1x1/bn"
  param {
    lr_mult: 1
    decay_mult: 0
  }
  param {
    lr_mult: 1
    decay_mult: 0
  }
  param {
    lr_mult: 0
    decay_mult: 0
  }
  param {
    lr_mult: 0
    decay_mult: 0
  }
  bn_param {
    scale_filler {
      type: "constant"
      value: 1
    }
    shift_filler {
      type: "constant"
      value: 0
    }
    moving_average: true
    decay: 0.05
  }
}
layer {
  name: "inception_4a/relu_1x1"
  type: "ReLU"
  bottom: "inception_4a/1x1/bn"
  top: "inception_4a/1x1/bn"
}
layer {
  name: "inception_4a/3x3_reduce"
  type: "ConvolutionData"
  bottom: "inception_3c/output"
  top: "inception_4a/3x3_reduce"
  param {
    lr_mult: 1
    decay_mult: 1
  }
  convolution_param {
    num_output: 64
    bias_term: false
    kernel_size: 1
    weight_filler {
      type: "xavier"
    }
  }
}
layer {
  name: "inception_4a/3x3_reduce/bn"
  type: "BNData"
  bottom: "inception_4a/3x3_reduce"
  top: "inception_4a/3x3_reduce/bn"
  param {
    lr_mult: 1
    decay_mult: 0
  }
  param {
    lr_mult: 1
    decay_mult: 0
  }
  param {
    lr_mult: 0
    decay_mult: 0
  }
  param {
    lr_mult: 0
    decay_mult: 0
  }
  bn_param {
    scale_filler {
      type: "constant"
      value: 1
    }
    shift_filler {
      type: "constant"
      value: 0
    }
    moving_average: true
    decay: 0.05
  }
}
layer {
  name: "inception_4a/relu_3x3_reduce"
  type: "ReLU"
  bottom: "inception_4a/3x3_reduce/bn"
  top: "inception_4a/3x3_reduce/bn"
}
layer {
  name: "inception_4a/3x3"
  type: "ConvolutionData"
  bottom: "inception_4a/3x3_reduce/bn"
  top: "inception_4a/3x3"
  param {
    lr_mult: 1
    decay_mult: 1
  }
  convolution_param {
    num_output: 96
    bias_term: false
    pad: 1
    kernel_size: 3
    weight_filler {
      type: "xavier"
    }
  }
}
layer {
  name: "inception_4a/3x3/bn"
  type: "BNData"
  bottom: "inception_4a/3x3"
  top: "inception_4a/3x3/bn"
  param {
    lr_mult: 1
    decay_mult: 0
  }
  param {
    lr_mult: 1
    decay_mult: 0
  }
  param {
    lr_mult: 0
    decay_mult: 0
  }
  param {
    lr_mult: 0
    decay_mult: 0
  }
  bn_param {
    scale_filler {
      type: "constant"
      value: 1
    }
    shift_filler {
      type: "constant"
      value: 0
    }
    moving_average: true
    decay: 0.05
  }
}
layer {
  name: "inception_4a/relu_3x3"
  type: "ReLU"
  bottom: "inception_4a/3x3/bn"
  top: "inception_4a/3x3/bn"
}
layer {
  name: "inception_4a/double3x3_reduce"
  type: "ConvolutionData"
  bottom: "inception_3c/output"
  top: "inception_4a/double3x3_reduce"
  param {
    lr_mult: 1
    decay_mult: 1
  }
  convolution_param {
    num_output: 96
    bias_term: false
    kernel_size: 1
    weight_filler {
      type: "xavier"
    }
  }
}
layer {
  name: "inception_4a/double3x3_reduce/bn"
  type: "BNData"
  bottom: "inception_4a/double3x3_reduce"
  top: "inception_4a/double3x3_reduce/bn"
  param {
    lr_mult: 1
    decay_mult: 0
  }
  param {
    lr_mult: 1
    decay_mult: 0
  }
  param {
    lr_mult: 0
    decay_mult: 0
  }
  param {
    lr_mult: 0
    decay_mult: 0
  }
  bn_param {
    scale_filler {
      type: "constant"
      value: 1
    }
    shift_filler {
      type: "constant"
      value: 0
    }
    moving_average: true
    decay: 0.05
  }
}
layer {
  name: "inception_4a/relu_double3x3_reduce"
  type: "ReLU"
  bottom: "inception_4a/double3x3_reduce/bn"
  top: "inception_4a/double3x3_reduce/bn"
}
layer {
  name: "inception_4a/double3x3a"
  type: "ConvolutionData"
  bottom: "inception_4a/double3x3_reduce/bn"
  top: "inception_4a/double3x3a"
  param {
    lr_mult: 1
    decay_mult: 1
  }
  convolution_param {
    num_output: 128
    bias_term: false
    pad: 1
    kernel_size: 3
    weight_filler {
      type: "xavier"
    }
  }
}
layer {
  name: "inception_4a/double3x3a/bn"
  type: "BNData"
  bottom: "inception_4a/double3x3a"
  top: "inception_4a/double3x3a/bn"
  param {
    lr_mult: 1
    decay_mult: 0
  }
  param {
    lr_mult: 1
    decay_mult: 0
  }
  param {
    lr_mult: 0
    decay_mult: 0
  }
  param {
    lr_mult: 0
    decay_mult: 0
  }
  bn_param {
    scale_filler {
      type: "constant"
      value: 1
    }
    shift_filler {
      type: "constant"
      value: 0
    }
    moving_average: true
    decay: 0.05
  }
}
layer {
  name: "inception_4a/relu_double3x3a"
  type: "ReLU"
  bottom: "inception_4a/double3x3a/bn"
  top: "inception_4a/double3x3a/bn"
}
layer {
  name: "inception_4a/double3x3b"
  type: "ConvolutionData"
  bottom: "inception_4a/double3x3a/bn"
  top: "inception_4a/double3x3b"
  param {
    lr_mult: 1
    decay_mult: 1
  }
  convolution_param {
    num_output: 128
    bias_term: false
    pad: 1
    kernel_size: 3
    weight_filler {
      type: "xavier"
    }
  }
}
layer {
  name: "inception_4a/double3x3b/bn"
  type: "BNData"
  bottom: "inception_4a/double3x3b"
  top: "inception_4a/double3x3b/bn"
  param {
    lr_mult: 1
    decay_mult: 0
  }
  param {
    lr_mult: 1
    decay_mult: 0
  }
  param {
    lr_mult: 0
    decay_mult: 0
  }
  param {
    lr_mult: 0
    decay_mult: 0
  }
  bn_param {
    scale_filler {
      type: "constant"
      value: 1
    }
    shift_filler {
      type: "constant"
      value: 0
    }
    moving_average: true
    decay: 0.05
  }
}
layer {
  name: "inception_4a/relu_double3x3b"
  type: "ReLU"
  bottom: "inception_4a/double3x3b/bn"
  top: "inception_4a/double3x3b/bn"
}
layer {
  name: "inception_4a/pool"
  type: "Pooling"
  bottom: "inception_3c/output"
  top: "inception_4a/pool"
  pooling_param {
    pool: AVE
    kernel_size: 3
    stride: 1
    pad: 1
  }
}
layer {
  name: "inception_4a/pool_proj"
  type: "ConvolutionData"
  bottom: "inception_4a/pool"
  top: "inception_4a/pool_proj"
  param {
    lr_mult: 1
    decay_mult: 1
  }
  convolution_param {
    num_output: 128
    bias_term: false
    kernel_size: 1
    weight_filler {
      type: "xavier"
    }
  }
}
layer {
  name: "inception_4a/pool_proj/bn"
  type: "BNData"
  bottom: "inception_4a/pool_proj"
  top: "inception_4a/pool_proj/bn"
  param {
    lr_mult: 1
    decay_mult: 0
  }
  param {
    lr_mult: 1
    decay_mult: 0
  }
  param {
    lr_mult: 0
    decay_mult: 0
  }
  param {
    lr_mult: 0
    decay_mult: 0
  }
  bn_param {
    scale_filler {
      type: "constant"
  
I0304 23:04:46.840023  2303 layer_factory.hpp:74] Creating layer data
I0304 23:04:46.840060  2303 net.cpp:90] Creating Layer data
I0304 23:04:46.840072  2303 net.cpp:368] data -> data
I0304 23:04:46.840107  2303 net.cpp:368] data -> label_single
I0304 23:04:46.840121  2303 net.cpp:120] Setting up data
I0304 23:04:46.840612  2303 video_data_layer.cpp:40] Opening file: /data1/wangjiang/datasets/ucf101_list/train_list_split1.txt
I0304 23:04:46.846055  2303 video_data_layer.cpp:56] A total of 9537 videos.
I0304 23:04:46.852234  2301 net.cpp:127] Top shape: 32 20 224 224 (32112640)
I0304 23:04:46.852288  2301 net.cpp:127] Top shape: 32 1 1 1 (32)
I0304 23:04:46.852298  2301 layer_factory.hpp:74] Creating layer Gather_label
I0304 23:04:46.852310  2301 net.cpp:90] Creating Layer Gather_label
I0304 23:04:46.852319  2301 net.cpp:410] Gather_label <- label_single
I0304 23:04:46.852332  2301 net.cpp:368] Gather_label -> label
I0304 23:04:46.852344  2301 net.cpp:120] Setting up Gather_label
I0304 23:04:46.852351  2301 net.cpp:127] Top shape: 128 1 1 1 (128)
I0304 23:04:46.852356  2301 layer_factory.hpp:74] Creating layer label_Gather_label_0_split
I0304 23:04:46.852376  2301 net.cpp:90] Creating Layer label_Gather_label_0_split
I0304 23:04:46.852381  2301 net.cpp:410] label_Gather_label_0_split <- label
I0304 23:04:46.852388  2301 net.cpp:368] label_Gather_label_0_split -> label_Gather_label_0_split_0
I0304 23:04:46.852396  2301 net.cpp:368] label_Gather_label_0_split -> label_Gather_label_0_split_1
I0304 23:04:46.852402  2301 net.cpp:120] Setting up label_Gather_label_0_split
I0304 23:04:46.852421  2301 net.cpp:127] Top shape: 128 1 1 1 (128)
I0304 23:04:46.852427  2301 net.cpp:127] Top shape: 128 1 1 1 (128)
I0304 23:04:46.852443  2301 layer_factory.hpp:74] Creating layer conv1/7x7_s2
I0304 23:04:46.852519  2301 net.cpp:90] Creating Layer conv1/7x7_s2
I0304 23:04:46.852530  2301 net.cpp:410] conv1/7x7_s2 <- data
I0304 23:04:46.852573  2301 net.cpp:368] conv1/7x7_s2 -> conv1/7x7_s2
I0304 23:04:46.852593  2301 net.cpp:120] Setting up conv1/7x7_s2
I0304 23:04:46.878342  2303 video_data_layer.cpp:87] output data size: 32,20,224,224
I0304 23:04:46.883668  2305 net.cpp:127] Top shape: 32 20 224 224 (32112640)
I0304 23:04:46.883705  2305 net.cpp:127] Top shape: 32 1 1 1 (32)
I0304 23:04:46.883720  2305 layer_factory.hpp:74] Creating layer Gather_label
I0304 23:04:46.883736  2305 net.cpp:90] Creating Layer Gather_label
I0304 23:04:46.883747  2305 net.cpp:410] Gather_label <- label_single
I0304 23:04:46.883764  2305 net.cpp:368] Gather_label -> label
I0304 23:04:46.883777  2305 net.cpp:120] Setting up Gather_label
I0304 23:04:46.883787  2305 net.cpp:127] Top shape: 128 1 1 1 (128)
I0304 23:04:46.883792  2305 layer_factory.hpp:74] Creating layer label_Gather_label_0_split
I0304 23:04:46.883769  2302 net.cpp:127] Top shape: 32 20 224 224 (32112640)
I0304 23:04:46.883786  2302 net.cpp:127] Top shape: 32 1 1 1 (32)
I0304 23:04:46.883795  2302 layer_factory.hpp:74] Creating layer Gather_label
I0304 23:04:46.883802  2305 net.cpp:90] Creating Layer label_Gather_label_0_split
I0304 23:04:46.883807  2305 net.cpp:410] label_Gather_label_0_split <- label
I0304 23:04:46.883807  2302 net.cpp:90] Creating Layer Gather_label
I0304 23:04:46.883816  2302 net.cpp:410] Gather_label <- label_single
I0304 23:04:46.883815  2305 net.cpp:368] label_Gather_label_0_split -> label_Gather_label_0_split_0
I0304 23:04:46.883822  2305 net.cpp:368] label_Gather_label_0_split -> label_Gather_label_0_split_1
I0304 23:04:46.883831  2305 net.cpp:120] Setting up label_Gather_label_0_split
I0304 23:04:46.883828  2302 net.cpp:368] Gather_label -> label
I0304 23:04:46.883839  2302 net.cpp:120] Setting up Gather_label
I0304 23:04:46.883851  2302 net.cpp:127] Top shape: 128 1 1 1 (128)
I0304 23:04:46.883855  2302 layer_factory.hpp:74] Creating layer label_Gather_label_0_split
I0304 23:04:46.883839  2305 net.cpp:127] Top shape: 128 1 1 1 (128)
I0304 23:04:46.883846  2305 net.cpp:127] Top shape: 128 1 1 1 (128)
I0304 23:04:46.883851  2305 layer_factory.hpp:74] Creating layer conv1/7x7_s2
I0304 23:04:46.883865  2302 net.cpp:90] Creating Layer label_Gather_label_0_split
I0304 23:04:46.883872  2302 net.cpp:410] label_Gather_label_0_split <- label
I0304 23:04:46.883867  2305 net.cpp:90] Creating Layer conv1/7x7_s2
I0304 23:04:46.883878  2302 net.cpp:368] label_Gather_label_0_split -> label_Gather_label_0_split_0
I0304 23:04:46.883888  2302 net.cpp:368] label_Gather_label_0_split -> label_Gather_label_0_split_1
I0304 23:04:46.883896  2302 net.cpp:120] Setting up label_Gather_label_0_split
I0304 23:04:46.883905  2302 net.cpp:127] Top shape: 128 1 1 1 (128)
I0304 23:04:46.883913  2302 net.cpp:127] Top shape: 128 1 1 1 (128)
I0304 23:04:46.883918  2302 layer_factory.hpp:74] Creating layer conv1/7x7_s2
I0304 23:04:46.883872  2305 net.cpp:410] conv1/7x7_s2 <- data
I0304 23:04:46.883919  2305 net.cpp:368] conv1/7x7_s2 -> conv1/7x7_s2
I0304 23:04:46.883931  2302 net.cpp:90] Creating Layer conv1/7x7_s2
I0304 23:04:46.883935  2305 net.cpp:120] Setting up conv1/7x7_s2
I0304 23:04:46.883937  2302 net.cpp:410] conv1/7x7_s2 <- data
I0304 23:04:46.883967  2302 net.cpp:368] conv1/7x7_s2 -> conv1/7x7_s2
I0304 23:04:46.883980  2302 net.cpp:120] Setting up conv1/7x7_s2
I0304 23:04:47.092674  2303 net.cpp:127] Top shape: 32 20 224 224 (32112640)
I0304 23:04:47.092797  2303 net.cpp:127] Top shape: 32 1 1 1 (32)
I0304 23:04:47.092875  2303 layer_factory.hpp:74] Creating layer Gather_label
I0304 23:04:47.092949  2303 net.cpp:90] Creating Layer Gather_label
I0304 23:04:47.093022  2303 net.cpp:410] Gather_label <- label_single
I0304 23:04:47.093096  2303 net.cpp:368] Gather_label -> label
I0304 23:04:47.093165  2303 net.cpp:120] Setting up Gather_label
I0304 23:04:47.093236  2303 net.cpp:127] Top shape: 128 1 1 1 (128)
I0304 23:04:47.093292  2303 layer_factory.hpp:74] Creating layer label_Gather_label_0_split
I0304 23:04:47.093353  2303 net.cpp:90] Creating Layer label_Gather_label_0_split
I0304 23:04:47.093405  2303 net.cpp:410] label_Gather_label_0_split <- label
I0304 23:04:47.093459  2303 net.cpp:368] label_Gather_label_0_split -> label_Gather_label_0_split_0
I0304 23:04:47.093477  2303 net.cpp:368] label_Gather_label_0_split -> label_Gather_label_0_split_1
I0304 23:04:47.093490  2303 net.cpp:120] Setting up label_Gather_label_0_split
I0304 23:04:47.093505  2303 net.cpp:127] Top shape: 128 1 1 1 (128)
I0304 23:04:47.093515  2303 net.cpp:127] Top shape: 128 1 1 1 (128)
I0304 23:04:47.093523  2303 layer_factory.hpp:74] Creating layer conv1/7x7_s2
I0304 23:04:47.093544  2303 net.cpp:90] Creating Layer conv1/7x7_s2
I0304 23:04:47.093586  2303 net.cpp:410] conv1/7x7_s2 <- data
I0304 23:04:47.093662  2303 net.cpp:368] conv1/7x7_s2 -> conv1/7x7_s2
I0304 23:04:47.093710  2303 net.cpp:120] Setting up conv1/7x7_s2
I0304 23:04:47.324086  2305 cudnn_conv_data_layer.cpp:184] Reallocating workspace storage: 909720
I0304 23:04:47.324268  2305 net.cpp:127] Top shape: 32 64 112 112 (25690112)
I0304 23:04:47.324298  2305 layer_factory.hpp:74] Creating layer conv1/7x7_s2/bn
I0304 23:04:47.324321  2305 net.cpp:90] Creating Layer conv1/7x7_s2/bn
I0304 23:04:47.324329  2305 net.cpp:410] conv1/7x7_s2/bn <- conv1/7x7_s2
I0304 23:04:47.324342  2305 net.cpp:368] conv1/7x7_s2/bn -> conv1/7x7_s2/bn
I0304 23:04:47.324358  2305 net.cpp:120] Setting up conv1/7x7_s2/bn
I0304 23:04:47.326875  2301 cudnn_conv_data_layer.cpp:184] Reallocating workspace storage: 909720
I0304 23:04:47.327049  2301 net.cpp:127] Top shape: 32 64 112 112 (25690112)
I0304 23:04:47.327081  2301 layer_factory.hpp:74] Creating layer conv1/7x7_s2/bn
I0304 23:04:47.327111  2301 net.cpp:90] Creating Layer conv1/7x7_s2/bn
I0304 23:04:47.327126  2301 net.cpp:410] conv1/7x7_s2/bn <- conv1/7x7_s2
I0304 23:04:47.327138  2301 net.cpp:368] conv1/7x7_s2/bn -> conv1/7x7_s2/bn
I0304 23:04:47.327152  2301 net.cpp:120] Setting up conv1/7x7_s2/bn
I0304 23:04:47.327255  2301 bn_data_layer.cpp:60] scale: 1 1 1
I0304 23:04:47.327294  2301 bn_data_layer.cpp:71] shift: 0 0 0
I0304 23:04:47.327307  2301 bn_data_layer.cpp:80] mean: 0 0 0
I0304 23:04:47.327317  2301 bn_data_layer.cpp:89] variance: 0 0 0
I0304 23:04:47.327327  2301 net.cpp:127] Top shape: 32 64 112 112 (25690112)
I0304 23:04:47.327340  2301 layer_factory.hpp:74] Creating layer conv1/relu_7x7
I0304 23:04:47.327353  2301 net.cpp:90] Creating Layer conv1/relu_7x7
I0304 23:04:47.327358  2301 net.cpp:410] conv1/relu_7x7 <- conv1/7x7_s2/bn
I0304 23:04:47.327364  2301 net.cpp:357] conv1/relu_7x7 -> conv1/7x7_s2/bn (in-place)
I0304 23:04:47.327373  2301 net.cpp:120] Setting up conv1/relu_7x7
I0304 23:04:47.327792  2301 net.cpp:127] Top shape: 32 64 112 112 (25690112)
I0304 23:04:47.327808  2301 layer_factory.hpp:74] Creating layer pool1/3x3_s2
I0304 23:04:47.327824  2301 net.cpp:90] Creating Layer pool1/3x3_s2
I0304 23:04:47.327831  2301 net.cpp:410] pool1/3x3_s2 <- conv1/7x7_s2/bn
I0304 23:04:47.327838  2301 net.cpp:368] pool1/3x3_s2 -> pool1/3x3_s2
I0304 23:04:47.327847  2301 net.cpp:120] Setting up pool1/3x3_s2
I0304 23:04:47.328027  2301 net.cpp:127] Top shape: 32 64 56 56 (6422528)
I0304 23:04:47.328037  2301 layer_factory.hpp:74] Creating layer conv2/3x3_reduce
I0304 23:04:47.328050  2301 net.cpp:90] Creating Layer conv2/3x3_reduce
I0304 23:04:47.328057  2301 net.cpp:410] conv2/3x3_reduce <- pool1/3x3_s2
I0304 23:04:47.328063  2301 net.cpp:368] conv2/3x3_reduce -> conv2/3x3_reduce
I0304 23:04:47.328073  2301 net.cpp:120] Setting up conv2/3x3_reduce
I0304 23:04:47.339207  2302 cudnn_conv_data_layer.cpp:184] Reallocating workspace storage: 909720
I0304 23:04:47.339378  2302 net.cpp:127] Top shape: 32 64 112 112 (25690112)
I0304 23:04:47.339411  2302 layer_factory.hpp:74] Creating layer conv1/7x7_s2/bn
I0304 23:04:47.339444  2302 net.cpp:90] Creating Layer conv1/7x7_s2/bn
I0304 23:04:47.339455  2302 net.cpp:410] conv1/7x7_s2/bn <- conv1/7x7_s2
I0304 23:04:47.339468  2302 net.cpp:368] conv1/7x7_s2/bn -> conv1/7x7_s2/bn
I0304 23:04:47.339484  2302 net.cpp:120] Setting up conv1/7x7_s2/bn
I0304 23:04:47.339658  2305 bn_data_layer.cpp:60] scale: 1 1 1
I0304 23:04:47.339653  2302 bn_data_layer.cpp:60] scale: 1 1 1
I0304 23:04:47.339691  2302 bn_data_layer.cpp:71] shift: 0 0 0
I0304 23:04:47.339701  2305 bn_data_layer.cpp:71] shift: 0 0 0
I0304 23:04:47.339705  2302 bn_data_layer.cpp:80] mean: 0 0 0
I0304 23:04:47.339714  2305 bn_data_layer.cpp:80] mean: 0 0 0
I0304 23:04:47.339717  2302 bn_data_layer.cpp:89] variance: 0 0 0
I0304 23:04:47.339723  2305 bn_data_layer.cpp:89] variance: 0 0 0
I0304 23:04:47.339727  2302 net.cpp:127] Top shape: 32 64 112 112 (25690112)
I0304 23:04:47.339735  2305 net.cpp:127] Top shape: 32 64 112 112 (25690112)
I0304 23:04:47.339741  2302 layer_factory.hpp:74] Creating layer conv1/relu_7x7
I0304 23:04:47.339751  2305 layer_factory.hpp:74] Creating layer conv1/relu_7x7
I0304 23:04:47.339756  2302 net.cpp:90] Creating Layer conv1/relu_7x7
I0304 23:04:47.339761  2302 net.cpp:410] conv1/relu_7x7 <- conv1/7x7_s2/bn
I0304 23:04:47.339763  2305 net.cpp:90] Creating Layer conv1/relu_7x7
I0304 23:04:47.339769  2302 net.cpp:357] conv1/relu_7x7 -> conv1/7x7_s2/bn (in-place)
I0304 23:04:47.339771  2305 net.cpp:410] conv1/relu_7x7 <- conv1/7x7_s2/bn
I0304 23:04:47.339777  2305 net.cpp:357] conv1/relu_7x7 -> conv1/7x7_s2/bn (in-place)
I0304 23:04:47.339778  2302 net.cpp:120] Setting up conv1/relu_7x7
I0304 23:04:47.339787  2305 net.cpp:120] Setting up conv1/relu_7x7
I0304 23:04:47.340142  2302 net.cpp:127] Top shape: 32 64 112 112 (25690112)
I0304 23:04:47.340157  2302 layer_factory.hpp:74] Creating layer pool1/3x3_s2
I0304 23:04:47.340178  2302 net.cpp:90] Creating Layer pool1/3x3_s2
I0304 23:04:47.340184  2302 net.cpp:410] pool1/3x3_s2 <- conv1/7x7_s2/bn
I0304 23:04:47.340193  2302 net.cpp:368] pool1/3x3_s2 -> pool1/3x3_s2
I0304 23:04:47.340204  2302 net.cpp:120] Setting up pool1/3x3_s2
I0304 23:04:47.340236  2305 net.cpp:127] Top shape: 32 64 112 112 (25690112)
I0304 23:04:47.340253  2305 layer_factory.hpp:74] Creating layer pool1/3x3_s2
I0304 23:04:47.340272  2305 net.cpp:90] Creating Layer pool1/3x3_s2
I0304 23:04:47.340279  2305 net.cpp:410] pool1/3x3_s2 <- conv1/7x7_s2/bn
I0304 23:04:47.340287  2305 net.cpp:368] pool1/3x3_s2 -> pool1/3x3_s2
I0304 23:04:47.340297  2305 net.cpp:120] Setting up pool1/3x3_s2
I0304 23:04:47.340399  2302 net.cpp:127] Top shape: 32 64 56 56 (6422528)
I0304 23:04:47.340411  2302 layer_factory.hpp:74] Creating layer conv2/3x3_reduce
I0304 23:04:47.340425  2302 net.cpp:90] Creating Layer conv2/3x3_reduce
I0304 23:04:47.340430  2302 net.cpp:410] conv2/3x3_reduce <- pool1/3x3_s2
I0304 23:04:47.340438  2302 net.cpp:368] conv2/3x3_reduce -> conv2/3x3_reduce
I0304 23:04:47.340450  2302 net.cpp:120] Setting up conv2/3x3_reduce
I0304 23:04:47.340502  2305 net.cpp:127] Top shape: 32 64 56 56 (6422528)
I0304 23:04:47.340514  2305 layer_factory.hpp:74] Creating layer conv2/3x3_reduce
I0304 23:04:47.340528  2305 net.cpp:90] Creating Layer conv2/3x3_reduce
I0304 23:04:47.340533  2305 net.cpp:410] conv2/3x3_reduce <- pool1/3x3_s2
I0304 23:04:47.340541  2305 net.cpp:368] conv2/3x3_reduce -> conv2/3x3_reduce
I0304 23:04:47.340559  2305 net.cpp:120] Setting up conv2/3x3_reduce
I0304 23:04:47.341415  2305 cudnn_conv_data_layer.cpp:184] Reallocating workspace storage: 63000
I0304 23:04:47.341452  2305 net.cpp:127] Top shape: 32 64 56 56 (6422528)
I0304 23:04:47.341462  2305 layer_factory.hpp:74] Creating layer conv2/3x3_reduce/bn
I0304 23:04:47.341477  2305 net.cpp:90] Creating Layer conv2/3x3_reduce/bn
I0304 23:04:47.341483  2305 net.cpp:410] conv2/3x3_reduce/bn <- conv2/3x3_reduce
I0304 23:04:47.341495  2305 net.cpp:368] conv2/3x3_reduce/bn -> conv2/3x3_reduce/bn
I0304 23:04:47.341466  2301 cudnn_conv_data_layer.cpp:184] Reallocating workspace storage: 63000
I0304 23:04:47.341505  2305 net.cpp:120] Setting up conv2/3x3_reduce/bn
I0304 23:04:47.341505  2301 net.cpp:127] Top shape: 32 64 56 56 (6422528)
I0304 23:04:47.341518  2301 layer_factory.hpp:74] Creating layer conv2/3x3_reduce/bn
I0304 23:04:47.341536  2301 net.cpp:90] Creating Layer conv2/3x3_reduce/bn
I0304 23:04:47.341542  2301 net.cpp:410] conv2/3x3_reduce/bn <- conv2/3x3_reduce
I0304 23:04:47.341549  2301 net.cpp:368] conv2/3x3_reduce/bn -> conv2/3x3_reduce/bn
I0304 23:04:47.341559  2301 net.cpp:120] Setting up conv2/3x3_reduce/bn
I0304 23:04:47.341585  2301 bn_data_layer.cpp:60] scale: 1 1 1
I0304 23:04:47.341601  2301 bn_data_layer.cpp:71] shift: 0 0 0
I0304 23:04:47.341611  2301 bn_data_layer.cpp:80] mean: 0 0 0
I0304 23:04:47.341621  2301 bn_data_layer.cpp:89] variance: 0 0 0
I0304 23:04:47.341629  2301 net.cpp:127] Top shape: 32 64 56 56 (6422528)
I0304 23:04:47.341640  2301 layer_factory.hpp:74] Creating layer conv2/relu_3x3_reduce
I0304 23:04:47.341650  2301 net.cpp:90] Creating Layer conv2/relu_3x3_reduce
I0304 23:04:47.341655  2301 net.cpp:410] conv2/relu_3x3_reduce <- conv2/3x3_reduce/bn
I0304 23:04:47.341662  2301 net.cpp:357] conv2/relu_3x3_reduce -> conv2/3x3_reduce/bn (in-place)
I0304 23:04:47.341670  2301 net.cpp:120] Setting up conv2/relu_3x3_reduce
I0304 23:04:47.341941  2301 net.cpp:127] Top shape: 32 64 56 56 (6422528)
I0304 23:04:47.341967  2301 layer_factory.hpp:74] Creating layer conv2/3x3
I0304 23:04:47.341979  2301 net.cpp:90] Creating Layer conv2/3x3
I0304 23:04:47.341984  2301 net.cpp:410] conv2/3x3 <- conv2/3x3_reduce/bn
I0304 23:04:47.341991  2301 net.cpp:368] conv2/3x3 -> conv2/3x3
I0304 23:04:47.342000  2301 net.cpp:120] Setting up conv2/3x3
I0304 23:04:47.404222  2303 cudnn_conv_data_layer.cpp:184] Reallocating workspace storage: 909720
I0304 23:04:47.404405  2303 net.cpp:127] Top shape: 32 64 112 112 (25690112)
I0304 23:04:47.404438  2303 layer_factory.hpp:74] Creating layer conv1/7x7_s2/bn
I0304 23:04:47.404469  2303 net.cpp:90] Creating Layer conv1/7x7_s2/bn
I0304 23:04:47.404477  2303 net.cpp:410] conv1/7x7_s2/bn <- conv1/7x7_s2
I0304 23:04:47.404489  2303 net.cpp:368] conv1/7x7_s2/bn -> conv1/7x7_s2/bn
I0304 23:04:47.404506  2303 net.cpp:120] Setting up conv1/7x7_s2/bn
I0304 23:04:47.404629  2303 bn_data_layer.cpp:60] scale: 1 1 1
I0304 23:04:47.404669  2303 bn_data_layer.cpp:71] shift: 0 0 0
I0304 23:04:47.404681  2303 bn_data_layer.cpp:80] mean: 0 0 0
I0304 23:04:47.404692  2303 bn_data_layer.cpp:89] variance: 0 0 0
I0304 23:04:47.404703  2303 net.cpp:127] Top shape: 32 64 112 112 (25690112)
I0304 23:04:47.404717  2303 layer_factory.hpp:74] Creating layer conv1/relu_7x7
I0304 23:04:47.404732  2303 net.cpp:90] Creating Layer conv1/relu_7x7
I0304 23:04:47.404738  2303 net.cpp:410] conv1/relu_7x7 <- conv1/7x7_s2/bn
I0304 23:04:47.404745  2303 net.cpp:357] conv1/relu_7x7 -> conv1/7x7_s2/bn (in-place)
I0304 23:04:47.404754  2303 net.cpp:120] Setting up conv1/relu_7x7
I0304 23:04:47.405066  2303 net.cpp:127] Top shape: 32 64 112 112 (25690112)
I0304 23:04:47.405084  2303 layer_factory.hpp:74] Creating layer pool1/3x3_s2
I0304 23:04:47.405099  2303 net.cpp:90] Creating Layer pool1/3x3_s2
I0304 23:04:47.405105  2303 net.cpp:410] pool1/3x3_s2 <- conv1/7x7_s2/bn
I0304 23:04:47.405114  2303 net.cpp:368] pool1/3x3_s2 -> pool1/3x3_s2
I0304 23:04:47.405123  2303 net.cpp:120] Setting up pool1/3x3_s2
I0304 23:04:47.405308  2303 net.cpp:127] Top shape: 32 64 56 56 (6422528)
I0304 23:04:47.405320  2303 layer_factory.hpp:74] Creating layer conv2/3x3_reduce
I0304 23:04:47.405334  2303 net.cpp:90] Creating Layer conv2/3x3_reduce
I0304 23:04:47.405340  2303 net.cpp:410] conv2/3x3_reduce <- pool1/3x3_s2
I0304 23:04:47.405347  2303 net.cpp:368] conv2/3x3_reduce -> conv2/3x3_reduce
I0304 23:04:47.405359  2303 net.cpp:120] Setting up conv2/3x3_reduce
I0304 23:04:47.406230  2303 cudnn_conv_data_layer.cpp:184] Reallocating workspace storage: 63000
I0304 23:04:47.406260  2303 net.cpp:127] Top shape: 32 64 56 56 (6422528)
I0304 23:04:47.406272  2303 layer_factory.hpp:74] Creating layer conv2/3x3_reduce/bn
I0304 23:04:47.406286  2303 net.cpp:90] Creating Layer conv2/3x3_reduce/bn
I0304 23:04:47.406293  2303 net.cpp:410] conv2/3x3_reduce/bn <- conv2/3x3_reduce
I0304 23:04:47.406301  2303 net.cpp:368] conv2/3x3_reduce/bn -> conv2/3x3_reduce/bn
I0304 23:04:47.406311  2303 net.cpp:120] Setting up conv2/3x3_reduce/bn
I0304 23:04:47.406330  2302 cudnn_conv_data_layer.cpp:184] Reallocating workspace storage: 63000
I0304 23:04:47.406332  2303 bn_data_layer.cpp:60] scale: 1 1 1
I0304 23:04:47.406344  2303 bn_data_layer.cpp:71] shift: 0 0 0
I0304 23:04:47.406353  2303 bn_data_layer.cpp:80] mean: 0 0 0
I0304 23:04:47.406361  2303 bn_data_layer.cpp:89] variance: 0 0 0
I0304 23:04:47.406369  2303 net.cpp:127] Top shape: 32 64 56 56 (6422528)
I0304 23:04:47.406359  2302 net.cpp:127] Top shape: 32 64 56 56 (6422528)
I0304 23:04:47.406373  2302 layer_factory.hpp:74] Creating layer conv2/3x3_reduce/bn
I0304 23:04:47.406388  2302 net.cpp:90] Creating Layer conv2/3x3_reduce/bn
I0304 23:04:47.406394  2302 net.cpp:410] conv2/3x3_reduce/bn <- conv2/3x3_reduce
I0304 23:04:47.406401  2302 net.cpp:368] conv2/3x3_reduce/bn -> conv2/3x3_reduce/bn
I0304 23:04:47.406381  2303 layer_factory.hpp:74] Creating layer conv2/relu_3x3_reduce
I0304 23:04:47.406389  2303 net.cpp:90] Creating Layer conv2/relu_3x3_reduce
I0304 23:04:47.406394  2303 net.cpp:410] conv2/relu_3x3_reduce <- conv2/3x3_reduce/bn
I0304 23:04:47.406401  2303 net.cpp:357] conv2/relu_3x3_reduce -> conv2/3x3_reduce/bn (in-place)
I0304 23:04:47.406409  2303 net.cpp:120] Setting up conv2/relu_3x3_reduce
I0304 23:04:47.406412  2302 net.cpp:120] Setting up conv2/3x3_reduce/bn
I0304 23:04:47.406433  2302 bn_data_layer.cpp:60] scale: 1 1 1
I0304 23:04:47.406437  2305 bn_data_layer.cpp:60] scale: 1 1 1
I0304 23:04:47.406448  2302 bn_data_layer.cpp:71] shift: 0 0 0
I0304 23:04:47.406458  2302 bn_data_layer.cpp:80] mean: 0 0 0
I0304 23:04:47.406455  2305 bn_data_layer.cpp:71] shift: 0 0 0
I0304 23:04:47.406467  2305 bn_data_layer.cpp:80] mean: 0 0 0
I0304 23:04:47.406468  2302 bn_data_layer.cpp:89] variance: 0 0 0
I0304 23:04:47.406478  2302 net.cpp:127] Top shape: 32 64 56 56 (6422528)
I0304 23:04:47.406476  2305 bn_data_layer.cpp:89] variance: 0 0 0
I0304 23:04:47.406486  2305 net.cpp:127] Top shape: 32 64 56 56 (6422528)
I0304 23:04:47.406491  2302 layer_factory.hpp:74] Creating layer conv2/relu_3x3_reduce
I0304 23:04:47.406499  2302 net.cpp:90] Creating Layer conv2/relu_3x3_reduce
I0304 23:04:47.406502  2305 layer_factory.hpp:74] Creating layer conv2/relu_3x3_reduce
I0304 23:04:47.406510  2305 net.cpp:90] Creating Layer conv2/relu_3x3_reduce
I0304 23:04:47.406515  2305 net.cpp:410] conv2/relu_3x3_reduce <- conv2/3x3_reduce/bn
I0304 23:04:47.406505  2302 net.cpp:410] conv2/relu_3x3_reduce <- conv2/3x3_reduce/bn
I0304 23:04:47.406512  2302 net.cpp:357] conv2/relu_3x3_reduce -> conv2/3x3_reduce/bn (in-place)
I0304 23:04:47.406520  2302 net.cpp:120] Setting up conv2/relu_3x3_reduce
I0304 23:04:47.406522  2305 net.cpp:357] conv2/relu_3x3_reduce -> conv2/3x3_reduce/bn (in-place)
I0304 23:04:47.406529  2305 net.cpp:120] Setting up conv2/relu_3x3_reduce
I0304 23:04:47.406702  2303 net.cpp:127] Top shape: 32 64 56 56 (6422528)
I0304 23:04:47.406718  2303 layer_factory.hpp:74] Creating layer conv2/3x3
I0304 23:04:47.406729  2303 net.cpp:90] Creating Layer conv2/3x3
I0304 23:04:47.406734  2303 net.cpp:410] conv2/3x3 <- conv2/3x3_reduce/bn
I0304 23:04:47.406743  2303 net.cpp:368] conv2/3x3 -> conv2/3x3
I0304 23:04:47.406752  2303 net.cpp:120] Setting up conv2/3x3
I0304 23:04:47.406859  2302 net.cpp:127] Top shape: 32 64 56 56 (6422528)
I0304 23:04:47.406874  2302 layer_factory.hpp:74] Creating layer conv2/3x3
I0304 23:04:47.406885  2302 net.cpp:90] Creating Layer conv2/3x3
I0304 23:04:47.406891  2302 net.cpp:410] conv2/3x3 <- conv2/3x3_reduce/bn
I0304 23:04:47.406899  2302 net.cpp:368] conv2/3x3 -> conv2/3x3
I0304 23:04:47.406909  2302 net.cpp:120] Setting up conv2/3x3
I0304 23:04:47.406919  2305 net.cpp:127] Top shape: 32 64 56 56 (6422528)
I0304 23:04:47.406931  2305 layer_factory.hpp:74] Creating layer conv2/3x3
I0304 23:04:47.406941  2305 net.cpp:90] Creating Layer conv2/3x3
I0304 23:04:47.406947  2305 net.cpp:410] conv2/3x3 <- conv2/3x3_reduce/bn
I0304 23:04:47.406958  2305 net.cpp:368] conv2/3x3 -> conv2/3x3
I0304 23:04:47.406968  2305 net.cpp:120] Setting up conv2/3x3
I0304 23:04:47.408491  2302 cudnn_conv_data_layer.cpp:184] Reallocating workspace storage: 63000
I0304 23:04:47.408540  2302 net.cpp:127] Top shape: 32 192 56 56 (19267584)
I0304 23:04:47.408552  2302 layer_factory.hpp:74] Creating layer conv2/3x3/bn
I0304 23:04:47.408489  2305 cudnn_conv_data_layer.cpp:184] Reallocating workspace storage: 63000
I0304 23:04:47.408542  2305 net.cpp:127] Top shape: 32 192 56 56 (19267584)
I0304 23:04:47.408553  2305 layer_factory.hpp:74] Creating layer conv2/3x3/bn
I0304 23:04:47.408566  2302 net.cpp:90] Creating Layer conv2/3x3/bn
I0304 23:04:47.408571  2302 net.cpp:410] conv2/3x3/bn <- conv2/3x3
I0304 23:04:47.408565  2305 net.cpp:90] Creating Layer conv2/3x3/bn
I0304 23:04:47.408570  2305 net.cpp:410] conv2/3x3/bn <- conv2/3x3
I0304 23:04:47.408581  2305 net.cpp:368] conv2/3x3/bn -> conv2/3x3/bn
I0304 23:04:47.408591  2305 net.cpp:120] Setting up conv2/3x3/bn
I0304 23:04:47.408546  2301 cudnn_conv_data_layer.cpp:184] Reallocating workspace storage: 63000
I0304 23:04:47.408594  2301 net.cpp:127] Top shape: 32 192 56 56 (19267584)
I0304 23:04:47.408581  2302 net.cpp:368] conv2/3x3/bn -> conv2/3x3/bn
I0304 23:04:47.408591  2302 net.cpp:120] Setting up conv2/3x3/bn
I0304 23:04:47.408606  2301 layer_factory.hpp:74] Creating layer conv2/3x3/bn
I0304 23:04:47.408627  2301 net.cpp:90] Creating Layer conv2/3x3/bn
I0304 23:04:47.408639  2301 net.cpp:410] conv2/3x3/bn <- conv2/3x3
I0304 23:04:47.408648  2301 net.cpp:368] conv2/3x3/bn -> conv2/3x3/bn
I0304 23:04:47.408658  2301 net.cpp:120] Setting up conv2/3x3/bn
I0304 23:04:47.408648  2303 cudnn_conv_data_layer.cpp:184] Reallocating workspace storage: 63000
I0304 23:04:47.408687  2301 bn_data_layer.cpp:60] scale: 1 1 1
I0304 23:04:47.408691  2303 net.cpp:127] Top shape: 32 192 56 56 (19267584)
I0304 23:04:47.408701  2303 layer_factory.hpp:74] Creating layer conv2/3x3/bn
I0304 23:04:47.408692  2305 bn_data_layer.cpp:60] scale: 1 1 1
I0304 23:04:47.408696  2302 bn_data_layer.cpp:60] scale: 1 1 1
I0304 23:04:47.408713  2302 bn_data_layer.cpp:71] shift: 0 0 0
I0304 23:04:47.408704  2301 bn_data_layer.cpp:71] shift: 0 0 0
I0304 23:04:47.408715  2301 bn_data_layer.cpp:80] mean: 0 0 0
I0304 23:04:47.408726  2302 bn_data_layer.cpp:80] mean: 0 0 0
I0304 23:04:47.408737  2302 bn_data_layer.cpp:89] variance: 0 0 0
I0304 23:04:47.408725  2301 bn_data_layer.cpp:89] variance: 0 0 0
I0304 23:04:47.408732  2301 net.cpp:127] Top shape: 32 192 56 56 (19267584)
I0304 23:04:47.408715  2303 net.cpp:90] Creating Layer conv2/3x3/bn
I0304 23:04:47.408721  2303 net.cpp:410] conv2/3x3/bn <- conv2/3x3
I0304 23:04:47.408731  2303 net.cpp:368] conv2/3x3/bn -> conv2/3x3/bn
I0304 23:04:47.408741  2303 net.cpp:120] Setting up conv2/3x3/bn
I0304 23:04:47.408716  2305 bn_data_layer.cpp:71] shift: 0 0 0
I0304 23:04:47.408726  2305 bn_data_layer.cpp:80] mean: 0 0 0
I0304 23:04:47.408737  2305 bn_data_layer.cpp:89] variance: 0 0 0
I0304 23:04:47.408746  2305 net.cpp:127] Top shape: 32 192 56 56 (19267584)
I0304 23:04:47.408745  2301 layer_factory.hpp:74] Creating layer conv2/relu_3x3
I0304 23:04:47.408752  2301 net.cpp:90] Creating Layer conv2/relu_3x3
I0304 23:04:47.408757  2301 net.cpp:410] conv2/relu_3x3 <- conv2/3x3/bn
I0304 23:04:47.408746  2302 net.cpp:127] Top shape: 32 192 56 56 (19267584)
I0304 23:04:47.408758  2302 layer_factory.hpp:74] Creating layer conv2/relu_3x3
I0304 23:04:47.408766  2302 net.cpp:90] Creating Layer conv2/relu_3x3
I0304 23:04:47.408772  2302 net.cpp:410] conv2/relu_3x3 <- conv2/3x3/bn
I0304 23:04:47.408778  2302 net.cpp:357] conv2/relu_3x3 -> conv2/3x3/bn (in-place)
I0304 23:04:47.408787  2302 net.cpp:120] Setting up conv2/relu_3x3
I0304 23:04:47.408757  2305 layer_factory.hpp:74] Creating layer conv2/relu_3x3
I0304 23:04:47.408766  2305 net.cpp:90] Creating Layer conv2/relu_3x3
I0304 23:04:47.408771  2305 net.cpp:410] conv2/relu_3x3 <- conv2/3x3/bn
I0304 23:04:47.408779  2305 net.cpp:357] conv2/relu_3x3 -> conv2/3x3/bn (in-place)
I0304 23:04:47.408787  2305 net.cpp:120] Setting up conv2/relu_3x3
I0304 23:04:47.408769  2303 bn_data_layer.cpp:60] scale: 1 1 1
I0304 23:04:47.408785  2303 bn_data_layer.cpp:71] shift: 0 0 0
I0304 23:04:47.408764  2301 net.cpp:357] conv2/relu_3x3 -> conv2/3x3/bn (in-place)
I0304 23:04:47.408771  2301 net.cpp:120] Setting up conv2/relu_3x3
I0304 23:04:47.408794  2303 bn_data_layer.cpp:80] mean: 0 0 0
I0304 23:04:47.408804  2303 bn_data_layer.cpp:89] variance: 0 0 0
I0304 23:04:47.408813  2303 net.cpp:127] Top shape: 32 192 56 56 (19267584)
I0304 23:04:47.408828  2303 layer_factory.hpp:74] Creating layer conv2/relu_3x3
I0304 23:04:47.408836  2303 net.cpp:90] Creating Layer conv2/relu_3x3
I0304 23:04:47.408841  2303 net.cpp:410] conv2/relu_3x3 <- conv2/3x3/bn
I0304 23:04:47.408851  2303 net.cpp:357] conv2/relu_3x3 -> conv2/3x3/bn (in-place)
I0304 23:04:47.408859  2303 net.cpp:120] Setting up conv2/relu_3x3
I0304 23:04:47.409152  2301 net.cpp:127] Top shape: 32 192 56 56 (19267584)
I0304 23:04:47.409165  2301 layer_factory.hpp:74] Creating layer pool2/3x3_s2
I0304 23:04:47.409178  2301 net.cpp:90] Creating Layer pool2/3x3_s2
I0304 23:04:47.409183  2301 net.cpp:410] pool2/3x3_s2 <- conv2/3x3/bn
I0304 23:04:47.409190  2301 net.cpp:368] pool2/3x3_s2 -> pool2/3x3_s2
I0304 23:04:47.409198  2301 net.cpp:120] Setting up pool2/3x3_s2
I0304 23:04:47.409270  2302 net.cpp:127] Top shape: 32 192 56 56 (19267584)
I0304 23:04:47.409286  2302 layer_factory.hpp:74] Creating layer pool2/3x3_s2
I0304 23:04:47.409296  2302 net.cpp:90] Creating Layer pool2/3x3_s2
I0304 23:04:47.409301  2302 net.cpp:410] pool2/3x3_s2 <- conv2/3x3/bn
I0304 23:04:47.409312  2302 net.cpp:368] pool2/3x3_s2 -> pool2/3x3_s2
I0304 23:04:47.409319  2302 net.cpp:120] Setting up pool2/3x3_s2
I0304 23:04:47.409314  2305 net.cpp:127] Top shape: 32 192 56 56 (19267584)
I0304 23:04:47.409327  2305 layer_factory.hpp:74] Creating layer pool2/3x3_s2
I0304 23:04:47.409338  2305 net.cpp:90] Creating Layer pool2/3x3_s2
I0304 23:04:47.409345  2305 net.cpp:410] pool2/3x3_s2 <- conv2/3x3/bn
I0304 23:04:47.409353  2305 net.cpp:368] pool2/3x3_s2 -> pool2/3x3_s2
I0304 23:04:47.409361  2305 net.cpp:120] Setting up pool2/3x3_s2
I0304 23:04:47.409358  2301 net.cpp:127] Top shape: 32 192 28 28 (4816896)
I0304 23:04:47.409368  2301 layer_factory.hpp:74] Creating layer pool2/3x3_s2_pool2/3x3_s2_0_split
I0304 23:04:47.409378  2301 net.cpp:90] Creating Layer pool2/3x3_s2_pool2/3x3_s2_0_split
I0304 23:04:47.409382  2301 net.cpp:410] pool2/3x3_s2_pool2/3x3_s2_0_split <- pool2/3x3_s2
I0304 23:04:47.409389  2301 net.cpp:368] pool2/3x3_s2_pool2/3x3_s2_0_split -> pool2/3x3_s2_pool2/3x3_s2_0_split_0
I0304 23:04:47.409397  2301 net.cpp:368] pool2/3x3_s2_pool2/3x3_s2_0_split -> pool2/3x3_s2_pool2/3x3_s2_0_split_1
I0304 23:04:47.409371  2303 net.cpp:127] Top shape: 32 192 56 56 (19267584)
I0304 23:04:47.409386  2303 layer_factory.hpp:74] Creating layer pool2/3x3_s2
I0304 23:04:47.409396  2303 net.cpp:90] Creating Layer pool2/3x3_s2
I0304 23:04:47.409402  2303 net.cpp:410] pool2/3x3_s2 <- conv2/3x3/bn
I0304 23:04:47.409411  2303 net.cpp:368] pool2/3x3_s2 -> pool2/3x3_s2
I0304 23:04:47.409405  2301 net.cpp:368] pool2/3x3_s2_pool2/3x3_s2_0_split -> pool2/3x3_s2_pool2/3x3_s2_0_split_2
I0304 23:04:47.409414  2301 net.cpp:368] pool2/3x3_s2_pool2/3x3_s2_0_split -> pool2/3x3_s2_pool2/3x3_s2_0_split_3
I0304 23:04:47.409421  2301 net.cpp:120] Setting up pool2/3x3_s2_pool2/3x3_s2_0_split
I0304 23:04:47.409432  2301 net.cpp:127] Top shape: 32 192 28 28 (4816896)
I0304 23:04:47.409437  2301 net.cpp:127] Top shape: 32 192 28 28 (4816896)
I0304 23:04:47.409442  2301 net.cpp:127] Top shape: 32 192 28 28 (4816896)
I0304 23:04:47.409421  2303 net.cpp:120] Setting up pool2/3x3_s2
I0304 23:04:47.409448  2301 net.cpp:127] Top shape: 32 192 28 28 (4816896)
I0304 23:04:47.409453  2301 layer_factory.hpp:74] Creating layer inception_3a/1x1
I0304 23:04:47.409464  2301 net.cpp:90] Creating Layer inception_3a/1x1
I0304 23:04:47.409469  2301 net.cpp:410] inception_3a/1x1 <- pool2/3x3_s2_pool2/3x3_s2_0_split_0
I0304 23:04:47.409477  2301 net.cpp:368] inception_3a/1x1 -> inception_3a/1x1
I0304 23:04:47.409484  2301 net.cpp:120] Setting up inception_3a/1x1
I0304 23:04:47.409502  2302 net.cpp:127] Top shape: 32 192 28 28 (4816896)
I0304 23:04:47.409513  2302 layer_factory.hpp:74] Creating layer pool2/3x3_s2_pool2/3x3_s2_0_split
I0304 23:04:47.409523  2302 net.cpp:90] Creating Layer pool2/3x3_s2_pool2/3x3_s2_0_split
I0304 23:04:47.409528  2302 net.cpp:410] pool2/3x3_s2_pool2/3x3_s2_0_split <- pool2/3x3_s2
I0304 23:04:47.409535  2302 net.cpp:368] pool2/3x3_s2_pool2/3x3_s2_0_split -> pool2/3x3_s2_pool2/3x3_s2_0_split_0
I0304 23:04:47.409543  2302 net.cpp:368] pool2/3x3_s2_pool2/3x3_s2_0_split -> pool2/3x3_s2_pool2/3x3_s2_0_split_1
I0304 23:04:47.409551  2302 net.cpp:368] pool2/3x3_s2_pool2/3x3_s2_0_split -> pool2/3x3_s2_pool2/3x3_s2_0_split_2
I0304 23:04:47.409561  2302 net.cpp:368] pool2/3x3_s2_pool2/3x3_s2_0_split -> pool2/3x3_s2_pool2/3x3_s2_0_split_3
I0304 23:04:47.409550  2305 net.cpp:127] Top shape: 32 192 28 28 (4816896)
I0304 23:04:47.409559  2305 layer_factory.hpp:74] Creating layer pool2/3x3_s2_pool2/3x3_s2_0_split
I0304 23:04:47.409569  2305 net.cpp:90] Creating Layer pool2/3x3_s2_pool2/3x3_s2_0_split
I0304 23:04:47.409574  2305 net.cpp:410] pool2/3x3_s2_pool2/3x3_s2_0_split <- pool2/3x3_s2
I0304 23:04:47.409584  2305 net.cpp:368] pool2/3x3_s2_pool2/3x3_s2_0_split -> pool2/3x3_s2_pool2/3x3_s2_0_split_0
I0304 23:04:47.409592  2305 net.cpp:368] pool2/3x3_s2_pool2/3x3_s2_0_split -> pool2/3x3_s2_pool2/3x3_s2_0_split_1
I0304 23:04:47.409569  2302 net.cpp:120] Setting up pool2/3x3_s2_pool2/3x3_s2_0_split
I0304 23:04:47.409579  2302 net.cpp:127] Top shape: 32 192 28 28 (4816896)
I0304 23:04:47.409584  2302 net.cpp:127] Top shape: 32 192 28 28 (4816896)
I0304 23:04:47.409590  2302 net.cpp:127] Top shape: 32 192 28 28 (4816896)
I0304 23:04:47.409600  2305 net.cpp:368] pool2/3x3_s2_pool2/3x3_s2_0_split -> pool2/3x3_s2_pool2/3x3_s2_0_split_2
I0304 23:04:47.409596  2302 net.cpp:127] Top shape: 32 192 28 28 (4816896)
I0304 23:04:47.409601  2302 layer_factory.hpp:74] Creating layer inception_3a/1x1
I0304 23:04:47.409608  2305 net.cpp:368] pool2/3x3_s2_pool2/3x3_s2_0_split -> pool2/3x3_s2_pool2/3x3_s2_0_split_3
I0304 23:04:47.409616  2305 net.cpp:120] Setting up pool2/3x3_s2_pool2/3x3_s2_0_split
I0304 23:04:47.409608  2303 net.cpp:127] Top shape: 32 192 28 28 (4816896)
I0304 23:04:47.409620  2303 layer_factory.hpp:74] Creating layer pool2/3x3_s2_pool2/3x3_s2_0_split
I0304 23:04:47.409613  2302 net.cpp:90] Creating Layer inception_3a/1x1
I0304 23:04:47.409618  2302 net.cpp:410] inception_3a/1x1 <- pool2/3x3_s2_pool2/3x3_s2_0_split_0
I0304 23:04:47.409626  2302 net.cpp:368] inception_3a/1x1 -> inception_3a/1x1
I0304 23:04:47.409627  2305 net.cpp:127] Top shape: 32 192 28 28 (4816896)
I0304 23:04:47.409633  2305 net.cpp:127] Top shape: 32 192 28 28 (4816896)
I0304 23:04:47.409639  2305 net.cpp:127] Top shape: 32 192 28 28 (4816896)
I0304 23:04:47.409633  2302 net.cpp:120] Setting up inception_3a/1x1
I0304 23:04:47.409631  2303 net.cpp:90] Creating Layer pool2/3x3_s2_pool2/3x3_s2_0_split
I0304 23:04:47.409636  2303 net.cpp:410] pool2/3x3_s2_pool2/3x3_s2_0_split <- pool2/3x3_s2
I0304 23:04:47.409643  2303 net.cpp:368] pool2/3x3_s2_pool2/3x3_s2_0_split -> pool2/3x3_s2_pool2/3x3_s2_0_split_0
I0304 23:04:47.409654  2303 net.cpp:368] pool2/3x3_s2_pool2/3x3_s2_0_split -> pool2/3x3_s2_pool2/3x3_s2_0_split_1
I0304 23:04:47.409663  2303 net.cpp:368] pool2/3x3_s2_pool2/3x3_s2_0_split -> pool2/3x3_s2_pool2/3x3_s2_0_split_2
I0304 23:04:47.409646  2305 net.cpp:127] Top shape: 32 192 28 28 (4816896)
I0304 23:04:47.409651  2305 layer_factory.hpp:74] Creating layer inception_3a/1x1
I0304 23:04:47.409659  2305 net.cpp:90] Creating Layer inception_3a/1x1
I0304 23:04:47.409665  2305 net.cpp:410] inception_3a/1x1 <- pool2/3x3_s2_pool2/3x3_s2_0_split_0
I0304 23:04:47.409675  2305 net.cpp:368] inception_3a/1x1 -> inception_3a/1x1
I0304 23:04:47.409683  2305 net.cpp:120] Setting up inception_3a/1x1
I0304 23:04:47.409672  2303 net.cpp:368] pool2/3x3_s2_pool2/3x3_s2_0_split -> pool2/3x3_s2_pool2/3x3_s2_0_split_3
I0304 23:04:47.409679  2303 net.cpp:120] Setting up pool2/3x3_s2_pool2/3x3_s2_0_split
I0304 23:04:47.409688  2303 net.cpp:127] Top shape: 32 192 28 28 (4816896)
I0304 23:04:47.409694  2303 net.cpp:127] Top shape: 32 192 28 28 (4816896)
I0304 23:04:47.409700  2303 net.cpp:127] Top shape: 32 192 28 28 (4816896)
I0304 23:04:47.409706  2303 net.cpp:127] Top shape: 32 192 28 28 (4816896)
I0304 23:04:47.409711  2303 layer_factory.hpp:74] Creating layer inception_3a/1x1
I0304 23:04:47.409723  2303 net.cpp:90] Creating Layer inception_3a/1x1
I0304 23:04:47.409728  2303 net.cpp:410] inception_3a/1x1 <- pool2/3x3_s2_pool2/3x3_s2_0_split_0
I0304 23:04:47.409737  2303 net.cpp:368] inception_3a/1x1 -> inception_3a/1x1
I0304 23:04:47.409745  2303 net.cpp:120] Setting up inception_3a/1x1
I0304 23:04:47.410495  2301 cudnn_conv_data_layer.cpp:184] Reallocating workspace storage: 20664
I0304 23:04:47.410534  2301 net.cpp:127] Top shape: 32 64 28 28 (1605632)
I0304 23:04:47.410543  2301 layer_factory.hpp:74] Creating layer inception_3a/1x1/bn
I0304 23:04:47.410558  2301 net.cpp:90] Creating Layer inception_3a/1x1/bn
I0304 23:04:47.410564  2301 net.cpp:410] inception_3a/1x1/bn <- inception_3a/1x1
I0304 23:04:47.410573  2301 net.cpp:368] inception_3a/1x1/bn -> inception_3a/1x1/bn
I0304 23:04:47.410581  2301 net.cpp:120] Setting up inception_3a/1x1/bn
I0304 23:04:47.410601  2301 bn_data_layer.cpp:60] scale: 1 1 1
I0304 23:04:47.410615  2301 bn_data_layer.cpp:71] shift: 0 0 0
I0304 23:04:47.410625  2301 bn_data_layer.cpp:80] mean: 0 0 0
I0304 23:04:47.410635  2301 bn_data_layer.cpp:89] variance: 0 0 0
I0304 23:04:47.410645  2301 net.cpp:127] Top shape: 32 64 28 28 (1605632)
I0304 23:04:47.410655  2301 layer_factory.hpp:74] Creating layer inception_3a/relu_1x1
I0304 23:04:47.410676  2301 net.cpp:90] Creating Layer inception_3a/relu_1x1
I0304 23:04:47.410682  2301 net.cpp:410] inception_3a/relu_1x1 <- inception_3a/1x1/bn
I0304 23:04:47.410691  2301 net.cpp:357] inception_3a/relu_1x1 -> inception_3a/1x1/bn (in-place)
I0304 23:04:47.410697  2301 net.cpp:120] Setting up inception_3a/relu_1x1
I0304 23:04:47.410843  2305 cudnn_conv_data_layer.cpp:184] Reallocating workspace storage: 20664
I0304 23:04:47.410878  2305 net.cpp:127] Top shape: 32 64 28 28 (1605632)
I0304 23:04:47.410889  2305 layer_factory.hpp:74] Creating layer inception_3a/1x1/bn
I0304 23:04:47.410903  2305 net.cpp:90] Creating Layer inception_3a/1x1/bn
I0304 23:04:47.410909  2305 net.cpp:410] inception_3a/1x1/bn <- inception_3a/1x1
I0304 23:04:47.410919  2305 net.cpp:368] inception_3a/1x1/bn -> inception_3a/1x1/bn
I0304 23:04:47.410930  2305 net.cpp:120] Setting up inception_3a/1x1/bn
I0304 23:04:47.410941  2302 cudnn_conv_data_layer.cpp:184] Reallocating workspace storage: 20664
I0304 23:04:47.410969  2302 net.cpp:127] Top shape: 32 64 28 28 (1605632)
I0304 23:04:47.410980  2302 layer_factory.hpp:74] Creating layer inception_3a/1x1/bn
I0304 23:04:47.410971  2301 net.cpp:127] Top shape: 32 64 28 28 (1605632)
I0304 23:04:47.410984  2301 layer_factory.hpp:74] Creating layer inception_3a/3x3_reduce
I0304 23:04:47.410982  2303 cudnn_conv_data_layer.cpp:184] Reallocating workspace storage: 20664
I0304 23:04:47.410996  2301 net.cpp:90] Creating Layer inception_3a/3x3_reduce
I0304 23:04:47.410995  2302 net.cpp:90] Creating Layer inception_3a/1x1/bn
I0304 23:04:47.411000  2302 net.cpp:410] inception_3a/1x1/bn <- inception_3a/1x1
I0304 23:04:47.411002  2301 net.cpp:410] inception_3a/3x3_reduce <- pool2/3x3_s2_pool2/3x3_s2_0_split_1
I0304 23:04:47.411013  2302 net.cpp:368] inception_3a/1x1/bn -> inception_3a/1x1/bn
I0304 23:04:47.411023  2302 net.cpp:120] Setting up inception_3a/1x1/bn
I0304 23:04:47.411016  2303 net.cpp:127] Top shape: 32 64 28 28 (1605632)
I0304 23:04:47.411026  2303 layer_factory.hpp:74] Creating layer inception_3a/1x1/bn
I0304 23:04:47.411020  2301 net.cpp:368] inception_3a/3x3_reduce -> inception_3a/3x3_reduce
I0304 23:04:47.411031  2301 net.cpp:120] Setting up inception_3a/3x3_reduce
I0304 23:04:47.411047  2305 bn_data_layer.cpp:60] scale: 1 1 1
I0304 23:04:47.411067  2305 bn_data_layer.cpp:71] shift: 0 0 0
I0304 23:04:47.411078  2305 bn_data_layer.cpp:80] mean: 0 0 0
I0304 23:04:47.411099  2305 bn_data_layer.cpp:89] variance: 0 0 0
I0304 23:04:47.411108  2305 net.cpp:127] Top shape: 32 64 28 28 (1605632)
I0304 23:04:47.411047  2302 bn_data_layer.cpp:60] scale: 1 1 1
I0304 23:04:47.411065  2302 bn_data_layer.cpp:71] shift: 0 0 0
I0304 23:04:47.411078  2302 bn_data_layer.cpp:80] mean: 0 0 0
I0304 23:04:47.411099  2302 bn_data_layer.cpp:89] variance: 0 0 0
I0304 23:04:47.411109  2302 net.cpp:127] Top shape: 32 64 28 28 (1605632)
I0304 23:04:47.411044  2303 net.cpp:90] Creating Layer inception_3a/1x1/bn
I0304 23:04:47.411062  2303 net.cpp:410] inception_3a/1x1/bn <- inception_3a/1x1
I0304 23:04:47.411070  2303 net.cpp:368] inception_3a/1x1/bn -> inception_3a/1x1/bn
I0304 23:04:47.411082  2303 net.cpp:120] Setting up inception_3a/1x1/bn
I0304 23:04:47.411111  2303 bn_data_layer.cpp:60] scale: 1 1 1
I0304 23:04:47.411124  2303 bn_data_layer.cpp:71] shift: 0 0 0
I0304 23:04:47.411136  2303 bn_data_layer.cpp:80] mean: 0 0 0
I0304 23:04:47.411145  2303 bn_data_layer.cpp:89] variance: 0 0 0
I0304 23:04:47.411123  2305 layer_factory.hpp:74] Creating layer inception_3a/relu_1x1
I0304 23:04:47.411147  2305 net.cpp:90] Creating Layer inception_3a/relu_1x1
I0304 23:04:47.411121  2302 layer_factory.hpp:74] Creating layer inception_3a/relu_1x1
I0304 23:04:47.411149  2302 net.cpp:90] Creating Layer inception_3a/relu_1x1
I0304 23:04:47.411154  2302 net.cpp:410] inception_3a/relu_1x1 <- inception_3a/1x1/bn
I0304 23:04:47.411162  2302 net.cpp:357] inception_3a/relu_1x1 -> inception_3a/1x1/bn (in-place)
I0304 23:04:47.411170  2302 net.cpp:120] Setting up inception_3a/relu_1x1
I0304 23:04:47.411154  2303 net.cpp:127] Top shape: 32 64 28 28 (1605632)
I0304 23:04:47.411170  2303 layer_factory.hpp:74] Creating layer inception_3a/relu_1x1
I0304 23:04:47.411154  2305 net.cpp:410] inception_3a/relu_1x1 <- inception_3a/1x1/bn
I0304 23:04:47.411164  2305 net.cpp:357] inception_3a/relu_1x1 -> inception_3a/1x1/bn (in-place)
I0304 23:04:47.411171  2305 net.cpp:120] Setting up inception_3a/relu_1x1
I0304 23:04:47.411193  2303 net.cpp:90] Creating Layer inception_3a/relu_1x1
I0304 23:04:47.411201  2303 net.cpp:410] inception_3a/relu_1x1 <- inception_3a/1x1/bn
I0304 23:04:47.411206  2303 net.cpp:357] inception_3a/relu_1x1 -> inception_3a/1x1/bn (in-place)
I0304 23:04:47.411214  2303 net.cpp:120] Setting up inception_3a/relu_1x1
I0304 23:04:47.411587  2302 net.cpp:127] Top shape: 32 64 28 28 (1605632)
I0304 23:04:47.411602  2302 layer_factory.hpp:74] Creating layer inception_3a/3x3_reduce
I0304 23:04:47.411619  2302 net.cpp:90] Creating Layer inception_3a/3x3_reduce
I0304 23:04:47.411625  2302 net.cpp:410] inception_3a/3x3_reduce <- pool2/3x3_s2_pool2/3x3_s2_0_split_1
I0304 23:04:47.411635  2302 net.cpp:368] inception_3a/3x3_reduce -> inception_3a/3x3_reduce
I0304 23:04:47.411646  2302 net.cpp:120] Setting up inception_3a/3x3_reduce
I0304 23:04:47.411638  2305 net.cpp:127] Top shape: 32 64 28 28 (1605632)
I0304 23:04:47.411650  2305 layer_factory.hpp:74] Creating layer inception_3a/3x3_reduce
I0304 23:04:47.411662  2305 net.cpp:90] Creating Layer inception_3a/3x3_reduce
I0304 23:04:47.411669  2305 net.cpp:410] inception_3a/3x3_reduce <- pool2/3x3_s2_pool2/3x3_s2_0_split_1
I0304 23:04:47.411676  2305 net.cpp:368] inception_3a/3x3_reduce -> inception_3a/3x3_reduce
I0304 23:04:47.411686  2305 net.cpp:120] Setting up inception_3a/3x3_reduce
I0304 23:04:47.411691  2303 net.cpp:127] Top shape: 32 64 28 28 (1605632)
I0304 23:04:47.411703  2303 layer_factory.hpp:74] Creating layer inception_3a/3x3_reduce
I0304 23:04:47.411715  2303 net.cpp:90] Creating Layer inception_3a/3x3_reduce
I0304 23:04:47.411720  2303 net.cpp:410] inception_3a/3x3_reduce <- pool2/3x3_s2_pool2/3x3_s2_0_split_1
I0304 23:04:47.411731  2303 net.cpp:368] inception_3a/3x3_reduce -> inception_3a/3x3_reduce
I0304 23:04:47.411741  2303 net.cpp:120] Setting up inception_3a/3x3_reduce
I0304 23:04:47.412513  2301 cudnn_conv_data_layer.cpp:184] Reallocating workspace storage: 20664
I0304 23:04:47.412550  2301 net.cpp:127] Top shape: 32 64 28 28 (1605632)
I0304 23:04:47.412561  2301 layer_factory.hpp:74] Creating layer inception_3a/3x3_reduce/bn
I0304 23:04:47.412572  2301 net.cpp:90] Creating Layer inception_3a/3x3_reduce/bn
I0304 23:04:47.412578  2301 net.cpp:410] inception_3a/3x3_reduce/bn <- inception_3a/3x3_reduce
I0304 23:04:47.412587  2301 net.cpp:368] inception_3a/3x3_reduce/bn -> inception_3a/3x3_reduce/bn
I0304 23:04:47.412596  2301 net.cpp:120] Setting up inception_3a/3x3_reduce/bn
I0304 23:04:47.412633  2301 bn_data_layer.cpp:60] scale: 1 1 1
I0304 23:04:47.412655  2301 bn_data_layer.cpp:71] shift: 0 0 0
I0304 23:04:47.412667  2301 bn_data_layer.cpp:80] mean: 0 0 0
I0304 23:04:47.412678  2301 bn_data_layer.cpp:89] variance: 0 0 0
I0304 23:04:47.412685  2301 net.cpp:127] Top shape: 32 64 28 28 (1605632)
I0304 23:04:47.412695  2301 layer_factory.hpp:74] Creating layer inception_3a/relu_3x3_reduce
I0304 23:04:47.412704  2301 net.cpp:90] Creating Layer inception_3a/relu_3x3_reduce
I0304 23:04:47.412709  2301 net.cpp:410] inception_3a/relu_3x3_reduce <- inception_3a/3x3_reduce/bn
I0304 23:04:47.412716  2301 net.cpp:357] inception_3a/relu_3x3_reduce -> inception_3a/3x3_reduce/bn (in-place)
I0304 23:04:47.412724  2301 net.cpp:120] Setting up inception_3a/relu_3x3_reduce
I0304 23:04:47.412742  2305 cudnn_conv_data_layer.cpp:184] Reallocating workspace storage: 20664
I0304 23:04:47.412793  2305 net.cpp:127] Top shape: 32 64 28 28 (1605632)
I0304 23:04:47.412803  2305 layer_factory.hpp:74] Creating layer inception_3a/3x3_reduce/bn
I0304 23:04:47.412817  2305 net.cpp:90] Creating Layer inception_3a/3x3_reduce/bn
I0304 23:04:47.412822  2305 net.cpp:410] inception_3a/3x3_reduce/bn <- inception_3a/3x3_reduce
I0304 23:04:47.412832  2305 net.cpp:368] inception_3a/3x3_reduce/bn -> inception_3a/3x3_reduce/bn
I0304 23:04:47.412843  2305 net.cpp:120] Setting up inception_3a/3x3_reduce/bn
I0304 23:04:47.412894  2301 net.cpp:127] Top shape: 32 64 28 28 (1605632)
I0304 23:04:47.412906  2301 layer_factory.hpp:74] Creating layer inception_3a/3x3
I0304 23:04:47.412916  2301 net.cpp:90] Creating Layer inception_3a/3x3
I0304 23:04:47.412921  2301 net.cpp:410] inception_3a/3x3 <- inception_3a/3x3_reduce/bn
I0304 23:04:47.412930  2301 net.cpp:368] inception_3a/3x3 -> inception_3a/3x3
I0304 23:04:47.412897  2303 cudnn_conv_data_layer.cpp:184] Reallocating workspace storage: 20664
I0304 23:04:47.412925  2303 net.cpp:127] Top shape: 32 64 28 28 (1605632)
I0304 23:04:47.412938  2303 layer_factory.hpp:74] Creating layer inception_3a/3x3_reduce/bn
I0304 23:04:47.412938  2301 net.cpp:120] Setting up inception_3a/3x3
I0304 23:04:47.412947  2302 cudnn_conv_data_layer.cpp:184] Reallocating workspace storage: 20664
I0304 23:04:47.412953  2303 net.cpp:90] Creating Layer inception_3a/3x3_reduce/bn
I0304 23:04:47.412961  2303 net.cpp:410] inception_3a/3x3_reduce/bn <- inception_3a/3x3_reduce
I0304 23:04:47.412969  2303 net.cpp:368] inception_3a/3x3_reduce/bn -> inception_3a/3x3_reduce/bn
I0304 23:04:47.412981  2303 net.cpp:120] Setting up inception_3a/3x3_reduce/bn
I0304 23:04:47.412976  2302 net.cpp:127] Top shape: 32 64 28 28 (1605632)
I0304 23:04:47.412986  2302 layer_factory.hpp:74] Creating layer inception_3a/3x3_reduce/bn
I0304 23:04:47.412999  2302 net.cpp:90] Creating Layer inception_3a/3x3_reduce/bn
I0304 23:04:47.413007  2302 net.cpp:410] inception_3a/3x3_reduce/bn <- inception_3a/3x3_reduce
I0304 23:04:47.413017  2302 net.cpp:368] inception_3a/3x3_reduce/bn -> inception_3a/3x3_reduce/bn
I0304 23:04:47.413002  2303 bn_data_layer.cpp:60] scale: 1 1 1
I0304 23:04:47.413017  2303 bn_data_layer.cpp:71] shift: 0 0 0
I0304 23:04:47.413028  2303 bn_data_layer.cpp:80] mean: 0 0 0
I0304 23:04:47.413036  2303 bn_data_layer.cpp:89] variance: 0 0 0
I0304 23:04:47.413028  2302 net.cpp:120] Setting up inception_3a/3x3_reduce/bn
I0304 23:04:47.413045  2303 net.cpp:127] Top shape: 32 64 28 28 (1605632)
I0304 23:04:47.413053  2302 bn_data_layer.cpp:60] scale: 1 1 1
I0304 23:04:47.413053  2305 bn_data_layer.cpp:60] scale: 1 1 1
I0304 23:04:47.413067  2305 bn_data_layer.cpp:71] shift: 0 0 0
I0304 23:04:47.413060  2303 layer_factory.hpp:74] Creating layer inception_3a/relu_3x3_reduce
I0304 23:04:47.413067  2303 net.cpp:90] Creating Layer inception_3a/relu_3x3_reduce
I0304 23:04:47.413067  2302 bn_data_layer.cpp:71] shift: 0 0 0
I0304 23:04:47.413080  2302 bn_data_layer.cpp:80] mean: 0 0 0
I0304 23:04:47.413074  2303 net.cpp:410] inception_3a/relu_3x3_reduce <- inception_3a/3x3_reduce/bn
I0304 23:04:47.413082  2303 net.cpp:357] inception_3a/relu_3x3_reduce -> inception_3a/3x3_reduce/bn (in-place)
I0304 23:04:47.413089  2303 net.cpp:120] Setting up inception_3a/relu_3x3_reduce
I0304 23:04:47.413080  2305 bn_data_layer.cpp:80] mean: 0 0 0
I0304 23:04:47.413090  2305 bn_data_layer.cpp:89] variance: 0 0 0
I0304 23:04:47.413100  2305 net.cpp:127] Top shape: 32 64 28 28 (1605632)
I0304 23:04:47.413090  2302 bn_data_layer.cpp:89] variance: 0 0 0
I0304 23:04:47.413100  2302 net.cpp:127] Top shape: 32 64 28 28 (1605632)
I0304 23:04:47.413110  2302 layer_factory.hpp:74] Creating layer inception_3a/relu_3x3_reduce
I0304 23:04:47.413112  2305 layer_factory.hpp:74] Creating layer inception_3a/relu_3x3_reduce
I0304 23:04:47.413120  2305 net.cpp:90] Creating Layer inception_3a/relu_3x3_reduce
I0304 23:04:47.413118  2302 net.cpp:90] Creating Layer inception_3a/relu_3x3_reduce
I0304 23:04:47.413123  2302 net.cpp:410] inception_3a/relu_3x3_reduce <- inception_3a/3x3_reduce/bn
I0304 23:04:47.413133  2302 net.cpp:357] inception_3a/relu_3x3_reduce -> inception_3a/3x3_reduce/bn (in-place)
I0304 23:04:47.413141  2302 net.cpp:120] Setting up inception_3a/relu_3x3_reduce
I0304 23:04:47.413125  2305 net.cpp:410] inception_3a/relu_3x3_reduce <- inception_3a/3x3_reduce/bn
I0304 23:04:47.413135  2305 net.cpp:357] inception_3a/relu_3x3_reduce -> inception_3a/3x3_reduce/bn (in-place)
I0304 23:04:47.413142  2305 net.cpp:120] Setting up inception_3a/relu_3x3_reduce
I0304 23:04:47.413278  2303 net.cpp:127] Top shape: 32 64 28 28 (1605632)
I0304 23:04:47.413292  2303 layer_factory.hpp:74] Creating layer inception_3a/3x3
I0304 23:04:47.413305  2303 net.cpp:90] Creating Layer inception_3a/3x3
I0304 23:04:47.413311  2303 net.cpp:410] inception_3a/3x3 <- inception_3a/3x3_reduce/bn
I0304 23:04:47.413317  2303 net.cpp:368] inception_3a/3x3 -> inception_3a/3x3
I0304 23:04:47.413326  2303 net.cpp:120] Setting up inception_3a/3x3
I0304 23:04:47.413328  2302 net.cpp:127] Top shape: 32 64 28 28 (1605632)
I0304 23:04:47.413339  2302 layer_factory.hpp:74] Creating layer inception_3a/3x3
I0304 23:04:47.413348  2302 net.cpp:90] Creating Layer inception_3a/3x3
I0304 23:04:47.413338  2305 net.cpp:127] Top shape: 32 64 28 28 (1605632)
I0304 23:04:47.413348  2305 layer_factory.hpp:74] Creating layer inception_3a/3x3
I0304 23:04:47.413359  2305 net.cpp:90] Creating Layer inception_3a/3x3
I0304 23:04:47.413354  2302 net.cpp:410] inception_3a/3x3 <- inception_3a/3x3_reduce/bn
I0304 23:04:47.413365  2302 net.cpp:368] inception_3a/3x3 -> inception_3a/3x3
I0304 23:04:47.413374  2302 net.cpp:120] Setting up inception_3a/3x3
I0304 23:04:47.413365  2305 net.cpp:410] inception_3a/3x3 <- inception_3a/3x3_reduce/bn
I0304 23:04:47.413373  2305 net.cpp:368] inception_3a/3x3 -> inception_3a/3x3
I0304 23:04:47.413384  2305 net.cpp:120] Setting up inception_3a/3x3
I0304 23:04:47.414577  2301 cudnn_conv_data_layer.cpp:184] Reallocating workspace storage: 20664
I0304 23:04:47.414616  2301 net.cpp:127] Top shape: 32 64 28 28 (1605632)
I0304 23:04:47.414625  2301 layer_factory.hpp:74] Creating layer inception_3a/3x3/bn
I0304 23:04:47.414634  2301 net.cpp:90] Creating Layer inception_3a/3x3/bn
I0304 23:04:47.414640  2301 net.cpp:410] inception_3a/3x3/bn <- inception_3a/3x3
I0304 23:04:47.414649  2301 net.cpp:368] inception_3a/3x3/bn -> inception_3a/3x3/bn
I0304 23:04:47.414659  2301 net.cpp:120] Setting up inception_3a/3x3/bn
I0304 23:04:47.414680  2301 bn_data_layer.cpp:60] scale: 1 1 1
I0304 23:04:47.414695  2301 bn_data_layer.cpp:71] shift: 0 0 0
I0304 23:04:47.414705  2301 bn_data_layer.cpp:80] mean: 0 0 0
I0304 23:04:47.414713  2301 bn_data_layer.cpp:89] variance: 0 0 0
I0304 23:04:47.414721  2301 net.cpp:127] Top shape: 32 64 28 28 (1605632)
I0304 23:04:47.414732  2301 layer_factory.hpp:74] Creating layer inception_3a/relu_3x3
I0304 23:04:47.414741  2301 net.cpp:90] Creating Layer inception_3a/relu_3x3
I0304 23:04:47.414747  2301 net.cpp:410] inception_3a/relu_3x3 <- inception_3a/3x3/bn
I0304 23:04:47.414753  2301 net.cpp:357] inception_3a/relu_3x3 -> inception_3a/3x3/bn (in-place)
I0304 23:04:47.414765  2305 cudnn_conv_data_layer.cpp:184] Reallocating workspace storage: 20664
I0304 23:04:47.414760  2301 net.cpp:120] Setting up inception_3a/relu_3x3
I0304 23:04:47.414796  2305 net.cpp:127] Top shape: 32 64 28 28 (1605632)
I0304 23:04:47.414806  2305 layer_factory.hpp:74] Creating layer inception_3a/3x3/bn
I0304 23:04:47.414819  2305 net.cpp:90] Creating Layer inception_3a/3x3/bn
I0304 23:04:47.414825  2305 net.cpp:410] inception_3a/3x3/bn <- inception_3a/3x3
I0304 23:04:47.414834  2305 net.cpp:368] inception_3a/3x3/bn -> inception_3a/3x3/bn
I0304 23:04:47.414844  2305 net.cpp:120] Setting up inception_3a/3x3/bn
I0304 23:04:47.414860  2303 cudnn_conv_data_layer.cpp:184] Reallocating workspace storage: 20664
I0304 23:04:47.414891  2303 net.cpp:127] Top shape: 32 64 28 28 (1605632)
I0304 23:04:47.414901  2303 layer_factory.hpp:74] Creating layer inception_3a/3x3/bn
I0304 23:04:47.414912  2303 net.cpp:90] Creating Layer inception_3a/3x3/bn
I0304 23:04:47.414918  2303 net.cpp:410] inception_3a/3x3/bn <- inception_3a/3x3
I0304 23:04:47.414928  2303 net.cpp:368] inception_3a/3x3/bn -> inception_3a/3x3/bn
I0304 23:04:47.414939  2303 net.cpp:120] Setting up inception_3a/3x3/bn
I0304 23:04:47.414966  2303 bn_data_layer.cpp:60] scale: 1 1 1
I0304 23:04:47.414988  2303 bn_data_layer.cpp:71] shift: 0 0 0
I0304 23:04:47.414999  2303 bn_data_layer.cpp:80] mean: 0 0 0
I0304 23:04:47.415009  2303 bn_data_layer.cpp:89] variance: 0 0 0
I0304 23:04:47.415017  2303 net.cpp:127] Top shape: 32 64 28 28 (1605632)
I0304 23:04:47.415029  2303 layer_factory.hpp:74] Creating layer inception_3a/relu_3x3
I0304 23:04:47.414961  2302 cudnn_conv_data_layer.cpp:184] Reallocating workspace storage: 20664
I0304 23:04:47.414999  2302 net.cpp:127] Top shape: 32 64 28 28 (1605632)
I0304 23:04:47.415009  2302 layer_factory.hpp:74] Creating layer inception_3a/3x3/bn
I0304 23:04:47.415021  2302 net.cpp:90] Creating Layer inception_3a/3x3/bn
I0304 23:04:47.415027  2302 net.cpp:410] inception_3a/3x3/bn <- inception_3a/3x3
I0304 23:04:47.415038  2302 net.cpp:368] inception_3a/3x3/bn -> inception_3a/3x3/bn
I0304 23:04:47.415038  2303 net.cpp:90] Creating Layer inception_3a/relu_3x3
I0304 23:04:47.415045  2303 net.cpp:410] inception_3a/relu_3x3 <- inception_3a/3x3/bn
I0304 23:04:47.415051  2303 net.cpp:357] inception_3a/relu_3x3 -> inception_3a/3x3/bn (in-place)
I0304 23:04:47.415040  2301 net.cpp:127] Top shape: 32 64 28 28 (1605632)
I0304 23:04:47.415050  2301 layer_factory.hpp:74] Creating layer inception_3a/double3x3_reduce
I0304 23:04:47.415060  2301 net.cpp:90] Creating Layer inception_3a/double3x3_reduce
I0304 23:04:47.415048  2302 net.cpp:120] Setting up inception_3a/3x3/bn
I0304 23:04:47.415074  2302 bn_data_layer.cpp:60] scale: 1 1 1
I0304 23:04:47.415066  2301 net.cpp:410] inception_3a/double3x3_reduce <- pool2/3x3_s2_pool2/3x3_s2_0_split_2
I0304 23:04:47.415078  2301 net.cpp:368] inception_3a/double3x3_reduce -> inception_3a/double3x3_reduce
I0304 23:04:47.415087  2301 net.cpp:120] Setting up inception_3a/double3x3_reduce
I0304 23:04:47.415073  2305 bn_data_layer.cpp:60] scale: 1 1 1
I0304 23:04:47.415092  2305 bn_data_layer.cpp:71] shift: 0 0 0
I0304 23:04:47.415058  2303 net.cpp:120] Setting up inception_3a/relu_3x3
I0304 23:04:47.415089  2302 bn_data_layer.cpp:71] shift: 0 0 0
I0304 23:04:47.415107  2302 bn_data_layer.cpp:80] mean: 0 0 0
I0304 23:04:47.415118  2302 bn_data_layer.cpp:89] variance: 0 0 0
I0304 23:04:47.415108  2305 bn_data_layer.cpp:80] mean: 0 0 0
I0304 23:04:47.415117  2305 bn_data_layer.cpp:89] variance: 0 0 0
I0304 23:04:47.415128  2305 net.cpp:127] Top shape: 32 64 28 28 (1605632)
I0304 23:04:47.415139  2305 layer_factory.hpp:74] Creating layer inception_3a/relu_3x3
I0304 23:04:47.415128  2302 net.cpp:127] Top shape: 32 64 28 28 (1605632)
I0304 23:04:47.415138  2302 layer_factory.hpp:74] Creating layer inception_3a/relu_3x3
I0304 23:04:47.415148  2305 net.cpp:90] Creating Layer inception_3a/relu_3x3
I0304 23:04:47.415153  2305 net.cpp:410] inception_3a/relu_3x3 <- inception_3a/3x3/bn
I0304 23:04:47.415148  2302 net.cpp:90] Creating Layer inception_3a/relu_3x3
I0304 23:04:47.415153  2302 net.cpp:410] inception_3a/relu_3x3 <- inception_3a/3x3/bn
I0304 23:04:47.415160  2302 net.cpp:357] inception_3a/relu_3x3 -> inception_3a/3x3/bn (in-place)
I0304 23:04:47.415160  2305 net.cpp:357] inception_3a/relu_3x3 -> inception_3a/3x3/bn (in-place)
I0304 23:04:47.415169  2302 net.cpp:120] Setting up inception_3a/relu_3x3
I0304 23:04:47.415169  2305 net.cpp:120] Setting up inception_3a/relu_3x3
I0304 23:04:47.415379  2303 net.cpp:127] Top shape: 32 64 28 28 (1605632)
I0304 23:04:47.415395  2303 layer_factory.hpp:74] Creating layer inception_3a/double3x3_reduce
I0304 23:04:47.415410  2303 net.cpp:90] Creating Layer inception_3a/double3x3_reduce
I0304 23:04:47.415416  2303 net.cpp:410] inception_3a/double3x3_reduce <- pool2/3x3_s2_pool2/3x3_s2_0_split_2
I0304 23:04:47.415426  2303 net.cpp:368] inception_3a/double3x3_reduce -> inception_3a/double3x3_reduce
I0304 23:04:47.415436  2303 net.cpp:120] Setting up inception_3a/double3x3_reduce
I0304 23:04:47.415537  2302 net.cpp:127] Top shape: 32 64 28 28 (1605632)
I0304 23:04:47.415552  2302 layer_factory.hpp:74] Creating layer inception_3a/double3x3_reduce
I0304 23:04:47.415566  2302 net.cpp:90] Creating Layer inception_3a/double3x3_reduce
I0304 23:04:47.415572  2302 net.cpp:410] inception_3a/double3x3_reduce <- pool2/3x3_s2_pool2/3x3_s2_0_split_2
I0304 23:04:47.415580  2302 net.cpp:368] inception_3a/double3x3_reduce -> inception_3a/double3x3_reduce
I0304 23:04:47.415591  2302 net.cpp:120] Setting up inception_3a/double3x3_reduce
I0304 23:04:47.415582  2305 net.cpp:127] Top shape: 32 64 28 28 (1605632)
I0304 23:04:47.415596  2305 layer_factory.hpp:74] Creating layer inception_3a/double3x3_reduce
I0304 23:04:47.415606  2305 net.cpp:90] Creating Layer inception_3a/double3x3_reduce
I0304 23:04:47.415611  2305 net.cpp:410] inception_3a/double3x3_reduce <- pool2/3x3_s2_pool2/3x3_s2_0_split_2
I0304 23:04:47.415621  2305 net.cpp:368] inception_3a/double3x3_reduce -> inception_3a/double3x3_reduce
I0304 23:04:47.415632  2305 net.cpp:120] Setting up inception_3a/double3x3_reduce
I0304 23:04:47.416764  2302 cudnn_conv_data_layer.cpp:184] Reallocating workspace storage: 20664
I0304 23:04:47.416795  2302 net.cpp:127] Top shape: 32 64 28 28 (1605632)
I0304 23:04:47.416805  2302 layer_factory.hpp:74] Creating layer inception_3a/double3x3_reduce/bn
I0304 23:04:47.416815  2302 net.cpp:90] Creating Layer inception_3a/double3x3_reduce/bn
I0304 23:04:47.416821  2302 net.cpp:410] inception_3a/double3x3_reduce/bn <- inception_3a/double3x3_reduce
I0304 23:04:47.416832  2302 net.cpp:368] inception_3a/double3x3_reduce/bn -> inception_3a/double3x3_reduce/bn
I0304 23:04:47.416842  2302 net.cpp:120] Setting up inception_3a/double3x3_reduce/bn
I0304 23:04:47.416950  2305 cudnn_conv_data_layer.cpp:184] Reallocating workspace storage: 20664
I0304 23:04:47.416980  2305 net.cpp:127] Top shape: 32 64 28 28 (1605632)
I0304 23:04:47.416990  2305 layer_factory.hpp:74] Creating layer inception_3a/double3x3_reduce/bn
I0304 23:04:47.416940  2301 cudnn_conv_data_layer.cpp:184] Reallocating workspace storage: 20664
I0304 23:04:47.416975  2301 net.cpp:127] Top shape: 32 64 28 28 (1605632)
I0304 23:04:47.416985  2301 layer_factory.hpp:74] Creating layer inception_3a/double3x3_reduce/bn
I0304 23:04:47.416997  2301 net.cpp:90] Creating Layer inception_3a/double3x3_reduce/bn
I0304 23:04:47.416914  2303 cudnn_conv_data_layer.cpp:184] Reallocating workspace storage: 20664
I0304 23:04:47.416956  2303 net.cpp:127] Top shape: 32 64 28 28 (1605632)
I0304 23:04:47.416967  2303 layer_factory.hpp:74] Creating layer inception_3a/double3x3_reduce/bn
I0304 23:04:47.416985  2303 net.cpp:90] Creating Layer inception_3a/double3x3_reduce/bn
I0304 23:04:47.416991  2303 net.cpp:410] inception_3a/double3x3_reduce/bn <- inception_3a/double3x3_reduce
I0304 23:04:47.417001  2303 net.cpp:368] inception_3a/double3x3_reduce/bn -> inception_3a/double3x3_reduce/bn
…
I0304 23:04:47.417155  2305 net.cpp:120] Setting up inception_3a/relu_double3x3_reduce
I0304 23:04:47.417141  2303 net.cpp:410] inception_3a/relu_double3x3_reduce <- inception_3a/double3x3_reduce/bn
I0304 23:04:47.417150  2303 net.cpp:357] inception_3a/relu_double3x3_reduce -> inception_3a/double3x3_reduce/bn (in-place)
I0304 23:04:47.417158  2303 net.cpp:120] Setting up inception_3a/relu_double3x3_reduce
I0304 23:04:47.417150  2302 net.cpp:357] inception_3a/relu_double3x3_reduce -> inception_3a/double3x3_reduce/bn (in-place)
I0304 23:04:47.417160  2302 net.cpp:120] Setting up inception_3a/relu_double3x3_reduce
I0304 23:04:47.417610  2301 net.cpp:127] Top shape: 32 64 28 28 (1605632)
I0304 23:04:47.417623  2301 layer_factory.hpp:74] Creating layer inception_3a/double3x3a
I0304 23:04:47.417647  2301 net.cpp:90] Creating Layer inception_3a/double3x3a
I0304 23:04:47.417654  2301 net.cpp:410] inception_3a/double3x3a <- inception_3a/double3x3_reduce/bn
I0304 23:04:47.417662  2301 net.cpp:368] inception_3a/double3x3a -> inception_3a/double3x3a
I0304 23:04:47.417668  2305 net.cpp:127] Top shape: 32 64 28 28 (1605632)
I0304 23:04:47.417681  2305 layer_factory.hpp:74] Creating layer inception_3a/double3x3a
I0304 23:04:47.417671  2301 net.cpp:120] Setting up inception_3a/double3x3a
I0304 23:04:47.417691  2305 net.cpp:90] Creating Layer inception_3a/double3x3a
I0304 23:04:47.417698  2305 net.cpp:410] inception_3a/double3x3a <- inception_3a/double3x3_reduce/bn
I0304 23:04:47.417709  2305 net.cpp:368] inception_3a/double3x3a -> inception_3a/double3x3a
I0304 23:04:47.417722  2305 net.cpp:120] Setting up inception_3a/double3x3a
I0304 23:04:47.417739  2303 net.cpp:127] Top shape: 32 64 28 28 (1605632)
I0304 23:04:47.417762  2303 layer_factory.hpp:74] Creating layer inception_3a/double3x3a
I0304 23:04:47.417776  2303 net.cpp:90] Creating Layer inception_3a/double3x3a
I0304 23:04:47.417783  2303 net.cpp:410] inception_3a/double3x3a <- inception_3a/double3x3_reduce/bn
I0304 23:04:47.417788  2302 net.cpp:127] Top shape: 32 64 28 28 (1605632)
I0304 23:04:47.417804  2302 layer_factory.hpp:74] Creating layer inception_3a/double3x3a
I0304 23:04:47.417794  2303 net.cpp:368] inception_3a/double3x3a -> inception_3a/double3x3a
I0304 23:04:47.417807  2303 net.cpp:120] Setting up inception_3a/double3x3a
I0304 23:04:47.417816  2302 net.cpp:90] Creating Layer inception_3a/double3x3a
I0304 23:04:47.417824  2302 net.cpp:410] inception_3a/double3x3a <- inception_3a/double3x3_reduce/bn
I0304 23:04:47.417832  2302 net.cpp:368] inception_3a/double3x3a -> inception_3a/double3x3a
I0304 23:04:47.417845  2302 net.cpp:120] Setting up inception_3a/double3x3a
I0304 23:04:47.419366  2301 cudnn_conv_data_layer.cpp:184] Reallocating workspace storage: 20664
I0304 23:04:47.419409  2301 net.cpp:127] Top shape: 32 96 28 28 (2408448)
I0304 23:04:47.419419  2301 layer_factory.hpp:74] Creating layer inception_3a/double3x3a/bn
I0304 23:04:47.419430  2301 net.cpp:90] Creating Layer inception_3a/double3x3a/bn
I0304 23:04:47.419436  2301 net.cpp:410] inception_3a/double3x3a/bn <- inception_3a/double3x3a
I0304 23:04:47.419445  2301 net.cpp:368] inception_3a/double3x3a/bn -> inception_3a/double3x3a/bn
I0304 23:04:47.419452  2301 net.cpp:120] Setting up inception_3a/double3x3a/bn
I0304 23:04:47.419488  2301 bn_data_layer.cpp:60] scale: 1 1 1
I0304 23:04:47.419510  2301 bn_data_layer.cpp:71] shift: 0 0 0
I0304 23:04:47.419520  2301 bn_data_layer.cpp:80] mean: 0 0 0
I0304 23:04:47.419539  2301 bn_data_layer.cpp:89] variance: 0 0 0
I0304 23:04:47.419548  2301 net.cpp:127] Top shape: 32 96 28 28 (2408448)
I0304 23:04:47.419558  2301 layer_factory.hpp:74] Creating layer inception_3a/relu_double3x3a
I0304 23:04:47.419564  2301 net.cpp:90] Creating Layer inception_3a/relu_double3x3a
I0304 23:04:47.419569  2301 net.cpp:410] inception_3a/relu_double3x3a <- inception_3a/double3x3a/bn
I0304 23:04:47.419579  2301 net.cpp:357] inception_3a/relu_double3x3a -> inception_3a/double3x3a/bn (in-place)
I0304 23:04:47.419585  2301 net.cpp:120] Setting up inception_3a/relu_double3x3a
I0304 23:04:47.419598  2305 cudnn_conv_data_layer.cpp:184] Reallocating workspace storage: 20664
I0304 23:04:47.419625  2305 net.cpp:127] Top shape: 32 96 28 28 (2408448)
I0304 23:04:47.419646  2305 layer_factory.hpp:74] Creating layer inception_3a/double3x3a/bn
I0304 23:04:47.419659  2305 net.cpp:90] Creating Layer inception_3a/double3x3a/bn
I0304 23:04:47.419667  2305 net.cpp:410] inception_3a/double3x3a/bn <- inception_3a/double3x3a
I0304 23:04:47.419678  2305 net.cpp:368] inception_3a/double3x3a/bn -> inception_3a/double3x3a/bn
I0304 23:04:47.419689  2305 net.cpp:120] Setting up inception_3a/double3x3a/bn
I0304 23:04:47.419759  2301 net.cpp:127] Top shape: 32 96 28 28 (2408448)
I0304 23:04:47.419775  2301 layer_factory.hpp:74] Creating layer inception_3a/double3x3b
I0304 23:04:47.419796  2301 net.cpp:90] Creating Layer inception_3a/double3x3b
I0304 23:04:47.419802  2301 net.cpp:410] inception_3a/double3x3b <- inception_3a/double3x3a/bn
I0304 23:04:47.419775  2303 cudnn_conv_data_layer.cpp:184] Reallocating workspace storage: 20664
I0304 23:04:47.419808  2303 net.cpp:127] Top shape: 32 96 28 28 (2408448)
I0304 23:04:47.419818  2303 layer_factory.hpp:74] Creating layer inception_3a/double3x3a/bn
I0304 23:04:47.419811  2301 net.cpp:368] inception_3a/double3x3b -> inception_3a/double3x3b
I0304 23:04:47.419821  2301 net.cpp:120] Setting up inception_3a/double3x3b
I0304 23:04:47.419834  2303 net.cpp:90] Creating Layer inception_3a/double3x3a/bn
I0304 23:04:47.419826  2302 cudnn_conv_data_layer.cpp:184] Reallocating workspace storage: 20664
I0304 23:04:47.419842  2303 net.cpp:410] inception_3a/double3x3a/bn <- inception_3a/double3x3a
I0304 23:04:47.419852  2303 net.cpp:368] inception_3a/double3x3a/bn -> inception_3a/double3x3a/bn
I0304 23:04:47.419863  2303 net.cpp:120] Setting up inception_3a/double3x3a/bn
I0304 23:04:47.419858  2302 net.cpp:127] Top shape: 32 96 28 28 (2408448)
I0304 23:04:47.419870  2302 layer_factory.hpp:74] Creating layer inception_3a/double3x3a/bn
I0304 23:04:47.419883  2302 net.cpp:90] Creating Layer inception_3a/double3x3a/bn
I0304 23:04:47.419890  2302 net.cpp:410] inception_3a/double3x3a/bn <- inception_3a/double3x3a
I0304 23:04:47.419903  2302 net.cpp:368] inception_3a/double3x3a/bn -> inception_3a/double3x3a/bn
I0304 23:04:47.419893  2303 bn_data_layer.cpp:60] scale: 1 1 1
I0304 23:04:47.419909  2303 bn_data_layer.cpp:71] shift: 0 0 0
I0304 23:04:47.419915  2302 net.cpp:120] Setting up inception_3a/double3x3a/bn
I0304 23:04:47.419920  2303 bn_data_layer.cpp:80] mean: 0 0 0
I0304 23:04:47.419934  2303 bn_data_layer.cpp:89] variance: 0 0 0
I0304 23:04:47.419945  2303 net.cpp:127] Top shape: 32 96 28 28 (2408448)
I0304 23:04:47.419956  2303 layer_factory.hpp:74] Creating layer inception_3a/relu_double3x3a
I0304 23:04:47.419965  2303 net.cpp:90] Creating Layer inception_3a/relu_double3x3a
I0304 23:04:47.419971  2303 net.cpp:410] inception_3a/relu_double3x3a <- inception_3a/double3x3a/bn
I0304 23:04:47.419948  2302 bn_data_layer.cpp:60] scale: 1 1 1
I0304 23:04:47.419966  2302 bn_data_layer.cpp:71] shift: 0 0 0
I0304 23:04:47.419946  2305 bn_data_layer.cpp:60] scale: 1 1 1
I0304 23:04:47.419966  2305 bn_data_layer.cpp:71] shift: 0 0 0
I0304 23:04:47.419981  2305 bn_data_layer.cpp:80] mean: 0 0 0
I0304 23:04:47.419980  2302 bn_data_layer.cpp:80] mean: 0 0 0
I0304 23:04:47.419991  2302 bn_data_layer.cpp:89] variance: 0 0 0
I0304 23:04:47.419981  2303 net.cpp:357] inception_3a/relu_double3x3a -> inception_3a/double3x3a/bn (in-place)
I0304 23:04:47.419991  2303 net.cpp:120] Setting up inception_3a/relu_double3x3a
I0304 23:04:47.420001  2302 net.cpp:127] Top shape: 32 96 28 28 (2408448)
I0304 23:04:47.420017  2302 layer_factory.hpp:74] Creating layer inception_3a/relu_double3x3a
I0304 23:04:47.419991  2305 bn_data_layer.cpp:89] variance: 0 0 0
I0304 23:04:47.420001  2305 net.cpp:127] Top shape: 32 96 28 28 (2408448)
I0304 23:04:47.420016  2305 layer_factory.hpp:74] Creating layer inception_3a/relu_double3x3a
I0304 23:04:47.420025  2302 net.cpp:90] Creating Layer inception_3a/relu_double3x3a
I0304 23:04:47.420032  2302 net.cpp:410] inception_3a/relu_double3x3a <- inception_3a/double3x3a/bn
I0304 23:04:47.420023  2305 net.cpp:90] Creating Layer inception_3a/relu_double3x3a
I0304 23:04:47.420029  2305 net.cpp:410] inception_3a/relu_double3x3a <- inception_3a/double3x3a/bn
I0304 23:04:47.420037  2305 net.cpp:357] inception_3a/relu_double3x3a -> inception_3a/double3x3a/bn (in-place)
I0304 23:04:47.420042  2302 net.cpp:357] inception_3a/relu_double3x3a -> inception_3a/double3x3a/bn (in-place)
I0304 23:04:47.420052  2302 net.cpp:120] Setting up inception_3a/relu_double3x3a
I0304 23:04:47.420045  2305 net.cpp:120] Setting up inception_3a/relu_double3x3a
I0304 23:04:47.420204  2303 net.cpp:127] Top shape: 32 96 28 28 (2408448)
I0304 23:04:47.420219  2303 layer_factory.hpp:74] Creating layer inception_3a/double3x3b
I0304 23:04:47.420246  2303 net.cpp:90] Creating Layer inception_3a/double3x3b
I0304 23:04:47.420253  2303 net.cpp:410] inception_3a/double3x3b <- inception_3a/double3x3a/bn
I0304 23:04:47.420245  2305 net.cpp:127] Top shape: 32 96 28 28 (2408448)
I0304 23:04:47.420264  2303 net.cpp:368] inception_3a/double3x3b -> inception_3a/double3x3b
I0304 23:04:47.420275  2303 net.cpp:120] Setting up inception_3a/double3x3b
I0304 23:04:47.420269  2302 net.cpp:127] Top shape: 32 96 28 28 (2408448)
I0304 23:04:47.420255  2305 layer_factory.hpp:74] Creating layer inception_3a/double3x3b
I0304 23:04:47.420282  2305 net.cpp:90] Creating Layer inception_3a/double3x3b
I0304 23:04:47.420289  2305 net.cpp:410] inception_3a/double3x3b <- inception_3a/double3x3a/bn
I0304 23:04:47.420300  2305 net.cpp:368] inception_3a/double3x3b -> inception_3a/double3x3b
I0304 23:04:47.420279  2302 layer_factory.hpp:74] Creating layer inception_3a/double3x3b
I0304 23:04:47.420305  2302 net.cpp:90] Creating Layer inception_3a/double3x3b
I0304 23:04:47.420313  2302 net.cpp:410] inception_3a/double3x3b <- inception_3a/double3x3a/bn
I0304 23:04:47.420325  2302 net.cpp:368] inception_3a/double3x3b -> inception_3a/double3x3b
I0304 23:04:47.420310  2305 net.cpp:120] Setting up inception_3a/double3x3b
I0304 23:04:47.420336  2302 net.cpp:120] Setting up inception_3a/double3x3b
I0304 23:04:47.422376  2301 cudnn_conv_data_layer.cpp:184] Reallocating workspace storage: 20664
I0304 23:04:47.422416  2301 net.cpp:127] Top shape: 32 96 28 28 (2408448)
I0304 23:04:47.422425  2301 layer_factory.hpp:74] Creating layer inception_3a/double3x3b/bn
I0304 23:04:47.422441  2301 net.cpp:90] Creating Layer inception_3a/double3x3b/bn
I0304 23:04:47.422446  2301 net.cpp:410] inception_3a/double3x3b/bn <- inception_3a/double3x3b
I0304 23:04:47.422453  2301 net.cpp:368] inception_3a/double3x3b/bn -> inception_3a/double3x3b/bn
I0304 23:04:47.422462  2301 net.cpp:120] Setting up inception_3a/double3x3b/bn
I0304 23:04:47.422487  2301 bn_data_layer.cpp:60] scale: 1 1 1
I0304 23:04:47.422499  2301 bn_data_layer.cpp:71] shift: 0 0 0
I0304 23:04:47.422502  2305 cudnn_conv_data_layer.cpp:184] Reallocating workspace storage: 20664
I0304 23:04:47.422509  2301 bn_data_layer.cpp:80] mean: 0 0 0
I0304 23:04:47.422518  2301 bn_data_layer.cpp:89] variance: 0 0 0
I0304 23:04:47.422528  2301 net.cpp:127] Top shape: 32 96 28 28 (2408448)
I0304 23:04:47.422538  2301 layer_factory.hpp:74] Creating layer inception_3a/relu_double3x3b
I0304 23:04:47.422533  2305 net.cpp:127] Top shape: 32 96 28 28 (2408448)
I0304 23:04:47.422544  2305 layer_factory.hpp:74] Creating layer inception_3a/double3x3b/bn
I0304 23:04:47.422549  2301 net.cpp:90] Creating Layer inception_3a/relu_double3x3b
I0304 23:04:47.422554  2301 net.cpp:410] inception_3a/relu_double3x3b <- inception_3a/double3x3b/bn
I0304 23:04:47.422559  2301 net.cpp:357] inception_3a/relu_double3x3b -> inception_3a/double3x3b/bn (in-place)
I0304 23:04:47.422566  2301 net.cpp:120] Setting up inception_3a/relu_double3x3b
I0304 23:04:47.422556  2305 net.cpp:90] Creating Layer inception_3a/double3x3b/bn
I0304 23:04:47.422564  2305 net.cpp:410] inception_3a/double3x3b/bn <- inception_3a/double3x3b
I0304 23:04:47.422572  2305 net.cpp:368] inception_3a/double3x3b/bn -> inception_3a/double3x3b/bn
I0304 23:04:47.422582  2305 net.cpp:120] Setting up inception_3a/double3x3b/bn
I0304 23:04:47.422613  2303 cudnn_conv_data_layer.cpp:184] Reallocating workspace storage: 20664
I0304 23:04:47.422649  2303 net.cpp:127] Top shape: 32 96 28 28 (2408448)
I0304 23:04:47.422659  2303 layer_factory.hpp:74] Creating layer inception_3a/double3x3b/bn
I0304 23:04:47.422672  2303 net.cpp:90] Creating Layer inception_3a/double3x3b/bn
I0304 23:04:47.422677  2303 net.cpp:410] inception_3a/double3x3b/bn <- inception_3a/double3x3b
I0304 23:04:47.422690  2303 net.cpp:368] inception_3a/double3x3b/bn -> inception_3a/double3x3b/bn
I0304 23:04:47.422703  2303 net.cpp:120] Setting up inception_3a/double3x3b/bn
I0304 23:04:47.422725  2302 cudnn_conv_data_layer.cpp:184] Reallocating workspace storage: 20664
I0304 23:04:47.422734  2301 net.cpp:127] Top shape: 32 96 28 28 (2408448)
I0304 23:04:47.422742  2301 layer_factory.hpp:74] Creating layer inception_3a/pool
I0304 23:04:47.422727  2303 bn_data_layer.cpp:60] scale: 1 1 1
I0304 23:04:47.422744  2303 bn_data_layer.cpp:71] shift: 0 0 0
I0304 23:04:47.422749  2301 layer_factory.cpp:85] CUDNN does not support padding or multiple tops. Using Caffe's own pooling layer.
I0304 23:04:47.422757  2301 net.cpp:90] Creating Layer inception_3a/pool
I0304 23:04:47.422762  2301 net.cpp:410] inception_3a/pool <- pool2/3x3_s2_pool2/3x3_s2_0_split_3
I0304 23:04:47.422770  2301 net.cpp:368] inception_3a/pool -> inception_3a/pool
I0304 23:04:47.422778  2301 net.cpp:120] Setting up inception_3a/pool
I0304 23:04:47.422757  2303 bn_data_layer.cpp:80] mean: 0 0 0
I0304 23:04:47.422768  2303 bn_data_layer.cpp:89] variance: 0 0 0
I0304 23:04:47.422777  2303 net.cpp:127] Top shape: 32 96 28 28 (2408448)
I0304 23:04:47.422755  2302 net.cpp:127] Top shape: 32 96 28 28 (2408448)
I0304 23:04:47.422766  2302 layer_factory.hpp:74] Creating layer inception_3a/double3x3b/bn
I0304 23:04:47.422780  2302 net.cpp:90] Creating Layer inception_3a/double3x3b/bn
I0304 23:04:47.422787  2302 net.cpp:410] inception_3a/double3x3b/bn <- inception_3a/double3x3b
I0304 23:04:47.422786  2301 net.cpp:127] Top shape: 32 192 28 28 (4816896)
I0304 23:04:47.422791  2301 layer_factory.hpp:74] Creating layer inception_3a/pool_proj
I0304 23:04:47.422799  2301 net.cpp:90] Creating Layer inception_3a/pool_proj
I0304 23:04:47.422801  2302 net.cpp:368] inception_3a/double3x3b/bn -> inception_3a/double3x3b/bn
I0304 23:04:47.422793  2303 layer_factory.hpp:74] Creating layer inception_3a/relu_double3x3b
I0304 23:04:47.422806  2303 net.cpp:90] Creating Layer inception_3a/relu_double3x3b
…
I0304 23:04:47.422829  2303 net.cpp:120] Setting up inception_3a/relu_double3x3b
I0304 23:04:47.422811  2302 net.cpp:120] Setting up inception_3a/double3x3b/bn
I0304 23:04:47.422842  2302 bn_data_layer.cpp:60] scale: 1 1 1
I0304 23:04:47.422859  2302 bn_data_layer.cpp:71] shift: 0 0 0
I0304 23:04:47.422843  2305 bn_data_layer.cpp:60] scale: 1 1 1
I0304 23:04:47.422859  2305 bn_data_layer.cpp:71] shift: 0 0 0
I0304 23:04:47.422871  2305 bn_data_layer.cpp:80] mean: 0 0 0
I0304 23:04:47.422874  2302 bn_data_layer.cpp:80] mean: 0 0 0
I0304 23:04:47.422888  2302 bn_data_layer.cpp:89] variance: 0 0 0
I0304 23:04:47.422897  2302 net.cpp:127] Top shape: 32 96 28 28 (2408448)
I0304 23:04:47.422888  2305 bn_data_layer.cpp:89] variance: 0 0 0
I0304 23:04:47.422897  2305 net.cpp:127] Top shape: 32 96 28 28 (2408448)
I0304 23:04:47.422909  2305 layer_factory.hpp:74] Creating layer inception_3a/relu_double3x3b
I0304 23:04:47.422919  2305 net.cpp:90] Creating Layer inception_3a/relu_double3x3b
I0304 23:04:47.422912  2302 layer_factory.hpp:74] Creating layer inception_3a/relu_double3x3b
I0304 23:04:47.422924  2302 net.cpp:90] Creating Layer inception_3a/relu_double3x3b
I0304 23:04:47.422931  2302 net.cpp:410] inception_3a/relu_double3x3b <- inception_3a/double3x3b/bn
I0304 23:04:47.422926  2305 net.cpp:410] inception_3a/relu_double3x3b <- inception_3a/double3x3b/bn
I0304 23:04:47.422933  2305 net.cpp:357] inception_3a/relu_double3x3b -> inception_3a/double3x3b/bn (in-place)
I0304 23:04:47.422941  2305 net.cpp:120] Setting up inception_3a/relu_double3x3b
I0304 23:04:47.422942  2302 net.cpp:357] inception_3a/relu_double3x3b -> inception_3a/double3x3b/bn (in-place)
I0304 23:04:47.422952  2302 net.cpp:120] Setting up inception_3a/relu_double3x3b
I0304 23:04:47.423043  2303 net.cpp:127] Top shape: 32 96 28 28 (2408448)
I0304 23:04:47.423055  2303 layer_factory.hpp:74] Creating layer inception_3a/pool
I0304 23:04:47.423063  2303 layer_factory.cpp:85] CUDNN does not support padding or multiple tops. Using Caffe's own pooling layer.
I0304 23:04:47.423074  2303 net.cpp:90] Creating Layer inception_3a/pool
I0304 23:04:47.423080  2303 net.cpp:410] inception_3a/pool <- pool2/3x3_s2_pool2/3x3_s2_0_split_3
I0304 23:04:47.423089  2303 net.cpp:368] inception_3a/pool -> inception_3a/pool
I0304 23:04:47.423100  2303 net.cpp:120] Setting up inception_3a/pool
I0304 23:04:47.423110  2303 net.cpp:127] Top shape: 32 192 28 28 (4816896)
I0304 23:04:47.423116  2303 layer_factory.hpp:74] Creating layer inception_3a/pool_proj
I0304 23:04:47.423126  2303 net.cpp:90] Creating Layer inception_3a/pool_proj
I0304 23:04:47.423132  2303 net.cpp:410] inception_3a/pool_proj <- inception_3a/pool
I0304 23:04:47.423143  2303 net.cpp:368] inception_3a/pool_proj -> inception_3a/pool_proj
I0304 23:04:47.423143  2305 net.cpp:127] Top shape: 32 96 28 28 (2408448)
I0304 23:04:47.423152  2305 layer_factory.hpp:74] Creating layer inception_3a/pool
I0304 23:04:47.423159  2305 layer_factory.cpp:85] CUDNN does not support padding or multiple tops. Using Caffe's own pooling layer.
I0304 23:04:47.423152  2303 net.cpp:120] Setting up inception_3a/pool_proj
I0304 23:04:47.423166  2302 net.cpp:127] Top shape: 32 96 28 28 (2408448)
I0304 23:04:47.423177  2302 layer_factory.hpp:74] Creating layer inception_3a/pool
I0304 23:04:47.423183  2302 layer_factory.cpp:85] CUDNN does not support padding or multiple tops. Using Caffe's own pooling layer.
I0304 23:04:47.423168  2305 net.cpp:90] Creating Layer inception_3a/pool
I0304 23:04:47.423174  2305 net.cpp:410] inception_3a/pool <- pool2/3x3_s2_pool2/3x3_s2_0_split_3
I0304 23:04:47.423184  2305 net.cpp:368] inception_3a/pool -> inception_3a/pool
I0304 23:04:47.423193  2305 net.cpp:120] Setting up inception_3a/pool
I0304 23:04:47.423193  2302 net.cpp:90] Creating Layer inception_3a/pool
I0304 23:04:47.423200  2302 net.cpp:410] inception_3a/pool <- pool2/3x3_s2_pool2/3x3_s2_0_split_3
I0304 23:04:47.423209  2302 net.cpp:368] inception_3a/pool -> inception_3a/pool
I0304 23:04:47.423218  2302 net.cpp:120] Setting up inception_3a/pool
I0304 23:04:47.423202  2305 net.cpp:127] Top shape: 32 192 28 28 (4816896)
I0304 23:04:47.423207  2305 layer_factory.hpp:74] Creating layer inception_3a/pool_proj
I0304 23:04:47.423216  2305 net.cpp:90] Creating Layer inception_3a/pool_proj
I0304 23:04:47.423228  2302 net.cpp:127] Top shape: 32 192 28 28 (4816896)
I0304 23:04:47.423224  2305 net.cpp:410] inception_3a/pool_proj <- inception_3a/pool
I0304 23:04:47.423233  2305 net.cpp:368] inception_3a/pool_proj -> inception_3a/pool_proj
I0304 23:04:47.423241  2305 net.cpp:120] Setting up inception_3a/pool_proj
I0304 23:04:47.423235  2302 layer_factory.hpp:74] Creating layer inception_3a/pool_proj
I0304 23:04:47.423249  2302 net.cpp:90] Creating Layer inception_3a/pool_proj
I0304 23:04:47.423255  2302 net.cpp:410] inception_3a/pool_proj <- inception_3a/pool
I0304 23:04:47.423264  2302 net.cpp:368] inception_3a/pool_proj -> inception_3a/pool_proj
I0304 23:04:47.423275  2302 net.cpp:120] Setting up inception_3a/pool_proj
I0304 23:04:47.424213  2301 cudnn_conv_data_layer.cpp:184] Reallocating workspace storage: 20664
I0304 23:04:47.424262  2301 net.cpp:127] Top shape: 32 32 28 28 (802816)
I0304 23:04:47.424270  2301 layer_factory.hpp:74] Creating layer inception_3a/pool_proj/bn
I0304 23:04:47.424283  2301 net.cpp:90] Creating Layer inception_3a/pool_proj/bn
I0304 23:04:47.424288  2301 net.cpp:410] inception_3a/pool_proj/bn <- inception_3a/pool_proj
I0304 23:04:47.424299  2301 net.cpp:368] inception_3a/pool_proj/bn -> inception_3a/pool_proj/bn
I0304 23:04:47.424309  2301 net.cpp:120] Setting up inception_3a/pool_proj/bn
I0304 23:04:47.424330  2301 bn_data_layer.cpp:60] scale: 1 1 1
I0304 23:04:47.424345  2301 bn_data_layer.cpp:71] shift: 0 0 0
I0304 23:04:47.424355  2301 bn_data_layer.cpp:80] mean: 0 0 0
I0304 23:04:47.424365  2301 bn_data_layer.cpp:89] variance: 0 0 0
I0304 23:04:47.424372  2301 net.cpp:127] Top shape: 32 32 28 28 (802816)
I0304 23:04:47.424383  2301 layer_factory.hpp:74] Creating layer inception_3a/relu_pool_proj
I0304 23:04:47.424396  2301 net.cpp:90] Creating Layer inception_3a/relu_pool_proj
I0304 23:04:47.424387  2305 cudnn_conv_data_layer.cpp:184] Reallocating workspace storage: 20664
I0304 23:04:47.424401  2301 net.cpp:410] inception_3a/relu_pool_proj <- inception_3a/pool_proj/bn
I0304 23:04:47.424415  2305 net.cpp:127] Top shape: 32 32 28 28 (802816)
I0304 23:04:47.424423  2301 net.cpp:357] inception_3a/relu_pool_proj -> inception_3a/pool_proj/bn (in-place)
I0304 23:04:47.424432  2301 net.cpp:120] Setting up inception_3a/relu_pool_proj
I0304 23:04:47.424427  2305 layer_factory.hpp:74] Creating layer inception_3a/pool_proj/bn
I0304 23:04:47.424438  2305 net.cpp:90] Creating Layer inception_3a/pool_proj/bn
I0304 23:04:47.424444  2305 net.cpp:410] inception_3a/pool_proj/bn <- inception_3a/pool_proj
I0304 23:04:47.424456  2305 net.cpp:368] inception_3a/pool_proj/bn -> inception_3a/pool_proj/bn
I0304 23:04:47.424470  2305 net.cpp:120] Setting up inception_3a/pool_proj/bn
I0304 23:04:47.424587  2302 cudnn_conv_data_layer.cpp:184] Reallocating workspace storage: 20664
I0304 23:04:47.424631  2302 net.cpp:127] Top shape: 32 32 28 28 (802816)
I0304 23:04:47.424643  2302 layer_factory.hpp:74] Creating layer inception_3a/pool_proj/bn
I0304 23:04:47.424657  2302 net.cpp:90] Creating Layer inception_3a/pool_proj/bn
I0304 23:04:47.424664  2302 net.cpp:410] inception_3a/pool_proj/bn <- inception_3a/pool_proj
I0304 23:04:47.424674  2302 net.cpp:368] inception_3a/pool_proj/bn -> inception_3a/pool_proj/bn
I0304 23:04:47.424650  2303 cudnn_conv_data_layer.cpp:184] Reallocating workspace storage: 20664
I0304 23:04:47.424685  2302 net.cpp:120] Setting up inception_3a/pool_proj/bn
I0304 23:04:47.424680  2303 net.cpp:127] Top shape: 32 32 28 28 (802816)
I0304 23:04:47.424691  2303 layer_factory.hpp:74] Creating layer inception_3a/pool_proj/bn
I0304 23:04:47.424707  2303 net.cpp:90] Creating Layer inception_3a/pool_proj/bn
I0304 23:04:47.424715  2303 net.cpp:410] inception_3a/pool_proj/bn <- inception_3a/pool_proj
I0304 23:04:47.424712  2305 bn_data_layer.cpp:60] scale: 1 1 1
I0304 23:04:47.424728  2305 bn_data_layer.cpp:71] shift: 0 0 0
I0304 23:04:47.424711  2302 bn_data_layer.cpp:60] scale: 1 1 1
I0304 23:04:47.424731  2302 bn_data_layer.cpp:71] shift: 0 0 0
I0304 23:04:47.424726  2303 net.cpp:368] inception_3a/pool_proj/bn -> inception_3a/pool_proj/bn
I0304 23:04:47.424738  2303 net.cpp:120] Setting up inception_3a/pool_proj/bn
I0304 23:04:47.424746  2305 bn_data_layer.cpp:80] mean: 0 0 0
I0304 23:04:47.424731  2301 net.cpp:127] Top shape: 32 32 28 28 (802816)
I0304 23:04:47.424744  2301 layer_factory.hpp:74] Creating layer inception_3a/output
I0304 23:04:47.424757  2301 net.cpp:90] Creating Layer inception_3a/output
I0304 23:04:47.424743  2302 bn_data_layer.cpp:80] mean: 0 0 0
I0304 23:04:47.424754  2302 bn_data_layer.cpp:89] variance: 0 0 0
I0304 23:04:47.424765  2302 net.cpp:127] Top shape: 32 32 28 28 (802816)
I0304 23:04:47.424779  2302 layer_factory.hpp:74] Creating layer inception_3a/relu_pool_proj
I0304 23:04:47.424762  2301 net.cpp:410] inception_3a/output <- inception_3a/1x1/bn
I0304 23:04:47.424768  2301 net.cpp:410] inception_3a/output <- inception_3a/3x3/bn
I0304 23:04:47.424785  2301 net.cpp:410] inception_3a/output <- inception_3a/double3x3b/bn
I0304 23:04:47.424757  2305 bn_data_layer.cpp:89] variance: 0 0 0
I0304 23:04:47.424765  2305 net.cpp:127] Top shape: 32 32 28 28 (802816)
I0304 23:04:47.424777  2305 layer_factory.hpp:74] Creating layer inception_3a/relu_pool_proj
I0304 23:04:47.424785  2305 net.cpp:90] Creating Layer inception_3a/relu_pool_proj
I0304 23:04:47.424788  2302 net.cpp:90] Creating Layer inception_3a/relu_pool_proj
I0304 23:04:47.424764  2303 bn_data_layer.cpp:60] scale: 1 1 1
I0304 23:04:47.424787  2303 bn_data_layer.cpp:71] shift: 0 0 0
I0304 23:04:47.424800  2303 bn_data_layer.cpp:80] mean: 0 0 0
I0304 23:04:47.424790  2301 net.cpp:410] inception_3a/output <- inception_3a/pool_proj/bn
I0304 23:04:47.424798  2301 net.cpp:368] inception_3a/output -> inception_3a/output
I0304 23:04:47.424808  2301 net.cpp:120] Setting up inception_3a/output
I0304 23:04:47.424790  2305 net.cpp:410] inception_3a/relu_pool_proj <- inception_3a/pool_proj/bn
I0304 23:04:47.424815  2305 net.cpp:357] inception_3a/relu_pool_proj -> inception_3a/pool_proj/bn (in-place)
I0304 23:04:47.424794  2302 net.cpp:410] inception_3a/relu_pool_proj <- inception_3a/pool_proj/bn
I0304 23:04:47.424818  2302 net.cpp:357] inception_3a/relu_pool_proj -> inception_3a/pool_proj/bn (in-place)
I0304 23:04:47.424811  2303 bn_data_layer.cpp:89] variance: 0 0 0
I0304 23:04:47.424821  2303 net.cpp:127] Top shape: 32 32 28 28 (802816)
I0304 23:04:47.424823  2301 net.cpp:127] Top shape: 32 256 28 28 (6422528)
I0304 23:04:47.424829  2301 layer_factory.hpp:74] Creating layer inception_3a/output_inception_3a/output_0_split
I0304 23:04:47.424835  2301 net.cpp:90] Creating Layer inception_3a/output_inception_3a/output_0_split
I0304 23:04:47.424840  2301 net.cpp:410] inception_3a/output_inception_3a/output_0_split <- inception_3a/output
I0304 23:04:47.424849  2301 net.cpp:368] inception_3a/output_inception_3a/output_0_split -> inception_3a/output_inception_3a/output_0_split_0
…
I0304 23:04:47.424865  2301 net.cpp:368] inception_3a/output_inception_3a/output_0_split -> inception_3a/output_inception_3a/output_0_split_2
I0304 23:04:47.424850  2303 net.cpp:410] inception_3a/relu_pool_proj <- inception_3a/pool_proj/bn
I0304 23:04:47.424873  2303 net.cpp:357] inception_3a/relu_pool_proj -> inception_3a/pool_proj/bn (in-place)
I0304 23:04:47.424885  2303 net.cpp:120] Setting up inception_3a/relu_pool_proj
I0304 23:04:47.424871  2301 net.cpp:368] inception_3a/output_inception_3a/output_0_split -> inception_3a/output_inception_3a/output_0_split_3
I0304 23:04:47.424877  2301 net.cpp:120] Setting up inception_3a/output_inception_3a/output_0_split
I0304 23:04:47.424887  2301 net.cpp:127] Top shape: 32 256 28 28 (6422528)
I0304 23:04:47.424893  2301 net.cpp:127] Top shape: 32 256 28 28 (6422528)
I0304 23:04:47.424898  2301 net.cpp:127] Top shape: 32 256 28 28 (6422528)
I0304 23:04:47.424902  2301 net.cpp:127] Top shape: 32 256 28 28 (6422528)
I0304 23:04:47.424907  2301 layer_factory.hpp:74] Creating layer inception_3b/1x1
I0304 23:04:47.424916  2301 net.cpp:90] Creating Layer inception_3b/1x1
I0304 23:04:47.424921  2301 net.cpp:410] inception_3b/1x1 <- inception_3a/output_inception_3a/output_0_split_0
I0304 23:04:47.424932  2301 net.cpp:368] inception_3b/1x1 -> inception_3b/1x1
I0304 23:04:47.424938  2301 net.cpp:120] Setting up inception_3b/1x1
I0304 23:04:47.425209  2305 net.cpp:127] Top shape: 32 32 28 28 (802816)
I0304 23:04:47.425225  2305 layer_factory.hpp:74] Creating layer inception_3a/output
I0304 23:04:47.425237  2305 net.cpp:90] Creating Layer inception_3a/output
I0304 23:04:47.425243  2305 net.cpp:410] inception_3a/output <- inception_3a/1x1/bn
I0304 23:04:47.425251  2305 net.cpp:410] inception_3a/output <- inception_3a/3x3/bn
I0304 23:04:47.425257  2305 net.cpp:410] inception_3a/output <- inception_3a/double3x3b/bn
I0304 23:04:47.425264  2305 net.cpp:410] inception_3a/output <- inception_3a/pool_proj/bn
I0304 23:04:47.425276  2305 net.cpp:368] inception_3a/output -> inception_3a/output
I0304 23:04:47.425287  2305 net.cpp:120] Setting up inception_3a/output
I0304 23:04:47.425308  2305 net.cpp:127] Top shape: 32 256 28 28 (6422528)
I0304 23:04:47.425314  2305 layer_factory.hpp:74] Creating layer inception_3a/output_inception_3a/output_0_split
I0304 23:04:47.425323  2305 net.cpp:90] Creating Layer inception_3a/output_inception_3a/output_0_split
I0304 23:04:47.425328  2305 net.cpp:410] inception_3a/output_inception_3a/output_0_split <- inception_3a/output
I0304 23:04:47.425335  2305 net.cpp:368] inception_3a/output_inception_3a/output_0_split -> inception_3a/output_inception_3a/output_0_split_0
I0304 23:04:47.425344  2305 net.cpp:368] inception_3a/output_inception_3a/output_0_split -> inception_3a/output_inception_3a/output_0_split_1
I0304 23:04:47.425333  2302 net.cpp:127] Top shape: 32 32 28 28 (802816)
I0304 23:04:47.425348  2302 layer_factory.hpp:74] Creating layer inception_3a/output
I0304 23:04:47.425353  2305 net.cpp:368] inception_3a/output_inception_3a/output_0_split -> inception_3a/output_inception_3a/output_0_split_2
I0304 23:04:47.425361  2305 net.cpp:368] inception_3a/output_inception_3a/output_0_split -> inception_3a/output_inception_3a/output_0_split_3
I0304 23:04:47.425360  2302 net.cpp:90] Creating Layer inception_3a/output
I0304 23:04:47.425366  2302 net.cpp:410] inception_3a/output <- inception_3a/1x1/bn
I0304 23:04:47.425374  2302 net.cpp:410] inception_3a/output <- inception_3a/3x3/bn
I0304 23:04:47.425369  2305 net.cpp:120] Setting up inception_3a/output_inception_3a/output_0_split
I0304 23:04:47.425377  2305 net.cpp:127] Top shape: 32 256 28 28 (6422528)
I0304 23:04:47.425384  2305 net.cpp:127] Top shape: 32 256 28 28 (6422528)
I0304 23:04:47.425381  2302 net.cpp:410] inception_3a/output <- inception_3a/double3x3b/bn
I0304 23:04:47.425389  2302 net.cpp:410] inception_3a/output <- inception_3a/pool_proj/bn
I0304 23:04:47.425396  2302 net.cpp:368] inception_3a/output -> inception_3a/output
I0304 23:04:47.425384  2303 net.cpp:127] Top shape: 32 32 28 28 (802816)
I0304 23:04:47.425390  2305 net.cpp:127] Top shape: 32 256 28 28 (6422528)
I0304 23:04:47.425395  2305 net.cpp:127] Top shape: 32 256 28 28 (6422528)
I0304 23:04:47.425400  2305 layer_factory.hpp:74] Creating layer inception_3b/1x1
I0304 23:04:47.425411  2305 net.cpp:90] Creating Layer inception_3b/1x1
I0304 23:04:47.425416  2305 net.cpp:410] inception_3b/1x1 <- inception_3a/output_inception_3a/output_0_split_0
I0304 23:04:47.425400  2303 layer_factory.hpp:74] Creating layer inception_3a/output
I0304 23:04:47.425412  2303 net.cpp:90] Creating Layer inception_3a/output
…
I0304 23:04:48.565269  2305 net.cpp:127] Top shape: 24 192 7 7 (225792)
I0304 23:04:48.565268  2303 bn_data_layer.cpp:60] scale: 1 1 1
I0304 23:04:48.565281  2302 layer_factory.hpp:74] Creating layer inception_5b/relu_3x3_reduce
I0304 23:04:48.565289  2302 net.cpp:90] Creating Layer inception_5b/relu_3x3_reduce
I0304 23:04:48.565295  2302 net.cpp:410] inception_5b/relu_3x3_reduce <- inception_5b/3x3_reduce/bn
I0304 23:04:48.565280  2305 layer_factory.hpp:74] Creating layer inception_5b/relu_3x3_reduce
I0304 23:04:48.565292  2305 net.cpp:90] Creating Layer inception_5b/relu_3x3_reduce
I0304 23:04:48.565299  2305 net.cpp:410] inception_5b/relu_3x3_reduce <- inception_5b/3x3_reduce/bn
I0304 23:04:48.565284  2303 bn_data_layer.cpp:71] shift: 0 0 0
I0304 23:04:48.565294  2303 bn_data_layer.cpp:80] mean: 0 0 0
I0304 23:04:48.565304  2302 net.cpp:357] inception_5b/relu_3x3_reduce -> inception_5b/3x3_reduce/bn (in-place)
I0304 23:04:48.565313  2302 net.cpp:120] Setting up inception_5b/relu_3x3_reduce
I0304 23:04:48.565305  2303 bn_data_layer.cpp:89] variance: 0 0 0
I0304 23:04:48.565316  2303 net.cpp:127] Top shape: 24 192 7 7 (225792)
I0304 23:04:48.565306  2305 net.cpp:357] inception_5b/relu_3x3_reduce -> inception_5b/3x3_reduce/bn (in-place)
I0304 23:04:48.565315  2305 net.cpp:120] Setting up inception_5b/relu_3x3_reduce
I0304 23:04:48.565330  2303 layer_factory.hpp:74] Creating layer inception_5b/relu_3x3_reduce
I0304 23:04:48.565338  2303 net.cpp:90] Creating Layer inception_5b/relu_3x3_reduce
I0304 23:04:48.565345  2303 net.cpp:410] inception_5b/relu_3x3_reduce <- inception_5b/3x3_reduce/bn
I0304 23:04:48.565352  2303 net.cpp:357] inception_5b/relu_3x3_reduce -> inception_5b/3x3_reduce/bn (in-place)
I0304 23:04:48.565361  2303 net.cpp:120] Setting up inception_5b/relu_3x3_reduce
I0304 23:04:48.565565  2302 net.cpp:127] Top shape: 24 192 7 7 (225792)
I0304 23:04:48.565577  2302 layer_factory.hpp:74] Creating layer inception_5b/3x3
I0304 23:04:48.565572  2305 net.cpp:127] Top shape: 24 192 7 7 (225792)
I0304 23:04:48.565583  2305 layer_factory.hpp:74] Creating layer inception_5b/3x3
I0304 23:04:48.565593  2305 net.cpp:90] Creating Layer inception_5b/3x3
I0304 23:04:48.565590  2302 net.cpp:90] Creating Layer inception_5b/3x3
I0304 23:04:48.565596  2302 net.cpp:410] inception_5b/3x3 <- inception_5b/3x3_reduce/bn
I0304 23:04:48.565600  2305 net.cpp:410] inception_5b/3x3 <- inception_5b/3x3_reduce/bn
I0304 23:04:48.565610  2305 net.cpp:368] inception_5b/3x3 -> inception_5b/3x3
I0304 23:04:48.565604  2302 net.cpp:368] inception_5b/3x3 -> inception_5b/3x3
I0304 23:04:48.565614  2302 net.cpp:120] Setting up inception_5b/3x3
I0304 23:04:48.565621  2305 net.cpp:120] Setting up inception_5b/3x3
I0304 23:04:48.565621  2303 net.cpp:127] Top shape: 24 192 7 7 (225792)
I0304 23:04:48.565632  2303 layer_factory.hpp:74] Creating layer inception_5b/3x3
I0304 23:04:48.565647  2303 net.cpp:90] Creating Layer inception_5b/3x3
I0304 23:04:48.565655  2303 net.cpp:410] inception_5b/3x3 <- inception_5b/3x3_reduce/bn
I0304 23:04:48.565665  2303 net.cpp:368] inception_5b/3x3 -> inception_5b/3x3
I0304 23:04:48.565675  2303 net.cpp:120] Setting up inception_5b/3x3
I0304 23:04:48.571568  2301 cudnn_conv_data_layer.cpp:184] Reallocating workspace storage: 7788
I0304 23:04:48.571635  2301 net.cpp:127] Top shape: 24 320 7 7 (376320)
I0304 23:04:48.571660  2301 layer_factory.hpp:74] Creating layer inception_5b/3x3/bn
I0304 23:04:48.571671  2301 net.cpp:90] Creating Layer inception_5b/3x3/bn
I0304 23:04:48.571688  2301 net.cpp:410] inception_5b/3x3/bn <- inception_5b/3x3
I0304 23:04:48.571699  2301 net.cpp:368] inception_5b/3x3/bn -> inception_5b/3x3/bn
I0304 23:04:48.571715  2301 net.cpp:120] Setting up inception_5b/3x3/bn
I0304 23:04:48.571737  2301 bn_data_layer.cpp:60] scale: 1 1 1
I0304 23:04:48.571753  2301 bn_data_layer.cpp:71] shift: 0 0 0
I0304 23:04:48.571766  2301 bn_data_layer.cpp:80] mean: 0 0 0
I0304 23:04:48.571775  2301 bn_data_layer.cpp:89] variance: 0 0 0
I0304 23:04:48.571784  2301 net.cpp:127] Top shape: 24 320 7 7 (376320)
I0304 23:04:48.571794  2301 layer_factory.hpp:74] Creating layer inception_5b/relu_3x3
I0304 23:04:48.571801  2301 net.cpp:90] Creating Layer inception_5b/relu_3x3
I0304 23:04:48.571806  2301 net.cpp:410] inception_5b/relu_3x3 <- inception_5b/3x3/bn
I0304 23:04:48.571815  2301 net.cpp:357] inception_5b/relu_3x3 -> inception_5b/3x3/bn (in-place)
I0304 23:04:48.571821  2301 net.cpp:120] Setting up inception_5b/relu_3x3
I0304 23:04:48.571914  2302 cudnn_conv_data_layer.cpp:184] Reallocating workspace storage: 7788
I0304 23:04:48.571954  2305 cudnn_conv_data_layer.cpp:184] Reallocating workspace storage: 7788
I0304 23:04:48.571979  2302 net.cpp:127] Top shape: 24 320 7 7 (376320)
I0304 23:04:48.571990  2302 layer_factory.hpp:74] Creating layer inception_5b/3x3/bn
I0304 23:04:48.572003  2302 net.cpp:90] Creating Layer inception_5b/3x3/bn
I0304 23:04:48.572010  2302 net.cpp:410] inception_5b/3x3/bn <- inception_5b/3x3
I0304 23:04:48.572018  2302 net.cpp:368] inception_5b/3x3/bn -> inception_5b/3x3/bn
I0304 23:04:48.572015  2305 net.cpp:127] Top shape: 24 320 7 7 (376320)
I0304 23:04:48.572026  2305 layer_factory.hpp:74] Creating layer inception_5b/3x3/bn
I0304 23:04:48.572029  2302 net.cpp:120] Setting up inception_5b/3x3/bn
I0304 23:04:48.572037  2301 net.cpp:127] Top shape: 24 320 7 7 (376320)
I0304 23:04:48.572046  2301 layer_factory.hpp:74] Creating layer inception_5b/double3x3_reduce
I0304 23:04:48.572054  2301 net.cpp:90] Creating Layer inception_5b/double3x3_reduce
I0304 23:04:48.572060  2301 net.cpp:410] inception_5b/double3x3_reduce <- inception_5a/output_inception_5a/output_0_split_2
I0304 23:04:48.572043  2305 net.cpp:90] Creating Layer inception_5b/3x3/bn
I0304 23:04:48.572051  2305 net.cpp:410] inception_5b/3x3/bn <- inception_5b/3x3
I0304 23:04:48.572058  2302 bn_data_layer.cpp:60] scale: 1 1 1
I0304 23:04:48.572049  2303 cudnn_conv_data_layer.cpp:184] Reallocating workspace storage: 7788
I0304 23:04:48.572064  2305 net.cpp:368] inception_5b/3x3/bn -> inception_5b/3x3/bn
I0304 23:04:48.572075  2305 net.cpp:120] Setting up inception_5b/3x3/bn
I0304 23:04:48.572082  2302 bn_data_layer.cpp:71] shift: 0 0 0
I0304 23:04:48.572098  2302 bn_data_layer.cpp:80] mean: 0 0 0
I0304 23:04:48.572070  2301 net.cpp:368] inception_5b/double3x3_reduce -> inception_5b/double3x3_reduce
I0304 23:04:48.572087  2301 net.cpp:120] Setting up inception_5b/double3x3_reduce
I0304 23:04:48.572111  2302 bn_data_layer.cpp:89] variance: 0 0 0
I0304 23:04:48.572121  2302 net.cpp:127] Top shape: 24 320 7 7 (376320)
I0304 23:04:48.572096  2305 bn_data_layer.cpp:60] scale: 1 1 1
I0304 23:04:48.572111  2305 bn_data_layer.cpp:71] shift: 0 0 0
I0304 23:04:48.572119  2303 net.cpp:127] Top shape: 24 320 7 7 (376320)
I0304 23:04:48.572130  2303 layer_factory.hpp:74] Creating layer inception_5b/3x3/bn
I0304 23:04:48.572124  2305 bn_data_layer.cpp:80] mean: 0 0 0
I0304 23:04:48.572134  2305 bn_data_layer.cpp:89] variance: 0 0 0
I0304 23:04:48.572142  2305 net.cpp:127] Top shape: 24 320 7 7 (376320)
I0304 23:04:48.572149  2303 net.cpp:90] Creating Layer inception_5b/3x3/bn
I0304 23:04:48.572159  2303 net.cpp:410] inception_5b/3x3/bn <- inception_5b/3x3
I0304 23:04:48.572132  2302 layer_factory.hpp:74] Creating layer inception_5b/relu_3x3
I0304 23:04:48.572140  2302 net.cpp:90] Creating Layer inception_5b/relu_3x3
I0304 23:04:48.572146  2302 net.cpp:410] inception_5b/relu_3x3 <- inception_5b/3x3/bn
I0304 23:04:48.572156  2302 net.cpp:357] inception_5b/relu_3x3 -> inception_5b/3x3/bn (in-place)
I0304 23:04:48.572165  2302 net.cpp:120] Setting up inception_5b/relu_3x3
I0304 23:04:48.572156  2305 layer_factory.hpp:74] Creating layer inception_5b/relu_3x3
I0304 23:04:48.572165  2305 net.cpp:90] Creating Layer inception_5b/relu_3x3
I0304 23:04:48.572170  2305 net.cpp:410] inception_5b/relu_3x3 <- inception_5b/3x3/bn
I0304 23:04:48.572180  2305 net.cpp:357] inception_5b/relu_3x3 -> inception_5b/3x3/bn (in-place)
I0304 23:04:48.572187  2305 net.cpp:120] Setting up inception_5b/relu_3x3
I0304 23:04:48.572170  2303 net.cpp:368] inception_5b/3x3/bn -> inception_5b/3x3/bn
I0304 23:04:48.572181  2303 net.cpp:120] Setting up inception_5b/3x3/bn
I0304 23:04:48.572202  2303 bn_data_layer.cpp:60] scale: 1 1 1
I0304 23:04:48.572218  2303 bn_data_layer.cpp:71] shift: 0 0 0
I0304 23:04:48.572229  2303 bn_data_layer.cpp:80] mean: 0 0 0
I0304 23:04:48.572242  2303 bn_data_layer.cpp:89] variance: 0 0 0
I0304 23:04:48.572252  2303 net.cpp:127] Top shape: 24 320 7 7 (376320)
I0304 23:04:48.572264  2303 layer_factory.hpp:74] Creating layer inception_5b/relu_3x3
I0304 23:04:48.572273  2303 net.cpp:90] Creating Layer inception_5b/relu_3x3
I0304 23:04:48.572278  2303 net.cpp:410] inception_5b/relu_3x3 <- inception_5b/3x3/bn
I0304 23:04:48.572286  2303 net.cpp:357] inception_5b/relu_3x3 -> inception_5b/3x3/bn (in-place)
I0304 23:04:48.572294  2303 net.cpp:120] Setting up inception_5b/relu_3x3
I0304 23:04:48.572417  2302 net.cpp:127] Top shape: 24 320 7 7 (376320)
I0304 23:04:48.572428  2302 layer_factory.hpp:74] Creating layer inception_5b/double3x3_reduce
I0304 23:04:48.572438  2302 net.cpp:90] Creating Layer inception_5b/double3x3_reduce
I0304 23:04:48.572445  2302 net.cpp:410] inception_5b/double3x3_reduce <- inception_5a/output_inception_5a/output_0_split_2
I0304 23:04:48.572438  2305 net.cpp:127] Top shape: 24 320 7 7 (376320)
I0304 23:04:48.572449  2305 layer_factory.hpp:74] Creating layer inception_5b/double3x3_reduce
I0304 23:04:48.572460  2305 net.cpp:90] Creating Layer inception_5b/double3x3_reduce
I0304 23:04:48.572468  2305 net.cpp:410] inception_5b/double3x3_reduce <- inception_5a/output_inception_5a/output_0_split_2
I0304 23:04:48.572456  2302 net.cpp:368] inception_5b/double3x3_reduce -> inception_5b/double3x3_reduce
I0304 23:04:48.572465  2302 net.cpp:120] Setting up inception_5b/double3x3_reduce
I0304 23:04:48.572476  2305 net.cpp:368] inception_5b/double3x3_reduce -> inception_5b/double3x3_reduce
I0304 23:04:48.572486  2305 net.cpp:120] Setting up inception_5b/double3x3_reduce
I0304 23:04:48.572545  2303 net.cpp:127] Top shape: 24 320 7 7 (376320)
I0304 23:04:48.572558  2303 layer_factory.hpp:74] Creating layer inception_5b/double3x3_reduce
I0304 23:04:48.572571  2303 net.cpp:90] Creating Layer inception_5b/double3x3_reduce
I0304 23:04:48.572578  2303 net.cpp:410] inception_5b/double3x3_reduce <- inception_5a/output_inception_5a/output_0_split_2
I0304 23:04:48.572590  2303 net.cpp:368] inception_5b/double3x3_reduce -> inception_5b/double3x3_reduce
I0304 23:04:48.572600  2303 net.cpp:120] Setting up inception_5b/double3x3_reduce
I0304 23:04:48.575214  2301 cudnn_conv_data_layer.cpp:184] Reallocating workspace storage: 14450688
I0304 23:04:48.575444  2301 net.cpp:127] Top shape: 24 192 7 7 (225792)
I0304 23:04:48.575471  2301 layer_factory.hpp:74] Creating layer inception_5b/double3x3_reduce/bn
I0304 23:04:48.575484  2301 net.cpp:90] Creating Layer inception_5b/double3x3_reduce/bn
I0304 23:04:48.575491  2301 net.cpp:410] inception_5b/double3x3_reduce/bn <- inception_5b/double3x3_reduce
I0304 23:04:48.575500  2301 net.cpp:368] inception_5b/double3x3_reduce/bn -> inception_5b/double3x3_reduce/bn
I0304 23:04:48.575508  2301 net.cpp:120] Setting up inception_5b/double3x3_reduce/bn
I0304 23:04:48.575531  2301 bn_data_layer.cpp:60] scale: 1 1 1
I0304 23:04:48.575543  2301 bn_data_layer.cpp:71] shift: 0 0 0
I0304 23:04:48.575553  2301 bn_data_layer.cpp:80] mean: 0 0 0
I0304 23:04:48.575565  2301 bn_data_layer.cpp:89] variance: 0 0 0
I0304 23:04:48.575574  2301 net.cpp:127] Top shape: 24 192 7 7 (225792)
I0304 23:04:48.575585  2301 layer_factory.hpp:74] Creating layer inception_5b/relu_double3x3_reduce
I0304 23:04:48.575592  2301 net.cpp:90] Creating Layer inception_5b/relu_double3x3_reduce
I0304 23:04:48.575598  2301 net.cpp:410] inception_5b/relu_double3x3_reduce <- inception_5b/double3x3_reduce/bn
I0304 23:04:48.575603  2301 net.cpp:357] inception_5b/relu_double3x3_reduce -> inception_5b/double3x3_reduce/bn (in-place)
I0304 23:04:48.575610  2301 net.cpp:120] Setting up inception_5b/relu_double3x3_reduce
I0304 23:04:48.575593  2305 cudnn_conv_data_layer.cpp:184] Reallocating workspace storage: 14450688
I0304 23:04:48.575685  2302 cudnn_conv_data_layer.cpp:184] Reallocating workspace storage: 14450688
I0304 23:04:48.575734  2303 cudnn_conv_data_layer.cpp:184] Reallocating workspace storage: 14450688
I0304 23:04:48.575767  2305 net.cpp:127] Top shape: 24 192 7 7 (225792)
I0304 23:04:48.575795  2305 layer_factory.hpp:74] Creating layer inception_5b/double3x3_reduce/bn
I0304 23:04:48.575809  2305 net.cpp:90] Creating Layer inception_5b/double3x3_reduce/bn
I0304 23:04:48.575817  2305 net.cpp:410] inception_5b/double3x3_reduce/bn <- inception_5b/double3x3_reduce
I0304 23:04:48.575829  2305 net.cpp:368] inception_5b/double3x3_reduce/bn -> inception_5b/double3x3_reduce/bn
I0304 23:04:48.575841  2305 net.cpp:120] Setting up inception_5b/double3x3_reduce/bn
I0304 23:04:48.576016  2302 net.cpp:127] Top shape: 24 192 7 7 (225792)
I0304 23:04:48.576050  2302 layer_factory.hpp:74] Creating layer inception_5b/double3x3_reduce/bn
I0304 23:04:48.576066  2302 net.cpp:90] Creating Layer inception_5b/double3x3_reduce/bn
I0304 23:04:48.576073  2302 net.cpp:410] inception_5b/double3x3_reduce/bn <- inception_5b/double3x3_reduce
I0304 23:04:48.576055  2301 net.cpp:127] Top shape: 24 192 7 7 (225792)
I0304 23:04:48.576066  2301 layer_factory.hpp:74] Creating layer inception_5b/double3x3a
I0304 23:04:48.576077  2301 net.cpp:90] Creating Layer inception_5b/double3x3a
I0304 23:04:48.576083  2301 net.cpp:410] inception_5b/double3x3a <- inception_5b/double3x3_reduce/bn
I0304 23:04:48.576091  2301 net.cpp:368] inception_5b/double3x3a -> inception_5b/double3x3a
I0304 23:04:48.576099  2301 net.cpp:120] Setting up inception_5b/double3x3a
I0304 23:04:48.576084  2302 net.cpp:368] inception_5b/double3x3_reduce/bn -> inception_5b/double3x3_reduce/bn
I0304 23:04:48.576097  2302 net.cpp:120] Setting up inception_5b/double3x3_reduce/bn
I0304 23:04:48.576079  2303 net.cpp:127] Top shape: 24 192 7 7 (225792)
I0304 23:04:48.576107  2303 layer_factory.hpp:74] Creating layer inception_5b/double3x3_reduce/bn
I0304 23:04:48.576119  2303 net.cpp:90] Creating Layer inception_5b/double3x3_reduce/bn
I0304 23:04:48.576127  2303 net.cpp:410] inception_5b/double3x3_reduce/bn <- inception_5b/double3x3_reduce
I0304 23:04:48.576120  2302 bn_data_layer.cpp:60] scale: 1 1 1
I0304 23:04:48.576122  2305 bn_data_layer.cpp:60] scale: 1 1 1
I0304 23:04:48.576139  2303 net.cpp:368] inception_5b/double3x3_reduce/bn -> inception_5b/double3x3_reduce/bn
I0304 23:04:48.576138  2302 bn_data_layer.cpp:71] shift: 0 0 0
I0304 23:04:48.576138  2305 bn_data_layer.cpp:71] shift: 0 0 0
I0304 23:04:48.576150  2305 bn_data_layer.cpp:80] mean: 0 0 0
I0304 23:04:48.576150  2302 bn_data_layer.cpp:80] mean: 0 0 0
I0304 23:04:48.576153  2303 net.cpp:120] Setting up inception_5b/double3x3_reduce/bn
I0304 23:04:48.576164  2305 bn_data_layer.cpp:89] variance: 0 0 0
I0304 23:04:48.576164  2302 bn_data_layer.cpp:89] variance: 0 0 0
I0304 23:04:48.576174  2305 net.cpp:127] Top shape: 24 192 7 7 (225792)
I0304 23:04:48.576174  2302 net.cpp:127] Top shape: 24 192 7 7 (225792)
I0304 23:04:48.576179  2303 bn_data_layer.cpp:60] scale: 1 1 1
I0304 23:04:48.576185  2302 layer_factory.hpp:74] Creating layer inception_5b/relu_double3x3_reduce
I0304 23:04:48.576187  2305 layer_factory.hpp:74] Creating layer inception_5b/relu_double3x3_reduce
I0304 23:04:48.576195  2305 net.cpp:90] Creating Layer inception_5b/relu_double3x3_reduce
I0304 23:04:48.576194  2302 net.cpp:90] Creating Layer inception_5b/relu_double3x3_reduce
I0304 23:04:48.576200  2302 net.cpp:410] inception_5b/relu_double3x3_reduce <- inception_5b/double3x3_reduce/bn
I0304 23:04:48.576200  2303 bn_data_layer.cpp:71] shift: 0 0 0
I0304 23:04:48.576201  2305 net.cpp:410] inception_5b/relu_double3x3_reduce <- inception_5b/double3x3_reduce/bn
I0304 23:04:48.576210  2305 net.cpp:357] inception_5b/relu_double3x3_reduce -> inception_5b/double3x3_reduce/bn (in-place)
I0304 23:04:48.576208  2302 net.cpp:357] inception_5b/relu_double3x3_reduce -> inception_5b/double3x3_reduce/bn (in-place)
I0304 23:04:48.576217  2305 net.cpp:120] Setting up inception_5b/relu_double3x3_reduce
I0304 23:04:48.576210  2303 bn_data_layer.cpp:80] mean: 0 0 0
I0304 23:04:48.576217  2302 net.cpp:120] Setting up inception_5b/relu_double3x3_reduce
I0304 23:04:48.576222  2303 bn_data_layer.cpp:89] variance: 0 0 0
I0304 23:04:48.576232  2303 net.cpp:127] Top shape: 24 192 7 7 (225792)
I0304 23:04:48.576243  2303 layer_factory.hpp:74] Creating layer inception_5b/relu_double3x3_reduce
I0304 23:04:48.576251  2303 net.cpp:90] Creating Layer inception_5b/relu_double3x3_reduce
I0304 23:04:48.576257  2303 net.cpp:410] inception_5b/relu_double3x3_reduce <- inception_5b/double3x3_reduce/bn
I0304 23:04:48.576267  2303 net.cpp:357] inception_5b/relu_double3x3_reduce -> inception_5b/double3x3_reduce/bn (in-place)
I0304 23:04:48.576277  2303 net.cpp:120] Setting up inception_5b/relu_double3x3_reduce
I0304 23:04:48.576694  2302 net.cpp:127] Top shape: 24 192 7 7 (225792)
I0304 23:04:48.576712  2302 layer_factory.hpp:74] Creating layer inception_5b/double3x3a
I0304 23:04:48.576725  2302 net.cpp:90] Creating Layer inception_5b/double3x3a
I0304 23:04:48.576732  2302 net.cpp:410] inception_5b/double3x3a <- inception_5b/double3x3_reduce/bn
I0304 23:04:48.576741  2302 net.cpp:368] inception_5b/double3x3a -> inception_5b/double3x3a
I0304 23:04:48.576751  2302 net.cpp:120] Setting up inception_5b/double3x3a
I0304 23:04:48.576799  2305 net.cpp:127] Top shape: 24 192 7 7 (225792)
I0304 23:04:48.576830  2305 layer_factory.hpp:74] Creating layer inception_5b/double3x3a
I0304 23:04:48.576843  2305 net.cpp:90] Creating Layer inception_5b/double3x3a
I0304 23:04:48.576850  2305 net.cpp:410] inception_5b/double3x3a <- inception_5b/double3x3_reduce/bn
I0304 23:04:48.576859  2305 net.cpp:368] inception_5b/double3x3a -> inception_5b/double3x3a
I0304 23:04:48.576869  2305 net.cpp:120] Setting up inception_5b/double3x3a
I0304 23:04:48.576858  2303 net.cpp:127] Top shape: 24 192 7 7 (225792)
I0304 23:04:48.576871  2303 layer_factory.hpp:74] Creating layer inception_5b/double3x3a
I0304 23:04:48.576881  2303 net.cpp:90] Creating Layer inception_5b/double3x3a
I0304 23:04:48.576889  2303 net.cpp:410] inception_5b/double3x3a <- inception_5b/double3x3_reduce/bn
I0304 23:04:48.576900  2303 net.cpp:368] inception_5b/double3x3a -> inception_5b/double3x3a
I0304 23:04:48.576910  2303 net.cpp:120] Setting up inception_5b/double3x3a
I0304 23:04:48.580819  2301 cudnn_conv_data_layer.cpp:184] Reallocating workspace storage: 7788
I0304 23:04:48.580883  2301 net.cpp:127] Top shape: 24 224 7 7 (263424)
I0304 23:04:48.580890  2301 layer_factory.hpp:74] Creating layer inception_5b/double3x3a/bn
I0304 23:04:48.580914  2301 net.cpp:90] Creating Layer inception_5b/double3x3a/bn
I0304 23:04:48.580920  2301 net.cpp:410] inception_5b/double3x3a/bn <- inception_5b/double3x3a
I0304 23:04:48.580941  2301 net.cpp:368] inception_5b/double3x3a/bn -> inception_5b/double3x3a/bn
I0304 23:04:48.580951  2301 net.cpp:120] Setting up inception_5b/double3x3a/bn
I0304 23:04:48.580982  2301 bn_data_layer.cpp:60] scale: 1 1 1
I0304 23:04:48.580998  2301 bn_data_layer.cpp:71] shift: 0 0 0
I0304 23:04:48.581012  2301 bn_data_layer.cpp:80] mean: 0 0 0
I0304 23:04:48.581020  2301 bn_data_layer.cpp:89] variance: 0 0 0
I0304 23:04:48.581028  2301 net.cpp:127] Top shape: 24 224 7 7 (263424)
I0304 23:04:48.581040  2301 layer_factory.hpp:74] Creating layer inception_5b/relu_double3x3a
I0304 23:04:48.581048  2301 net.cpp:90] Creating Layer inception_5b/relu_double3x3a
I0304 23:04:48.581053  2301 net.cpp:410] inception_5b/relu_double3x3a <- inception_5b/double3x3a/bn
I0304 23:04:48.581060  2301 net.cpp:357] inception_5b/relu_double3x3a -> inception_5b/double3x3a/bn (in-place)
I0304 23:04:48.581068  2301 net.cpp:120] Setting up inception_5b/relu_double3x3a
I0304 23:04:48.581153  2302 cudnn_conv_data_layer.cpp:184] Reallocating workspace storage: 7788
I0304 23:04:48.581213  2302 net.cpp:127] Top shape: 24 224 7 7 (263424)
I0304 23:04:48.581224  2302 layer_factory.hpp:74] Creating layer inception_5b/double3x3a/bn
I0304 23:04:48.581239  2302 net.cpp:90] Creating Layer inception_5b/double3x3a/bn
I0304 23:04:48.581246  2302 net.cpp:410] inception_5b/double3x3a/bn <- inception_5b/double3x3a
I0304 23:04:48.581257  2302 net.cpp:368] inception_5b/double3x3a/bn -> inception_5b/double3x3a/bn
I0304 23:04:48.581269  2302 net.cpp:120] Setting up inception_5b/double3x3a/bn
I0304 23:04:48.581291  2302 bn_data_layer.cpp:60] scale: 1 1 1
I0304 23:04:48.581286  2301 net.cpp:127] Top shape: 24 224 7 7 (263424)
I0304 23:04:48.581296  2301 layer_factory.hpp:74] Creating layer inception_5b/double3x3b
I0304 23:04:48.581315  2301 net.cpp:90] Creating Layer inception_5b/double3x3b
I0304 23:04:48.581321  2301 net.cpp:410] inception_5b/double3x3b <- inception_5b/double3x3a/bn
I0304 23:04:48.581326  2301 net.cpp:368] inception_5b/double3x3b -> inception_5b/double3x3b
I0304 23:04:48.581336  2301 net.cpp:120] Setting up inception_5b/double3x3b
I0304 23:04:48.581316  2302 bn_data_layer.cpp:71] shift: 0 0 0
I0304 23:04:48.581331  2302 bn_data_layer.cpp:80] mean: 0 0 0
I0304 23:04:48.581315  2305 cudnn_conv_data_layer.cpp:184] Reallocating workspace storage: 7788
I0304 23:04:48.581343  2302 bn_data_layer.cpp:89] variance: 0 0 0
I0304 23:04:48.581353  2302 net.cpp:127] Top shape: 24 224 7 7 (263424)
I0304 23:04:48.581365  2302 layer_factory.hpp:74] Creating layer inception_5b/relu_double3x3a
I0304 23:04:48.581375  2302 net.cpp:90] Creating Layer inception_5b/relu_double3x3a
I0304 23:04:48.581374  2305 net.cpp:127] Top shape: 24 224 7 7 (263424)
I0304 23:04:48.581387  2305 layer_factory.hpp:74] Creating layer inception_5b/double3x3a/bn
I0304 23:04:48.581382  2302 net.cpp:410] inception_5b/relu_double3x3a <- inception_5b/double3x3a/bn
I0304 23:04:48.581389  2302 net.cpp:357] inception_5b/relu_double3x3a -> inception_5b/double3x3a/bn (in-place)
I0304 23:04:48.581398  2302 net.cpp:120] Setting up inception_5b/relu_double3x3a
I0304 23:04:48.581373  2303 cudnn_conv_data_layer.cpp:184] Reallocating workspace storage: 7788
I0304 23:04:48.581400  2305 net.cpp:90] Creating Layer inception_5b/double3x3a/bn
I0304 23:04:48.581408  2305 net.cpp:410] inception_5b/double3x3a/bn <- inception_5b/double3x3a
I0304 23:04:48.581419  2305 net.cpp:368] inception_5b/double3x3a/bn -> inception_5b/double3x3a/bn
I0304 23:04:48.581430  2305 net.cpp:120] Setting up inception_5b/double3x3a/bn
I0304 23:04:48.581436  2303 net.cpp:127] Top shape: 24 224 7 7 (263424)
I0304 23:04:48.581449  2303 layer_factory.hpp:74] Creating layer inception_5b/double3x3a/bn
I0304 23:04:48.581451  2305 bn_data_layer.cpp:60] scale: 1 1 1
I0304 23:04:48.581465  2305 bn_data_layer.cpp:71] shift: 0 0 0
I0304 23:04:48.581461  2303 net.cpp:90] Creating Layer inception_5b/double3x3a/bn
I0304 23:04:48.581470  2303 net.cpp:410] inception_5b/double3x3a/bn <- inception_5b/double3x3a
I0304 23:04:48.581476  2305 bn_data_layer.cpp:80] mean: 0 0 0
I0304 23:04:48.581486  2305 bn_data_layer.cpp:89] variance: 0 0 0
I0304 23:04:48.581478  2303 net.cpp:368] inception_5b/double3x3a/bn -> inception_5b/double3x3a/bn
I0304 23:04:48.581490  2303 net.cpp:120] Setting up inception_5b/double3x3a/bn
I0304 23:04:48.581497  2305 net.cpp:127] Top shape: 24 224 7 7 (263424)
I0304 23:04:48.581509  2305 layer_factory.hpp:74] Creating layer inception_5b/relu_double3x3a
I0304 23:04:48.581517  2305 net.cpp:90] Creating Layer inception_5b/relu_double3x3a
I0304 23:04:48.581523  2305 net.cpp:410] inception_5b/relu_double3x3a <- inception_5b/double3x3a/bn
I0304 23:04:48.581512  2303 bn_data_layer.cpp:60] scale: 1 1 1
I0304 23:04:48.581529  2303 bn_data_layer.cpp:71] shift: 0 0 0
I0304 23:04:48.581532  2305 net.cpp:357] inception_5b/relu_double3x3a -> inception_5b/double3x3a/bn (in-place)
I0304 23:04:48.581540  2305 net.cpp:120] Setting up inception_5b/relu_double3x3a
I0304 23:04:48.581540  2303 bn_data_layer.cpp:80] mean: 0 0 0
I0304 23:04:48.581552  2303 bn_data_layer.cpp:89] variance: 0 0 0
I0304 23:04:48.581562  2303 net.cpp:127] Top shape: 24 224 7 7 (263424)
I0304 23:04:48.581576  2303 layer_factory.hpp:74] Creating layer inception_5b/relu_double3x3a
I0304 23:04:48.581584  2303 net.cpp:90] Creating Layer inception_5b/relu_double3x3a
I0304 23:04:48.581590  2303 net.cpp:410] inception_5b/relu_double3x3a <- inception_5b/double3x3a/bn
I0304 23:04:48.581598  2303 net.cpp:357] inception_5b/relu_double3x3a -> inception_5b/double3x3a/bn (in-place)
I0304 23:04:48.581607  2303 net.cpp:120] Setting up inception_5b/relu_double3x3a
I0304 23:04:48.581650  2302 net.cpp:127] Top shape: 24 224 7 7 (263424)
I0304 23:04:48.581662  2302 layer_factory.hpp:74] Creating layer inception_5b/double3x3b
I0304 23:04:48.581672  2302 net.cpp:90] Creating Layer inception_5b/double3x3b
I0304 23:04:48.581678  2302 net.cpp:410] inception_5b/double3x3b <- inception_5b/double3x3a/bn
I0304 23:04:48.581688  2302 net.cpp:368] inception_5b/double3x3b -> inception_5b/double3x3b
I0304 23:04:48.581698  2302 net.cpp:120] Setting up inception_5b/double3x3b
I0304 23:04:48.581801  2305 net.cpp:127] Top shape: 24 224 7 7 (263424)
I0304 23:04:48.581815  2305 layer_factory.hpp:74] Creating layer inception_5b/double3x3b
I0304 23:04:48.581828  2305 net.cpp:90] Creating Layer inception_5b/double3x3b
I0304 23:04:48.581835  2305 net.cpp:410] inception_5b/double3x3b <- inception_5b/double3x3a/bn
I0304 23:04:48.581843  2305 net.cpp:368] inception_5b/double3x3b -> inception_5b/double3x3b
I0304 23:04:48.581853  2305 net.cpp:120] Setting up inception_5b/double3x3b
I0304 23:04:48.581873  2303 net.cpp:127] Top shape: 24 224 7 7 (263424)
I0304 23:04:48.581884  2303 layer_factory.hpp:74] Creating layer inception_5b/double3x3b
I0304 23:04:48.581897  2303 net.cpp:90] Creating Layer inception_5b/double3x3b
I0304 23:04:48.581904  2303 net.cpp:410] inception_5b/double3x3b <- inception_5b/double3x3a/bn
I0304 23:04:48.581914  2303 net.cpp:368] inception_5b/double3x3b -> inception_5b/double3x3b
I0304 23:04:48.581925  2303 net.cpp:120] Setting up inception_5b/double3x3b
I0304 23:04:48.586618  2301 cudnn_conv_data_layer.cpp:184] Reallocating workspace storage: 7788
I0304 23:04:48.586678  2301 net.cpp:127] Top shape: 24 224 7 7 (263424)
I0304 23:04:48.586686  2301 layer_factory.hpp:74] Creating layer inception_5b/double3x3b/bn
I0304 23:04:48.586709  2301 net.cpp:90] Creating Layer inception_5b/double3x3b/bn
I0304 23:04:48.586741  2301 net.cpp:410] inception_5b/double3x3b/bn <- inception_5b/double3x3b
I0304 23:04:48.586755  2301 net.cpp:368] inception_5b/double3x3b/bn -> inception_5b/double3x3b/bn
I0304 23:04:48.586766  2301 net.cpp:120] Setting up inception_5b/double3x3b/bn
I0304 23:04:48.586786  2301 bn_data_layer.cpp:60] scale: 1 1 1
I0304 23:04:48.586803  2301 bn_data_layer.cpp:71] shift: 0 0 0
I0304 23:04:48.586818  2301 bn_data_layer.cpp:80] mean: 0 0 0
I0304 23:04:48.586830  2301 bn_data_layer.cpp:89] variance: 0 0 0
I0304 23:04:48.586838  2301 net.cpp:127] Top shape: 24 224 7 7 (263424)
I0304 23:04:48.586848  2301 layer_factory.hpp:74] Creating layer inception_5b/relu_double3x3b
I0304 23:04:48.586855  2301 net.cpp:90] Creating Layer inception_5b/relu_double3x3b
I0304 23:04:48.586863  2301 net.cpp:410] inception_5b/relu_double3x3b <- inception_5b/double3x3b/bn
I0304 23:04:48.586869  2301 net.cpp:357] inception_5b/relu_double3x3b -> inception_5b/double3x3b/bn (in-place)
I0304 23:04:48.586875  2301 net.cpp:120] Setting up inception_5b/relu_double3x3b
I0304 23:04:48.586987  2302 cudnn_conv_data_layer.cpp:184] Reallocating workspace storage: 7788
I0304 23:04:48.587047  2302 net.cpp:127] Top shape: 24 224 7 7 (263424)
I0304 23:04:48.587059  2302 layer_factory.hpp:74] Creating layer inception_5b/double3x3b/bn
I0304 23:04:48.587100  2301 net.cpp:127] Top shape: 24 224 7 7 (263424)
I0304 23:04:48.587113  2301 layer_factory.hpp:74] Creating layer inception_5b/pool
I0304 23:04:48.587121  2301 layer_factory.cpp:85] CUDNN does not support padding or multiple tops. Using Caffe's own pooling layer.
I0304 23:04:48.587071  2302 net.cpp:90] Creating Layer inception_5b/double3x3b/bn
I0304 23:04:48.587115  2302 net.cpp:410] inception_5b/double3x3b/bn <- inception_5b/double3x3b
I0304 23:04:48.587127  2302 net.cpp:368] inception_5b/double3x3b/bn -> inception_5b/double3x3b/bn
I0304 23:04:48.587139  2302 net.cpp:120] Setting up inception_5b/double3x3b/bn
I0304 23:04:48.587129  2301 net.cpp:90] Creating Layer inception_5b/pool
I0304 23:04:48.587136  2301 net.cpp:410] inception_5b/pool <- inception_5a/output_inception_5a/output_0_split_3
I0304 23:04:48.587142  2301 net.cpp:368] inception_5b/pool -> inception_5b/pool
I0304 23:04:48.587151  2301 net.cpp:120] Setting up inception_5b/pool
I0304 23:04:48.587162  2301 net.cpp:127] Top shape: 24 1024 7 7 (1204224)
I0304 23:04:48.587152  2305 cudnn_conv_data_layer.cpp:184] Reallocating workspace storage: 7788
I0304 23:04:48.587160  2302 bn_data_layer.cpp:60] scale: 1 1 1
I0304 23:04:48.587167  2301 layer_factory.hpp:74] Creating layer inception_5b/pool_proj
I0304 23:04:48.587174  2301 net.cpp:90] Creating Layer inception_5b/pool_proj
I0304 23:04:48.587179  2301 net.cpp:410] inception_5b/pool_proj <- inception_5b/pool
I0304 23:04:48.587187  2301 net.cpp:368] inception_5b/pool_proj -> inception_5b/pool_proj
I0304 23:04:48.587204  2301 net.cpp:120] Setting up inception_5b/pool_proj
I0304 23:04:48.587179  2302 bn_data_layer.cpp:71] shift: 0 0 0
I0304 23:04:48.587199  2302 bn_data_layer.cpp:80] mean: 0 0 0
I0304 23:04:48.587211  2302 bn_data_layer.cpp:89] variance: 0 0 0
I0304 23:04:48.587220  2302 net.cpp:127] Top shape: 24 224 7 7 (263424)
I0304 23:04:48.587205  2305 net.cpp:127] Top shape: 24 224 7 7 (263424)
I0304 23:04:48.587216  2305 layer_factory.hpp:74] Creating layer inception_5b/double3x3b/bn
I0304 23:04:48.587213  2303 cudnn_conv_data_layer.cpp:184] Reallocating workspace storage: 7788
I0304 23:04:48.587230  2305 net.cpp:90] Creating Layer inception_5b/double3x3b/bn
I0304 23:04:48.587251  2305 net.cpp:410] inception_5b/double3x3b/bn <- inception_5b/double3x3b
I0304 23:04:48.587231  2302 layer_factory.hpp:74] Creating layer inception_5b/relu_double3x3b
I0304 23:04:48.587242  2302 net.cpp:90] Creating Layer inception_5b/relu_double3x3b
I0304 23:04:48.587249  2302 net.cpp:410] inception_5b/relu_double3x3b <- inception_5b/double3x3b/bn
I0304 23:04:48.587255  2302 net.cpp:357] inception_5b/relu_double3x3b -> inception_5b/double3x3b/bn (in-place)
I0304 23:04:48.587265  2302 net.cpp:120] Setting up inception_5b/relu_double3x3b
I0304 23:04:48.587265  2305 net.cpp:368] inception_5b/double3x3b/bn -> inception_5b/double3x3b/bn
I0304 23:04:48.587276  2305 net.cpp:120] Setting up inception_5b/double3x3b/bn
I0304 23:04:48.587271  2303 net.cpp:127] Top shape: 24 224 7 7 (263424)
I0304 23:04:48.587282  2303 layer_factory.hpp:74] Creating layer inception_5b/double3x3b/bn
I0304 23:04:48.587298  2305 bn_data_layer.cpp:60] scale: 1 1 1
I0304 23:04:48.587313  2305 bn_data_layer.cpp:71] shift: 0 0 0
I0304 23:04:48.587296  2303 net.cpp:90] Creating Layer inception_5b/double3x3b/bn
I0304 23:04:48.587318  2303 net.cpp:410] inception_5b/double3x3b/bn <- inception_5b/double3x3b
I0304 23:04:48.587324  2305 bn_data_layer.cpp:80] mean: 0 0 0
I0304 23:04:48.587332  2303 net.cpp:368] inception_5b/double3x3b/bn -> inception_5b/double3x3b/bn
I0304 23:04:48.587344  2303 net.cpp:120] Setting up inception_5b/double3x3b/bn
I0304 23:04:48.587335  2305 bn_data_layer.cpp:89] variance: 0 0 0
I0304 23:04:48.587347  2305 net.cpp:127] Top shape: 24 224 7 7 (263424)
I0304 23:04:48.587358  2305 layer_factory.hpp:74] Creating layer inception_5b/relu_double3x3b
I0304 23:04:48.587368  2305 net.cpp:90] Creating Layer inception_5b/relu_double3x3b
I0304 23:04:48.587365  2303 bn_data_layer.cpp:60] scale: 1 1 1
I0304 23:04:48.587380  2303 bn_data_layer.cpp:71] shift: 0 0 0
I0304 23:04:48.587374  2305 net.cpp:410] inception_5b/relu_double3x3b <- inception_5b/double3x3b/bn
I0304 23:04:48.587383  2305 net.cpp:357] inception_5b/relu_double3x3b -> inception_5b/double3x3b/bn (in-place)
I0304 23:04:48.587390  2305 net.cpp:120] Setting up inception_5b/relu_double3x3b
I0304 23:04:48.587393  2303 bn_data_layer.cpp:80] mean: 0 0 0
I0304 23:04:48.587406  2303 bn_data_layer.cpp:89] variance: 0 0 0
I0304 23:04:48.587417  2303 net.cpp:127] Top shape: 24 224 7 7 (263424)
I0304 23:04:48.587429  2303 layer_factory.hpp:74] Creating layer inception_5b/relu_double3x3b
I0304 23:04:48.587436  2303 net.cpp:90] Creating Layer inception_5b/relu_double3x3b
I0304 23:04:48.587445  2303 net.cpp:410] inception_5b/relu_double3x3b <- inception_5b/double3x3b/bn
I0304 23:04:48.587451  2303 net.cpp:357] inception_5b/relu_double3x3b -> inception_5b/double3x3b/bn (in-place)
I0304 23:04:48.587460  2303 net.cpp:120] Setting up inception_5b/relu_double3x3b
I0304 23:04:48.587522  2302 net.cpp:127] Top shape: 24 224 7 7 (263424)
I0304 23:04:48.587535  2302 layer_factory.hpp:74] Creating layer inception_5b/pool
I0304 23:04:48.587543  2302 layer_factory.cpp:85] CUDNN does not support padding or multiple tops. Using Caffe's own pooling layer.
I0304 23:04:48.587550  2302 net.cpp:90] Creating Layer inception_5b/pool
I0304 23:04:48.587558  2302 net.cpp:410] inception_5b/pool <- inception_5a/output_inception_5a/output_0_split_3
I0304 23:04:48.587568  2302 net.cpp:368] inception_5b/pool -> inception_5b/pool
I0304 23:04:48.587576  2302 net.cpp:120] Setting up inception_5b/pool
I0304 23:04:48.587587  2302 net.cpp:127] Top shape: 24 1024 7 7 (1204224)
I0304 23:04:48.587594  2302 layer_factory.hpp:74] Creating layer inception_5b/pool_proj
I0304 23:04:48.587604  2302 net.cpp:90] Creating Layer inception_5b/pool_proj
I0304 23:04:48.587610  2302 net.cpp:410] inception_5b/pool_proj <- inception_5b/pool
I0304 23:04:48.587617  2302 net.cpp:368] inception_5b/pool_proj -> inception_5b/pool_proj
I0304 23:04:48.587626  2302 net.cpp:120] Setting up inception_5b/pool_proj
I0304 23:04:48.587648  2305 net.cpp:127] Top shape: 24 224 7 7 (263424)
I0304 23:04:48.587658  2305 layer_factory.hpp:74] Creating layer inception_5b/pool
I0304 23:04:48.587666  2305 layer_factory.cpp:85] CUDNN does not support padding or multiple tops. Using Caffe's own pooling layer.
I0304 23:04:48.587676  2305 net.cpp:90] Creating Layer inception_5b/pool
I0304 23:04:48.587682  2305 net.cpp:410] inception_5b/pool <- inception_5a/output_inception_5a/output_0_split_3
I0304 23:04:48.587690  2305 net.cpp:368] inception_5b/pool -> inception_5b/pool
I0304 23:04:48.587699  2305 net.cpp:120] Setting up inception_5b/pool
I0304 23:04:48.587712  2305 net.cpp:127] Top shape: 24 1024 7 7 (1204224)
I0304 23:04:48.587718  2305 layer_factory.hpp:74] Creating layer inception_5b/pool_proj
I0304 23:04:48.587726  2305 net.cpp:90] Creating Layer inception_5b/pool_proj
I0304 23:04:48.587728  2303 net.cpp:127] Top shape: 24 224 7 7 (263424)
I0304 23:04:48.587733  2305 net.cpp:410] inception_5b/pool_proj <- inception_5b/pool
I0304 23:04:48.587740  2305 net.cpp:368] inception_5b/pool_proj -> inception_5b/pool_proj
I0304 23:04:48.587749  2305 net.cpp:120] Setting up inception_5b/pool_proj
I0304 23:04:48.587738  2303 layer_factory.hpp:74] Creating layer inception_5b/pool
I0304 23:04:48.587745  2303 layer_factory.cpp:85] CUDNN does not support padding or multiple tops. Using Caffe's own pooling layer.
I0304 23:04:48.587754  2303 net.cpp:90] Creating Layer inception_5b/pool
I0304 23:04:48.587762  2303 net.cpp:410] inception_5b/pool <- inception_5a/output_inception_5a/output_0_split_3
I0304 23:04:48.587771  2303 net.cpp:368] inception_5b/pool -> inception_5b/pool
I0304 23:04:48.587780  2303 net.cpp:120] Setting up inception_5b/pool
I0304 23:04:48.587792  2303 net.cpp:127] Top shape: 24 1024 7 7 (1204224)
I0304 23:04:48.587798  2303 layer_factory.hpp:74] Creating layer inception_5b/pool_proj
I0304 23:04:48.587810  2303 net.cpp:90] Creating Layer inception_5b/pool_proj
I0304 23:04:48.587816  2303 net.cpp:410] inception_5b/pool_proj <- inception_5b/pool
I0304 23:04:48.587824  2303 net.cpp:368] inception_5b/pool_proj -> inception_5b/pool_proj
I0304 23:04:48.587836  2303 net.cpp:120] Setting up inception_5b/pool_proj
I0304 23:04:48.589737  2301 cudnn_conv_data_layer.cpp:184] Reallocating workspace storage: 6780
I0304 23:04:48.589802  2301 net.cpp:127] Top shape: 24 128 7 7 (150528)
I0304 23:04:48.589812  2301 layer_factory.hpp:74] Creating layer inception_5b/pool_proj/bn
I0304 23:04:48.589826  2301 net.cpp:90] Creating Layer inception_5b/pool_proj/bn
I0304 23:04:48.589840  2301 net.cpp:410] inception_5b/pool_proj/bn <- inception_5b/pool_proj
I0304 23:04:48.589850  2301 net.cpp:368] inception_5b/pool_proj/bn -> inception_5b/pool_proj/bn
I0304 23:04:48.589859  2301 net.cpp:120] Setting up inception_5b/pool_proj/bn
I0304 23:04:48.589879  2301 bn_data_layer.cpp:60] scale: 1 1 1
I0304 23:04:48.589893  2301 bn_data_layer.cpp:71] shift: 0 0 0
I0304 23:04:48.589903  2301 bn_data_layer.cpp:80] mean: 0 0 0
I0304 23:04:48.589915  2301 bn_data_layer.cpp:89] variance: 0 0 0
I0304 23:04:48.589922  2301 net.cpp:127] Top shape: 24 128 7 7 (150528)
I0304 23:04:48.589931  2301 layer_factory.hpp:74] Creating layer inception_5b/relu_pool_proj
I0304 23:04:48.589938  2301 net.cpp:90] Creating Layer inception_5b/relu_pool_proj
I0304 23:04:48.589944  2301 net.cpp:410] inception_5b/relu_pool_proj <- inception_5b/pool_proj/bn
I0304 23:04:48.589926  2305 cudnn_conv_data_layer.cpp:184] Reallocating workspace storage: 6780
I0304 23:04:48.589952  2301 net.cpp:357] inception_5b/relu_pool_proj -> inception_5b/pool_proj/bn (in-place)
I0304 23:04:48.589959  2301 net.cpp:120] Setting up inception_5b/relu_pool_proj
I0304 23:04:48.589982  2305 net.cpp:127] Top shape: 24 128 7 7 (150528)
I0304 23:04:48.589998  2305 layer_factory.hpp:74] Creating layer inception_5b/pool_proj/bn
I0304 23:04:48.590013  2305 net.cpp:90] Creating Layer inception_5b/pool_proj/bn
I0304 23:04:48.590020  2305 net.cpp:410] inception_5b/pool_proj/bn <- inception_5b/pool_proj
I0304 23:04:48.590037  2305 net.cpp:368] inception_5b/pool_proj/bn -> inception_5b/pool_proj/bn
I0304 23:04:48.590049  2305 net.cpp:120] Setting up inception_5b/pool_proj/bn
I0304 23:04:48.590082  2302 cudnn_conv_data_layer.cpp:184] Reallocating workspace storage: 6780
I0304 23:04:48.590142  2302 net.cpp:127] Top shape: 24 128 7 7 (150528)
I0304 23:04:48.590154  2302 layer_factory.hpp:74] Creating layer inception_5b/pool_proj/bn
I0304 23:04:48.590165  2302 net.cpp:90] Creating Layer inception_5b/pool_proj/bn
I0304 23:04:48.590152  2303 cudnn_conv_data_layer.cpp:184] Reallocating workspace storage: 6780
I0304 23:04:48.590173  2302 net.cpp:410] inception_5b/pool_proj/bn <- inception_5b/pool_proj
I0304 23:04:48.590183  2302 net.cpp:368] inception_5b/pool_proj/bn -> inception_5b/pool_proj/bn
I0304 23:04:48.590194  2302 net.cpp:120] Setting up inception_5b/pool_proj/bn
I0304 23:04:48.590211  2303 net.cpp:127] Top shape: 24 128 7 7 (150528)
I0304 23:04:48.590222  2303 layer_factory.hpp:74] Creating layer inception_5b/pool_proj/bn
I0304 23:04:48.590236  2303 net.cpp:90] Creating Layer inception_5b/pool_proj/bn
I0304 23:04:48.590227  2302 bn_data_layer.cpp:60] scale: 1 1 1
I0304 23:04:48.590229  2305 bn_data_layer.cpp:60] scale: 1 1 1
I0304 23:04:48.590243  2303 net.cpp:410] inception_5b/pool_proj/bn <- inception_5b/pool_proj
I0304 23:04:48.590245  2302 bn_data_layer.cpp:71] shift: 0 0 0
I0304 23:04:48.590253  2303 net.cpp:368] inception_5b/pool_proj/bn -> inception_5b/pool_proj/bn
I0304 23:04:48.590246  2305 bn_data_layer.cpp:71] shift: 0 0 0
I0304 23:04:48.590258  2302 bn_data_layer.cpp:80] mean: 0 0 0
I0304 23:04:48.590257  2305 bn_data_layer.cpp:80] mean: 0 0 0
I0304 23:04:48.590270  2305 bn_data_layer.cpp:89] variance: 0 0 0
I0304 23:04:48.590265  2303 net.cpp:120] Setting up inception_5b/pool_proj/bn
I0304 23:04:48.590270  2302 bn_data_layer.cpp:89] variance: 0 0 0
I0304 23:04:48.590278  2305 net.cpp:127] Top shape: 24 128 7 7 (150528)
I0304 23:04:48.590281  2302 net.cpp:127] Top shape: 24 128 7 7 (150528)
I0304 23:04:48.590289  2305 layer_factory.hpp:74] Creating layer inception_5b/relu_pool_proj
I0304 23:04:48.590292  2302 layer_factory.hpp:74] Creating layer inception_5b/relu_pool_proj
I0304 23:04:48.590286  2303 bn_data_layer.cpp:60] scale: 1 1 1
I0304 23:04:48.590297  2305 net.cpp:90] Creating Layer inception_5b/relu_pool_proj
I0304 23:04:48.590303  2305 net.cpp:410] inception_5b/relu_pool_proj <- inception_5b/pool_proj/bn
I0304 23:04:48.590301  2302 net.cpp:90] Creating Layer inception_5b/relu_pool_proj
I0304 23:04:48.590306  2302 net.cpp:410] inception_5b/relu_pool_proj <- inception_5b/pool_proj/bn
I0304 23:04:48.590314  2302 net.cpp:357] inception_5b/relu_pool_proj -> inception_5b/pool_proj/bn (in-place)
I0304 23:04:48.590304  2303 bn_data_layer.cpp:71] shift: 0 0 0
I0304 23:04:48.590317  2305 net.cpp:357] inception_5b/relu_pool_proj -> inception_5b/pool_proj/bn (in-place)
I0304 23:04:48.590325  2305 net.cpp:120] Setting up inception_5b/relu_pool_proj
I0304 23:04:48.590323  2302 net.cpp:120] Setting up inception_5b/relu_pool_proj
I0304 23:04:48.590344  2301 net.cpp:127] Top shape: 24 128 7 7 (150528)
I0304 23:04:48.590354  2301 layer_factory.hpp:74] Creating layer inception_5b/output
I0304 23:04:48.590320  2303 bn_data_layer.cpp:80] mean: 0 0 0
I0304 23:04:48.590338  2303 bn_data_layer.cpp:89] variance: 0 0 0
I0304 23:04:48.590348  2303 net.cpp:127] Top shape: 24 128 7 7 (150528)
I0304 23:04:48.590363  2301 net.cpp:90] Creating Layer inception_5b/output
I0304 23:04:48.590368  2301 net.cpp:410] inception_5b/output <- inception_5b/1x1/bn
I0304 23:04:48.590361  2303 layer_factory.hpp:74] Creating layer inception_5b/relu_pool_proj
I0304 23:04:48.590370  2303 net.cpp:90] Creating Layer inception_5b/relu_pool_proj
I0304 23:04:48.590378  2303 net.cpp:410] inception_5b/relu_pool_proj <- inception_5b/pool_proj/bn
I0304 23:04:48.590374  2301 net.cpp:410] inception_5b/output <- inception_5b/3x3/bn
I0304 23:04:48.590380  2301 net.cpp:410] inception_5b/output <- inception_5b/double3x3b/bn
I0304 23:04:48.590386  2303 net.cpp:357] inception_5b/relu_pool_proj -> inception_5b/pool_proj/bn (in-place)
I0304 23:04:48.590395  2303 net.cpp:120] Setting up inception_5b/relu_pool_proj
I0304 23:04:48.590397  2301 net.cpp:410] inception_5b/output <- inception_5b/pool_proj/bn
I0304 23:04:48.590406  2301 net.cpp:368] inception_5b/output -> inception_5b/output
I0304 23:04:48.590415  2301 net.cpp:120] Setting up inception_5b/output
I0304 23:04:48.590425  2301 net.cpp:127] Top shape: 24 1024 7 7 (1204224)
I0304 23:04:48.590430  2301 layer_factory.hpp:74] Creating layer pool5/7x7_s1
I0304 23:04:48.590436  2301 net.cpp:90] Creating Layer pool5/7x7_s1
I0304 23:04:48.590441  2301 net.cpp:410] pool5/7x7_s1 <- inception_5b/output
I0304 23:04:48.590450  2301 net.cpp:368] pool5/7x7_s1 -> pool5/7x7_s1
I0304 23:04:48.590456  2301 net.cpp:120] Setting up pool5/7x7_s1
I0304 23:04:48.590670  2301 net.cpp:127] Top shape: 24 1024 1 1 (24576)
I0304 23:04:48.590682  2301 layer_factory.hpp:74] Creating layer loss3/classifier_finetune
I0304 23:04:48.590706  2301 net.cpp:90] Creating Layer loss3/classifier_finetune
I0304 23:04:48.590711  2301 net.cpp:410] loss3/classifier_finetune <- pool5/7x7_s1
I0304 23:04:48.590720  2301 net.cpp:368] loss3/classifier_finetune -> loss3/classifier
I0304 23:04:48.590729  2301 net.cpp:120] Setting up loss3/classifier_finetune
I0304 23:04:48.590791  2302 net.cpp:127] Top shape: 24 128 7 7 (150528)
I0304 23:04:48.590808  2302 layer_factory.hpp:74] Creating layer inception_5b/output
I0304 23:04:48.590817  2302 net.cpp:90] Creating Layer inception_5b/output
I0304 23:04:48.590824  2302 net.cpp:410] inception_5b/output <- inception_5b/1x1/bn
I0304 23:04:48.590831  2302 net.cpp:410] inception_5b/output <- inception_5b/3x3/bn
I0304 23:04:48.590838  2302 net.cpp:410] inception_5b/output <- inception_5b/double3x3b/bn
I0304 23:04:48.590859  2302 net.cpp:410] inception_5b/output <- inception_5b/pool_proj/bn
I0304 23:04:48.590868  2302 net.cpp:368] inception_5b/output -> inception_5b/output
I0304 23:04:48.590878  2302 net.cpp:120] Setting up inception_5b/output
I0304 23:04:48.590888  2302 net.cpp:127] Top shape: 24 1024 7 7 (1204224)
I0304 23:04:48.590893  2302 layer_factory.hpp:74] Creating layer pool5/7x7_s1
I0304 23:04:48.590903  2302 net.cpp:90] Creating Layer pool5/7x7_s1
I0304 23:04:48.590895  2305 net.cpp:127] Top shape: 24 128 7 7 (150528)
I0304 23:04:48.590909  2305 layer_factory.hpp:74] Creating layer inception_5b/output
I0304 23:04:48.590909  2302 net.cpp:410] pool5/7x7_s1 <- inception_5b/output
I0304 23:04:48.590917  2302 net.cpp:368] pool5/7x7_s1 -> pool5/7x7_s1
I0304 23:04:48.590917  2305 net.cpp:90] Creating Layer inception_5b/output
I0304 23:04:48.590924  2305 net.cpp:410] inception_5b/output <- inception_5b/1x1/bn
I0304 23:04:48.590931  2305 net.cpp:410] inception_5b/output <- inception_5b/3x3/bn
I0304 23:04:48.590925  2302 net.cpp:120] Setting up pool5/7x7_s1
I0304 23:04:48.590939  2305 net.cpp:410] inception_5b/output <- inception_5b/double3x3b/bn
I0304 23:04:48.590960  2305 net.cpp:410] inception_5b/output <- inception_5b/pool_proj/bn
I0304 23:04:48.590971  2305 net.cpp:368] inception_5b/output -> inception_5b/output
I0304 23:04:48.590966  2303 net.cpp:127] Top shape: 24 128 7 7 (150528)
I0304 23:04:48.590981  2303 layer_factory.hpp:74] Creating layer inception_5b/output
I0304 23:04:48.590981  2305 net.cpp:120] Setting up inception_5b/output
I0304 23:04:48.590991  2305 net.cpp:127] Top shape: 24 1024 7 7 (1204224)
I0304 23:04:48.590997  2305 layer_factory.hpp:74] Creating layer pool5/7x7_s1
I0304 23:04:48.590993  2303 net.cpp:90] Creating Layer inception_5b/output
I0304 23:04:48.591001  2303 net.cpp:410] inception_5b/output <- inception_5b/1x1/bn
I0304 23:04:48.591008  2303 net.cpp:410] inception_5b/output <- inception_5b/3x3/bn
I0304 23:04:48.591006  2305 net.cpp:90] Creating Layer pool5/7x7_s1
I0304 23:04:48.591012  2305 net.cpp:410] pool5/7x7_s1 <- inception_5b/output
I0304 23:04:48.591022  2305 net.cpp:368] pool5/7x7_s1 -> pool5/7x7_s1
I0304 23:04:48.591035  2305 net.cpp:120] Setting up pool5/7x7_s1
I0304 23:04:48.591015  2303 net.cpp:410] inception_5b/output <- inception_5b/double3x3b/bn
I0304 23:04:48.591048  2303 net.cpp:410] inception_5b/output <- inception_5b/pool_proj/bn
I0304 23:04:48.591056  2303 net.cpp:368] inception_5b/output -> inception_5b/output
I0304 23:04:48.591068  2303 net.cpp:120] Setting up inception_5b/output
I0304 23:04:48.591085  2303 net.cpp:127] Top shape: 24 1024 7 7 (1204224)
I0304 23:04:48.591091  2303 layer_factory.hpp:74] Creating layer pool5/7x7_s1
I0304 23:04:48.591100  2303 net.cpp:90] Creating Layer pool5/7x7_s1
I0304 23:04:48.591106  2303 net.cpp:410] pool5/7x7_s1 <- inception_5b/output
I0304 23:04:48.591114  2303 net.cpp:368] pool5/7x7_s1 -> pool5/7x7_s1
I0304 23:04:48.591122  2303 net.cpp:120] Setting up pool5/7x7_s1
I0304 23:04:48.591197  2302 net.cpp:127] Top shape: 24 1024 1 1 (24576)
I0304 23:04:48.591209  2302 layer_factory.hpp:74] Creating layer loss3/classifier_finetune
I0304 23:04:48.591220  2302 net.cpp:90] Creating Layer loss3/classifier_finetune
I0304 23:04:48.591226  2302 net.cpp:410] loss3/classifier_finetune <- pool5/7x7_s1
I0304 23:04:48.591238  2302 net.cpp:368] loss3/classifier_finetune -> loss3/classifier
I0304 23:04:48.591248  2302 net.cpp:120] Setting up loss3/classifier_finetune
I0304 23:04:48.591301  2305 net.cpp:127] Top shape: 24 1024 1 1 (24576)
I0304 23:04:48.591313  2305 layer_factory.hpp:74] Creating layer loss3/classifier_finetune
I0304 23:04:48.591327  2305 net.cpp:90] Creating Layer loss3/classifier_finetune
I0304 23:04:48.591334  2305 net.cpp:410] loss3/classifier_finetune <- pool5/7x7_s1
I0304 23:04:48.591348  2305 net.cpp:368] loss3/classifier_finetune -> loss3/classifier
I0304 23:04:48.591358  2305 net.cpp:120] Setting up loss3/classifier_finetune
I0304 23:04:48.591392  2303 net.cpp:127] Top shape: 24 1024 1 1 (24576)
I0304 23:04:48.591408  2303 layer_factory.hpp:74] Creating layer loss3/classifier_finetune
I0304 23:04:48.591428  2303 net.cpp:90] Creating Layer loss3/classifier_finetune
I0304 23:04:48.591434  2303 net.cpp:410] loss3/classifier_finetune <- pool5/7x7_s1
I0304 23:04:48.591442  2303 net.cpp:368] loss3/classifier_finetune -> loss3/classifier
I0304 23:04:48.591452  2303 net.cpp:120] Setting up loss3/classifier_finetune
I0304 23:04:48.591665  2301 net.cpp:127] Top shape: 96 101 (9696)
I0304 23:04:48.591684  2301 layer_factory.hpp:74] Creating layer loss3/classifier_loss3/classifier_finetune_0_split
I0304 23:04:48.591694  2301 net.cpp:90] Creating Layer loss3/classifier_loss3/classifier_finetune_0_split
I0304 23:04:48.591699  2301 net.cpp:410] loss3/classifier_loss3/classifier_finetune_0_split <- loss3/classifier
I0304 23:04:48.591706  2301 net.cpp:368] loss3/classifier_loss3/classifier_finetune_0_split -> loss3/classifier_loss3/classifier_finetune_0_split_0
I0304 23:04:48.591714  2301 net.cpp:368] loss3/classifier_loss3/classifier_finetune_0_split -> loss3/classifier_loss3/classifier_finetune_0_split_1
I0304 23:04:48.591722  2301 net.cpp:120] Setting up loss3/classifier_loss3/classifier_finetune_0_split
I0304 23:04:48.591730  2301 net.cpp:127] Top shape: 96 101 (9696)
I0304 23:04:48.591735  2301 net.cpp:127] Top shape: 96 101 (9696)
I0304 23:04:48.591740  2301 layer_factory.hpp:74] Creating layer loss
I0304 23:04:48.591747  2301 net.cpp:90] Creating Layer loss
I0304 23:04:48.591753  2301 net.cpp:410] loss <- loss3/classifier_loss3/classifier_finetune_0_split_0
I0304 23:04:48.591758  2301 net.cpp:410] loss <- label_Gather_label_0_split_0
I0304 23:04:48.591764  2301 net.cpp:368] loss -> loss
I0304 23:04:48.591771  2301 net.cpp:120] Setting up loss
…
